main/template_estimation/simple_models/ahs_theta_iter_1100.npz (npz, 29380 bytes, 3 tensors)

Wt f4 [5, 101, 6]
0.0 0.0 0.0 0.0 0.0 0.0 -0.032174792 0.24186245
0.04932002 0.0084047485 0.003077142 0.4126287 -0.07642037 0.20109469 0.037005037 0.15428233
-0.10485721 0.22183321 -0.2391494 0.19147417 0.16540568 0.12118811 -0.16098398 0.056815505
-0.31726098 0.0929687 0.11682229 0.045384966 -0.28759894 -0.092419796 -0.24119942 -0.065633416
0.028387263 0.02314352 -0.32177305 -0.33125028 -0.21050526 -0.098639876 0.20207153 -0.019443903
-0.2170049 -0.082224675 -0.29501098 0.03691969 0.23265792 -0.044029318 -0.14830324 -0.026387516
-0.17362241 0.097463936 0.42604154 -0.08565314 -0.09111965 0.274992 -0.07994935 0.20330714
0.5258921 -0.23484683 -0.14100659 0.3483331 -0.07839849 0.19917272 0.44198623 -0.46929333
-0.2698577 0.508492 0.017015658 0.089974955 0.6518625 -0.35488638 -0.3287395 0.51899076
-0.031322695 -0.08592844 0.8440382 -0.2531629 -0.43150902 0.7675576 -0.05560505 -0.08058565
0.63265294 -0.23756184 -0.4046754 0.6885829 0.29490358 -0.21346131 0.72132045 -0.35025388
-0.3513852 0.6129817 0.2979147 -0.102979586 0.84835184 -0.5016119 -0.04840527 0.72369564
0.0723546 0.0035050064 1.0980799 -0.43296668 0.025419097 0.57570744 0.060495168 -0.06283271
1.1552616 -0.34265703 -0.015500236 0.67956674 -0.001180537 -0.098298654 1.2205869 -0.43701375
0.27986124 0.6932218 0.17837198 -0.150402 1.2015637 -0.21508402 0.38054997 0.8022728
0.4688086 -0.28644723 1.3317741 -0.36688262 0.2023581 0.7432132 0.43523782 -0.13258617
1.2133863 -0.40496147 0.4002464 0.8182465 0.5808048 -0.06424288 1.1333723 -0.36091638
0.41762602 0.9473039 0.74360114 -0.04106689 1.1436827 -0.18622929 0.39107728 0.95974773
0.6142382 -0.060425814 1.1628586 -0.36175123 0.40313673 1.0832032 0.7361544 -0.08330134
1.3264422 -0.4846918 0.4969308 1.1534765 0.8189113 0.00010976195 1.2700984 -0.4914425
0.6524228 1.2043895 0.91613746 0.07558812 1.3315256 -0.39871 0.5105356 1.0760511
0.8595325 0.022841005 1.4962053 -0.2714615 0.56948423 1.0565491 0.7794282 -0.1795832
1.4322475 -0.041541412 0.47311595 1.046544 0.90330446 -0.08383525 1.4400176 -0.18754351
0.5313291 0.9152503 0.82897985 -0.1026271 1.4011786 -0.20663683 0.49634123 0.78566897
0.7275522 0.062364742 1.4398556 -0.33333445 0.70235324 0.9394839 0.84817994 0.17047666
1.5334448 0.13019912 0.8316697 0.8743043 0.74879324 0.21364212 1.4815246 0.079927444
0.64846754 0.7800082 0.6918096 0.44690982 1.641212 0.1635449 0.6674514 0.85358196
0.6303015 0.37427273 1.662108 0.07906254 0.8262103 0.90329784 0.6730589 0.15966071
1.6453398 0.10066773 0.7576752 0.97848505 0.6334524 -0.00028719753 1.5848973 0.22049719
0.6709175 0.96823454 0.5062558 -0.09057143 1.4914806 0.2971076 0.6298471 0.98868895
0.5410373 -0.13159013 1.3508148 0.23628554 0.60132027 0.90063286 0.64479625 -0.28397655
1.4629532 0.08652217 0.78644407 0.8044163 0.38595527 -0.3245009 1.2602385 0.16330513
00000000: 0000 0000 0000 0000 0000 0000 0000 0000
00000010: 0000 0000 0000 0000 b7c9 03bd caaa 773e
00000020: ca03 4a3d 12b4 093c e0a9 493b 1244 d33e
00000030: 4882 9cbd c4eb 4d3e 9892 173d 30fc 1d3e
00000040: 60bf d6bd 3f28 633e 95e3 74be ce11 443e
00000050: 1b60 293e 7931 f83d fcd8 24be 60b7 683d
00000060: 0870 a2be 6066 be3d 8640 ef3d 96e5 393d
00000070: 2b40 93be 9746 bdbd fbfc 76be d06a 86bd
00000080: 688c e83c 7b97 bd3c 70bf a4be a399 a9be
00000090: b18e 57be b403 cabd d7eb 4e3e d248 9fbc
000000a0: 8836 5ebe 6965 a8bd ae0b 97be 1a39 173d
000000b0: e13d 6e3e 1658 34bd cedc 17be a22a d8bc
000000c0: 13ca 31be 2c9b c73d 1e22 da3e ea6a afbd
000000d0: f09c babd c0cb 8c3e 7cbc a3bd bf2f 503e
000000e0: dda0 063f b07b 70be 0864 10be b758 b23e
000000f0: 638f a0bd eff3 4b3e 054c e23e 3747 f0be
00000100: ca2a 8abe 882c 023f 6c64 8b3c ca44 b83d
00000110: 76e0 263f abb3 b5be 8b50 a8be 94dc 043f
00000120: 3a4c 00bd 40fb afbd e312 583f 919e 81be
00000130: c0ee dcbe a87e 443f 1fc2 63bd 170a a5bd
00000140: 8bf5 213f 6943 73be 9d31 cfbe f846 303f
00000150: 9afd 963e 9a95 5abe 75a8 383f 7a54 b3be
00000160: c3e8 b3be 5eec 1c3f 4788 983e f6e6 d2bd
00000170: 962d 593f a369 00bf 9b44 46bd 1e44 393f
00000180: a62e 943d 40b4 653b e28d 8c3f cfad ddbe
00000190: b63b d03c 9061 133f c8c9 773d 70ae 80bd
000001a0: 9ddf 933f be70 afbe b4f4 7dbc 16f8 2d3f
000001b0: 40bc 9aba ce50 c9bd 313c 9c3f 44c0 dfbe
000001c0: f949 8f3e fc76 313f 25a7 363e fb02 1abe
000001d0: d7cc 993f fc3e 5cbe 72d7 c23e c061 4d3f
000001e0: ae07 f03e 36a9 92be 9377 aa3f 0ad8 bbbe
000001f0: f636 4f3e 3843 3e3f 7ed7 de3e abc4 07be
00000200: 3e50 9b3f 1c57 cfbe 19ed cc3e 9a78 513f
00000210: a0af 143f c591 83bd 5812 913f 08ca b8be
00000220: 14d3 d53e 8282 723f a55c 3e3f c135 28bd
00000230: 3264 923f e4b2 3ebe 483b c83e 07b2 753f
00000240: b73e 1d3f 0f81 77bd 8dd8 943f 7537 b9be
00000250: f067 ce3e 67a6 8a3f 9d74 3c3f e599 aabd
00000260: dcc8 a93f 8629 f8be b76d fe3e 1ea5 933f
00000270: 2ca4 513f 0030 e638 9692 a23f 5a9e fbbe
00000280: 2e05 273f 6f29 9a3f fc87 6a3f f2cd 9a3d
00000290: 6e6f aa3f b823 ccbe 76b2 023f 0bbc 893f
000002a0: 520a 5c3f 0f1d bb3c a883 bf3f 00fd 8abe
000002b0: b8c9 113f 003d 873f 9b88 473f a9e4 37be
000002c0: e353 b73f 5427 2abd 413c f23e 27f5 853f
000002d0: f63e 673f d1b1 abbd 7f52 b83f 680b 40be
000002e0: 2f05 083f d84d 6a3f 0638 543f 282e d2bd
000002f0: d259 b33f 9b98 53be 7020 fe3e 9a21 493f
00000300: dc40 3a3f 2c72 7f3d 304d b83f d0aa aabe
00000310: 6ccd 333f 0482 703f 5222 593f 6f91 2e3e
00000320: eb47 c43f eb52 053e 4ee8 543f 68d2 5f3f
00000330: eab0 3f3f 00c5 5a3e 99a2 bd3f 00b1 a33d
00000340: f801 263f 9eae 473f 6f1a 313f 5dd1 e43e
00000350: 3c13 d23f 5078 273e 18de 2a3f 5984 5a3f
00000360: 705b 213f ada0 bf3e f4bf d43f 8aeb a13d
00000370: 8582 533f 873e 673f 974d 2c3f 197e 233e
00000380: 7f9a d23f e22a ce3d 00f7 413f ff7d 7a3f
00000390: f029 223f 0093 96b9 eadd ca3f 04ca 613e
000003a0: 40c1 2b3f 38de 773f fb99 013f 847d b9bd
000003b0: d6e8 be3f 7d1e 983e a93d 213f b81a 7d3f
000003c0: 6c81 0a3f 90bf 06be 80e7 ac3f d6f4 713e
000003d0: 20f0 193f e08f 663f 5e11 253f 6065 91be
000003e0: 0d42 bb3f 8932 b13d 6654 493f 3aee 4d3f
000003f0: ee9b c53e fb24 a6be 7f4f a13f 7639 273e

Xt f4 [5, 101, 6]
-0.462221 0.020176614 0.11509853 0.0 0.0 0.0 -0.45921996 0.021235658
0.11611292 0.0 0.0 0.0 -0.46078244 0.025345953 0.12161335 0.0
0.0 0.0 -0.45494056 0.027440649 0.12279291 0.0 0.0 0.0
-0.46125555 0.021261057 0.11662149 0.0 0.0 0.0 -0.47008544 0.01594132
0.11211228 0.0 0.0 0.0 -0.4616325 0.019857151 0.114886984 0.0
0.0 0.0 -0.4606622 0.019255972 0.11420063 0.0 0.0 0.0
-0.45006612 0.024031386 0.117618755 0.0 0.0 0.0 -0.44612843 0.020889346
0.11292874 0.0 0.0 0.0 -0.45551085 0.007568106 0.09877442 0.0
0.0 0.0 -0.4433968 0.01947615 0.11037755 0.0 0.0 0.0
-0.43281648 0.029951474 0.12050635 0.0 0.0 0.0 -0.4473121 0.02228275
0.11462527 0.0 0.0 0.0 -0.44519758 0.02046313 0.111744165 0.0
0.0 0.0 -0.43935308 0.018978022 0.108757004 0.0 0.0 0.0
-0.4234801 0.030788988 0.119642526 0.0 0.0 0.0 -0.42070404 0.035974022
0.12530103 0.0 0.0 0.0 -0.41936687 0.03407126 0.122751534 0.0
0.0 0.0 -0.41976744 0.04208882 0.13270813 0.0 0.0 0.0
-0.41570795 0.039467536 0.12833877 0.0 0.0 0.0 -0.4241691 0.033391215
0.123135336 0.0 0.0 0.0 -0.42974427 0.031988397 0.12285097 0.0
0.0 0.0 -0.42840502 0.03920352 0.13146068 0.0 0.0 0.0
-0.43078244 0.03213436 0.123334825 0.0 0.0 0.0 -0.42341977 0.032803632
0.12240616 0.0 0.0 0.0 -0.42804056 0.030428242 0.12075962 0.0
0.0 0.0 -0.42411414 0.036215656 0.12699363 0.0 0.0 0.0
-0.41418007 0.047143437 0.1380402 0.0 0.0 0.0 -0.41844305 0.0539309
0.14711617 0.0 0.0 0.0 -0.42076775 0.04745639 0.13987286 0.0
0.0 0.0 -0.42521822 0.044824466 0.13766812 0.0 0.0 0.0
-0.42477003 0.040808912 0.13291483 0.0 0.0 0.0 -0.4144739 0.06344598
0.1584881 0.0 0.0 0.0 -0.42003635 0.058563966 0.15376592 0.0
0.0 0.0 -0.4094051 0.0671334 0.16205129 0.0 0.0 0.0
-0.41171917 0.06341767 0.15805133 0.0 0.0 0.0 -0.41591954 0.0628895
0.15811913 0.0 0.0 0.0 -0.42126393 0.06521118 0.16198647 0.0
0.0 0.0 -0.42865768 0.06462198 0.1628666 0.0 0.0 0.0
-0.44012007 0.05653095 0.15558702 0.0 0.0 0.0 -0.43699652 0.053663656
0.15121938 0.0 0.0 0.0 -0.45062667 0.049649946 0.1495025 0.0
00000000: 3ba8 ecbe 6d49 a53c c7b8 eb3d 0000 0000
00000010: 0000 0000 0000 0000 e11e ebbe 67f6 ad3c
00000020: 9ccc ed3d 0000 0000 0000 0000 0000 0000
00000030: adeb ebbe 51a2 cf3c 6c10 f93d 0000 0000
00000040: 0000 0000 0000 0000 f8ed e8be 36cb e03c
00000050: d97a fb3d 0000 0000 0000 0000 0000 0000
00000060: b029 ecbe ab2b ae3c 3fd7 ee3d 0000 0000
00000070: 0000 0000 0000 0000 0aaf f0be 5f97 823c
00000080: 209b e53d 0000 0000 0000 0000 0000 0000
00000090: 185b ecbe 77ab a23c de49 eb3d 0000 0000
000000a0: 0000 0000 0000 0000 eadb ebbe b3be 9d3c
000000b0: 05e2 e93d 0000 0000 0000 0000 0000 0000
000000c0: 116f e6be 78dd c43c 1ae2 f03d 0000 0000
000000d0: 0000 0000 0000 0000 f26a e4be 2220 ab3c
000000e0: 2f47 e73d 0000 0000 0000 0000 0000 0000
000000f0: b838 e9be e0fd f73b 3e4a ca3d 0000 0000
00000100: 0000 0000 0000 0000 e804 e3be 728c 9f3c
00000110: a00d e23d 0000 0000 0000 0000 0000 0000
00000120: 1f9a ddbe cb5c f53c 09cc f63d 0000 0000
00000130: 0000 0000 0000 0000 1706 e5be 508a b63c
00000140: a7c0 ea3d 0000 0000 0000 0000 0000 0000
00000150: f0f0 e3be 4ba2 a73c 20da e43d 0000 0000
00000160: 0000 0000 0000 0000 e3f2 e0be cc77 9b3c
00000170: febb de3d 0000 0000 0000 0000 0000 0000
00000180: 62d2 d8be 3039 fc3c 2407 f53d 0000 0000
00000190: 0000 0000 0000 0000 8566 d7be 7f59 133d
000001a0: ea4e 003e 0000 0000 0000 0000 0000 0000
000001b0: 41b7 d6be 4e8e 0b3d 2865 fb3d 0000 0000
000001c0: 0000 0000 0000 0000 c2eb d6be 5465 2c3d
000001d0: a4e4 073e 0000 0000 0000 0000 0000 0000
000001e0: acd7 d4be b6a8 213d 3d6b 033e 0000 0000
000001f0: 0000 0000 0000 0000 b12c d9be 3ac5 083d
00000200: 612e fc3d 0000 0000 0000 0000 0000 0000
00000210: 7107 dcbe 4406 033d 4a99 fb3d 0000 0000
00000220: 0000 0000 0000 0000 e757 dbbe df93 203d
00000230: a19d 063e 0000 0000 0000 0000 0000 0000
00000240: 848f dcbe 529f 033d f896 fc3d 0000 0000
00000250: 0000 0000 0000 0000 7aca d8be 1a5d 063d
00000260: 15b0 fa3d 0000 0000 0000 0000 0000 0000
00000270: 2228 dbbe a644 f93c d250 f73d 0000 0000
00000280: 0000 0000 0000 0000 7d25 d9be de56 143d
00000290: 9e0a 023e 0000 0000 0000 0000 0000 0000
000002a0: 690f d4be 7a19 413d 695a 0d3e 0000 0000
000002b0: 0000 0000 0000 0000 2b3e d6be a6e6 5c3d
000002c0: 9fa5 163e 0000 0000 0000 0000 0000 0000
000002d0: df6e d7be a261 423d d53a 0f3e 0000 0000
000002e0: 0000 0000 0000 0000 34b6 d9be dc99 373d
000002f0: dff8 0c3e 0000 0000 0000 0000 0000 0000
00000300: 757b d9be 3f27 273d d31a 083e 0000 0000
00000310: 0000 0000 0000 0000 ec35 d4be f7ef 813d
00000320: b44a 223e 0000 0000 0000 0000 0000 0000
00000330: 010f d7be c5e0 6f3d d074 1d3e 0000 0000
00000340: 0000 0000 0000 0000 8c9d d1be 3c7d 893d
00000350: c6f0 253e 0000 0000 0000 0000 0000 0000
00000360: dbcc d2be 20e1 813d 35d8 213e 0000 0000
00000370: 0000 0000 0000 0000 68f3 d4be 36cc 803d
00000380: fbe9 213e 0000 0000 0000 0000 0000 0000
00000390: e8af d7be 708d 853d c8df 253e 0000 0000
000003a0: 0000 0000 0000 0000 0579 dbbe 8758 843d
000003b0: 81c6 263e 0000 0000 0000 0000 0000 0000
000003c0: 6b57 e1be ff8c 673d 3452 1f3e 0000 0000
000003d0: 0000 0000 0000 0000 02be dfbe 6cce 5b3d
000003e0: 41d9 1a3e 0000 0000 0000 0000 0000 0000
000003f0: 8ab8 e6be be5d 4b3d 2f17 193e 0000 0000

theta f4 [1101]
0.2 0.2 0.19967891 0.19967891 0.4296967 0.4296967 0.4296967 0.4296967
0.4296967 0.4296967 0.4296967 0.4296967 0.4296967 0.4296967 0.4296967 0.4296967
0.4296967 0.4296967 0.4296967 0.4296967 0.4296967 0.4296967 0.4296967 0.4296967
0.4296967 0.4296967 0.4296967 0.4296967 0.4296967 0.4296967 0.4296967 0.4296967
0.4094205 0.4094205 0.4094205 0.4094205 0.4094205 0.4094205 0.4094205 0.4094205
0.4094205 0.4094205 0.4094205 0.4094205 0.4094205 0.4094205 0.32857606 0.32857606
0.32857606 0.32857606 0.32857606 0.32857606 0.32857606 0.32857606 0.32857606 0.32857606
0.32857606 0.32857606 0.32857606 0.32857606 0.32857606 0.32857606 0.32857606 0.32857606
0.32857606 0.32857606 0.32857606 0.32857606 0.32857606 0.32857606 0.32857606 0.32857606
0.32857606 0.32857606 0.32857606 0.32857606 0.32857606 0.32857606 0.32857606 0.32857606
0.32857606 0.32857606 0.32857606 0.32857606 0.32857606 0.32857606 0.32857606 0.32857606
0.32857606 0.32857606 0.32857606 0.32857606 0.32857606 0.32857606 0.32857606 0.32857606
0.32857606 0.32857606 0.32857606 0.32857606 0.32857606 0.32857606 0.32857606 0.32857606
0.32857606 0.32857606 0.32857606 0.32857606 0.32857606 0.32857606 0.32857606 0.32857606
0.32857606 0.32857606 0.32857606 0.32857606 0.32857606 0.32857606 0.32857606 0.32857606
0.32857606 0.32857606 0.3040278 0.3040278 0.3040278 0.3040278 0.30734205 0.30734205
0.30734205 0.30734205 0.30734205 0.30734205 0.30734205 0.30734205 0.30734205 0.30734205
0.30734205 0.30734205 0.30734205 0.30734205 0.30734205 0.30734205 0.30734205 0.30734205
0.30734205 0.30734205 0.30734205 0.30734205 0.30734205 0.30734205 0.30734205 0.30734205
0.30734205 0.30734205 0.30734205 0.30734205 0.30734205 0.30734205 0.30734205 0.30734205
0.30734205 0.30734205 0.30734205 0.30734205 0.30734205 0.30734205 0.30734205 0.30734205
0.30734205 0.29813677 0.29813677 0.29813677 0.29813677 0.29813677 0.29813677 0.29813677
0.29813677 0.29813677 0.29813677 0.29813677 0.29813677 0.29813677 0.29813677 0.29813677
0.29813677 0.39090258 0.39090258 0.39090258 0.39090258 0.39090258 0.39090258 0.39090258
0.35982418 0.35982418 0.35982418 0.35982418 0.35982418 0.35982418 0.35982418 0.35982418
0.35982418 0.35982418 0.35982418 0.35982418 0.35982418 0.35982418 0.35982418 0.35982418
0.35982418 0.35982418 0.35982418 0.35982418 0.35982418 0.29033333 0.29033333 0.29033333
0.29033333 0.29033333 0.29033333 0.29033333 0.29033333 0.325054 0.325054 0.325054
0.325054 0.325054 0.33034402 0.31615275 0.31615275 0.31615275 0.31615275 0.31615275
0.31615275 0.31615275 0.31615275 0.31615275 0.31615275 0.31615275 0.31615275 0.31615275
0.31615275 0.31615275 0.31615275 0.31615275 0.31615275 0.31615275 0.31615275 0.31615275
0.31615275 0.31615275 0.31615275 0.31615275 0.31615275 0.31615275 0.31615275 0.31615275
00000000: cdcc 4c3e cdcc 4c3e a178 4c3e a178 4c3e
00000010: 3501 dc3e 3501 dc3e 3501 dc3e 3501 dc3e
00000020: 3501 dc3e 3501 dc3e 3501 dc3e 3501 dc3e
00000030: 3501 dc3e 3501 dc3e 3501 dc3e 3501 dc3e
00000040: 3501 dc3e 3501 dc3e 3501 dc3e 3501 dc3e
00000050: 3501 dc3e 3501 dc3e 3501 dc3e 3501 dc3e
00000060: 3501 dc3e 3501 dc3e 3501 dc3e 3501 dc3e
00000070: 3501 dc3e 3501 dc3e 3501 dc3e 3501 dc3e
00000080: 909f d13e 909f d13e 909f d13e 909f d13e
00000090: 909f d13e 909f d13e 909f d13e 909f d13e
000000a0: 909f d13e 909f d13e 909f d13e 909f d13e
000000b0: 909f d13e 909f d13e 1f3b a83e 1f3b a83e
000000c0: 1f3b a83e 1f3b a83e 1f3b a83e 1f3b a83e
000000d0: 1f3b a83e 1f3b a83e 1f3b a83e 1f3b a83e
000000e0: 1f3b a83e 1f3b a83e 1f3b a83e 1f3b a83e
000000f0: 1f3b a83e 1f3b a83e 1f3b a83e 1f3b a83e
00000100: 1f3b a83e 1f3b a83e 1f3b a83e 1f3b a83e
00000110: 1f3b a83e 1f3b a83e 1f3b a83e 1f3b a83e
00000120: 1f3b a83e 1f3b a83e 1f3b a83e 1f3b a83e
00000130: 1f3b a83e 1f3b a83e 1f3b a83e 1f3b a83e
00000140: 1f3b a83e 1f3b a83e 1f3b a83e 1f3b a83e
00000150: 1f3b a83e 1f3b a83e 1f3b a83e 1f3b a83e
00000160: 1f3b a83e 1f3b a83e 1f3b a83e 1f3b a83e
00000170: 1f3b a83e 1f3b a83e 1f3b a83e 1f3b a83e
00000180: 1f3b a83e 1f3b a83e 1f3b a83e 1f3b a83e
00000190: 1f3b a83e 1f3b a83e 1f3b a83e 1f3b a83e
000001a0: 1f3b a83e 1f3b a83e 1f3b a83e 1f3b a83e
000001b0: 1f3b a83e 1f3b a83e 1f3b a83e 1f3b a83e
000001c0: 1f3b a83e 1f3b a83e 1f3b a83e 1f3b a83e
000001d0: 1f3b a83e 1f3b a83e 1f3b a83e 1f3b a83e
000001e0: 1f3b a83e 1f3b a83e 88a9 9b3e 88a9 9b3e
000001f0: 88a9 9b3e 88a9 9b3e f05b 9d3e f05b 9d3e
00000200: f05b 9d3e f05b 9d3e f05b 9d3e f05b 9d3e
00000210: f05b 9d3e f05b 9d3e f05b 9d3e f05b 9d3e
00000220: f05b 9d3e f05b 9d3e f05b 9d3e f05b 9d3e
00000230: f05b 9d3e f05b 9d3e f05b 9d3e f05b 9d3e
00000240: f05b 9d3e f05b 9d3e f05b 9d3e f05b 9d3e
00000250: f05b 9d3e f05b 9d3e f05b 9d3e f05b 9d3e
00000260: f05b 9d3e f05b 9d3e f05b 9d3e f05b 9d3e
00000270: f05b 9d3e f05b 9d3e f05b 9d3e f05b 9d3e
00000280: f05b 9d3e f05b 9d3e f05b 9d3e f05b 9d3e
00000290: f05b 9d3e f05b 9d3e f05b 9d3e f05b 9d3e
000002a0: f05b 9d3e 62a5 983e 62a5 983e 62a5 983e
000002b0: 62a5 983e 62a5 983e 62a5 983e 62a5 983e
000002c0: 62a5 983e 62a5 983e 62a5 983e 62a5 983e
000002d0: 62a5 983e 62a5 983e 62a5 983e 62a5 983e
000002e0: 62a5 983e 6224 c83e 6224 c83e 6224 c83e
000002f0: 6224 c83e 6224 c83e 6224 c83e 6224 c83e
00000300: e03a b83e e03a b83e e03a b83e e03a b83e
00000310: e03a b83e e03a b83e e03a b83e e03a b83e
00000320: e03a b83e e03a b83e e03a b83e e03a b83e
00000330: e03a b83e e03a b83e e03a b83e e03a b83e
00000340: e03a b83e e03a b83e e03a b83e e03a b83e
00000350: e03a b83e 92a6 943e 92a6 943e 92a6 943e
00000360: 92a6 943e 92a6 943e 92a6 943e 92a6 943e
00000370: 92a6 943e 7a6d a63e 7a6d a63e 7a6d a63e
00000380: 7a6d a63e 7a6d a63e da22 a93e c6de a13e
00000390: c6de a13e c6de a13e c6de a13e c6de a13e
000003a0: c6de a13e c6de a13e c6de a13e c6de a13e
000003b0: c6de a13e c6de a13e c6de a13e c6de a13e
000003c0: c6de a13e c6de a13e c6de a13e c6de a13e
000003d0: c6de a13e c6de a13e c6de a13e c6de a13e
000003e0: c6de a13e c6de a13e c6de a13e c6de a13e
000003f0: c6de a13e c6de a13e c6de a13e c6de a13e
