main/template_estimation/simple_models/ahs_theta_iter_800.npz (npz, 28180 bytes, 3 tensors)

Wt f4 [5, 101, 6]
0	0x00000000	0.0
1	0x00000000	0.0
2	0x00000000	0.0
3	0x00000000	0.0
4	0x00000000	0.0
5	0x00000000	0.0
6	0xbe18e63a	-0.14931574
7	0xbce9e9c4	-0.028553851
8	0x3e177a73	0.14792804
9	0xbe561690	-0.20907044
10	0xbd4ce4f4	-0.050023034
11	0xbd931ceb	-0.0718325
12	0xbe7f553e	-0.24934861
13	0xbe8aa2d1	-0.27077344
14	0x3e9db53c	0.30802333
15	0xbe3e90b4	-0.18609887
16	0xbe746725	-0.23867472
17	0x3dc2b388	0.09506899
18	0xbe2374e9	-0.15962566
19	0xbe8a0439	-0.26956347
20	0x3ecd51cf	0.40101478
21	0xbd67e77c	-0.056617245
22	0xbe16bef2	-0.14721277
23	0x3e07e46c	0.1327073
24	0x3b9b81f0	0.0047457144
25	0xbe4a3fbc	-0.19750875
26	0x3ecce874	0.40021098
27	0x3d19d9e2	0.037561305
28	0xbda55bfd	-0.08074186
29	0x3e36af0f	0.17840217
30	0x3e96c41a	0.2944649
31	0xbe8da4e4	-0.27664864
32	0x3ec53699	0.38518217
33	0xbe49c07c	-0.19702333
34	0xbe159ca0	-0.14610529
35	0x3d620f92	0.05519063
36	0x3e7af5e1	0.24507858
37	0xbeb0d27b	-0.34535584
38	0x3f05e3b6	0.52300584
39	0xbeab85fd	-0.33500662
40	0xbe11f12b	-0.14252155
41	0x3ddfbfde	0.10925268
42	0x3e5077f0	0.20358253
43	0xbe9e3436	-0.3089921
44	0x3f0b408b	0.5439536
45	0xbea47f20	-0.3212824
46	0xbe0e6df0	-0.13909125
47	0x3df2d6e6	0.11857395
48	0x3dc2fa37	0.09520381
49	0xbee54caa	-0.44785053
50	0x3f2a4e54	0.6652577
51	0xbe9244e9	-0.285682
52	0xbe992728	-0.29912686
53	0x3e169c7f	0.14708136
54	0x3de50fa7	0.11184626
55	0xbe9635d0	-0.2933793
56	0x3f5d2bb4	0.8639481
57	0xbe97aae3	-0.29622564
58	0xbe83efa1	-0.2576876
59	0x3e1aa2d9	0.15101184
60	0x3def4b96	0.11684339
61	0xbebd09fc	-0.3692168
62	0x3f6efade	0.9335154
63	0xbeacc3eb	-0.33743224
64	0xbe93a062	-0.288333
65	0x3e429b72	0.1900461
66	0x3e945e5f	0.2897825
67	0xbf21f236	-0.6326021
68	0x3f566199	0.8374267
69	0xbe8022e2	-0.25026613
70	0xbe9c26ba	-0.30498296
71	0xbd553d4d	-0.052060414
72	0x3ec4d11e	0.38440794
73	0xbf515354	-0.81767774
74	0x3f53c166	0.8271698
75	0xbe74c2d6	-0.23902449
76	0xbed2cc61	-0.41171554
77	0x3d808d0a	0.06276901
78	0x3e3c550d	0.1839182
79	0xbf33eda0	-0.7028446
80	0x3f3e24f7	0.74275154
81	0xbe8499f4	-0.25898707
82	0xbf051e77	-0.5199961
83	0x3e2d8de0	0.16948652
84	0x3e46bb52	0.19407395
85	0xbf1ce3da	-0.61285174
86	0x3f4ed9b4	0.8080094
87	0xbeceb0c4	-0.40369236
88	0xbf159f7c	-0.5844648
89	0x3e20b908	0.15695584
90	0x3da04c6a	0.07827075
91	0xbf83e583	-1.0304416
92	0x3f6f1768	0.9339509
93	0xbeda76e0	-0.4266882
94	0xbf17533d	-0.59111387
95	0x3e198080	0.14990425
96	0x3e8f1960	0.27949047
97	0xbf8c5227	-1.0962571
98	0x3f7f2807	0.9967045
99	0xbed87eed	-0.42284337
100	0xbf594eda	-0.8488594
101	0x3e414396	0.18873438
102	0x3d85b295	0.065282024
103	0xbf86960d	-1.0514542
104	0x3f78b966	0.97157896
105	0xbed79f9e	-0.42113966
106	0xbf8ea27c	-1.1143336
107	0x3df44230	0.11926687
108	0x3d4276e6	0.04747667
109	0xbf8f1270	-1.1177502
110	0x3f8b1d91	1.0868398
111	0xbef218a5	-0.47284427
112	0xbf902aee	-1.1263101
113	0xbbcfa5b0	-0.00633689
114	0x3d36bbdc	0.04461275
115	0xbf8b1dfe	-1.0868528
116	0x3fbdf0c6	1.4839103
117	0xbe8eda92	-0.2790113
118	0xbfa35032	-1.2758849
119	0x3d8c9839	0.06864972
120	0xbce0b548	-0.027430192
121	0xbf9e9aa6	-1.2390945
122	0x3fb6d916	1.4284999
123	0xbe6e6d6b	-0.23283927
124	0xbfb98f8b	-1.4496931
125	0x3e97bbd0	0.29635477
126	0xbc3f2280	-0.01166594
127	0xbfa33a5e	-1.2752187
128	0x3fa2437f	1.2676848
129	0xbe965a5c	-0.29365814
130	0xbfb42f07	-1.4076852
131	0x3ee3c954	0.4448954
132	0x3e7ba7c8	0.24575722
133	0xbf6d5351	-0.92705256
134	0x3f980f17	1.1879605
135	0xbe54d6c5	-0.20785053
136	0xbfb780bf	-1.4336165
137	0x3edab3aa	0.42715198
138	0x3eb7083d	0.35748473
139	0xbf799c7c	-0.975044
140	0x3f961dab	1.1727804
141	0xbe5411fd	-0.20709987
142	0xbfbdebe1	-1.483761
143	0x3f0804fc	0.53132606
144	0x3f034fa4	0.51293397
145	0xbf8181ce	-1.0117738
146	0x3f973400	1.1812744
147	0xbe971a09	-0.2951205
148	0xbfbbe9b2	-1.4680693
149	0x3eba3ae1	0.36373046
150	0x3f033801	0.5125733
151	0xbf8634e5	-1.0484892
152	0x3f8e2379	1.1104575
153	0xbeded4f4	-0.43521845
154	0xbfc47df2	-1.5350935
155	0x3e7b1147	0.2451831
156	0x3f2fc628	0.6866174
157	0xbf8d42d6	-1.1036022
158	0x3f864401	1.0489503
159	0xbebe84a6	-0.37210578
160	0xbfc79661	-1.5592767
161	0x3e62ba66	0.22141418
162	0x3f4dd466	0.8040222
163	0xbfa09df7	-1.2548207
164	0x3f8161fe	1.010803
165	0xbeaff61c	-0.34367454
166	0xbfdd70b8	-1.7300024
167	0x3ea25634	0.31706393
168	0x3f525a25	0.821688
169	0xbfb87650	-1.4411106
170	0x3f2ecc18	0.6828017
171	0xbebae4da	-0.36502725
172	0xbfd20c47	-1.6409997
173	0x3e5253fa	0.20539847
174	0x3f70608b	0.9389731
175	0xbfc0e4d5	-1.5069834
176	0x3f0bb386	0.54570806
177	0xbe0c3218	-0.13690984
178	0xbfcd869c	-1.6056705
179	0x3dd0099c	0.10158083
180	0x3f607bde	0.87689006
181	0xbfc6e202	-1.5537722
182	0x3ec17f3a	0.3779238
183	0xbd64add2	-0.05582983
184	0xbfe75f78	-1.807601
185	0x3d4ee2ec	0.05050938
186	0x3f7b0ed4	0.980695
187	0xbfb3148d	-1.3990647
188	0x3ea6906c	0.3253206
189	0x3c858db4	0.01630292
190	0xbfda0668	-1.7033205
191	0x3e2d527b	0.16925995
192	0x3f7716b6	0.9651903
193	0xbfc2787e	-1.5193021
194	0x3e88df36	0.26732796
195	0x3e14182e	0.14462349
196	0xbfed7a5e	-1.8552969
197	0x3e124f78	0.14288127
198	0x3f6d752a	0.92756903
199	0xbfae54ae	-1.3619592
200	0x3eb35522	0.3502589
201	0x3ea10b5c	0.3145398
202	0xbfe2fd4c	-1.773355
203	0x3e421bc0	0.18955898
204	0x3f580cf6	0.84394777
205	0xbf94c118	-1.1621428
206	0x3efd02d0	0.49416208
207	0x3ef27acc	0.47359312
208	0xbfd8b6f8	-1.6930838
209	0x3eabbd44	0.33542836
210	0x3f8a59cb	1.0808653
211	0xbfa66f9c	-1.300281
212	0x3f2b2aec	0.6686237
213	0x3f2e75e9	0.68148667
214	0xbfd6a60a	-1.6769421
215	0x3e749c76	0.2388781
216	0x3f8629d7	1.0481519
217	0xbf9e772a	-1.2380116
218	0x3f4b977e	0.79528034
219	0x3f1add02	0.6049348
220	0xbfdf44e6	-1.7442901
221	0x3eaf2860	0.3421049
222	0x3f8d5edc	1.1044574
223	0xbfa1fc10	-1.2655048
224	0x3f57d4f7	0.84309334
225	0x3f1a0685	0.601662
226	0xbfd8ae04	-1.6928105
227	0x3ef625b5	0.48075643
228	0x3f9b1fcd	1.211908
229	0xbf99d064	-1.2016721
230	0x3f79e901	0.9762116
231	0x3f285b90	0.65764713
232	0xbfd71e8d	-1.6806198
233	0x3ecf0e3f	0.40440556
234	0x3f971511	1.1803304
235	0xbf901673	-1.1256851
236	0x3f88d1cf	1.0689029
237	0x3ef4174f	0.47674033
238	0xbff972c7	-1.9488152
239	0x3ec4abc2	0.3841229
240	0x3f703d81	0.9384385
241	0xbf8bfed0	-1.0937138
242	0x3f863470	1.0484753
243	0x3ef53dbc	0.47898662
244	0xc006c8dd	-2.1060097
245	0x3e892f79	0.2679403
246	0x3f85f04f	1.0463961
247	0xbf9b62a8	-1.2139482
248	0x3f6d6b46	0.9274181
249	0x3ef3ca3e	0.47615236
250	0xc01282f8	-2.2892437
251	0x3e8369c7	0.2566664
252	0x3f972b4f	1.1810092
253	0xbf928374	-1.1446366
254	0x3f6d0034	0.92578435
255	0x3ed6557c	0.41862094

Xt f4 [5, 101, 6]
0	0xbeeca83b	-0.462221
1	0x3ca5496d	0.020176614
2	0x3debb8c7	0.11509853
3	0x00000000	0.0
4	0x00000000	0.0
5	0x00000000	0.0
6	0xbeea1684	-0.45720303
7	0x3c82303e	0.015892144
8	0x3dde5238	0.10855526
9	0x00000000	0.0
10	0x00000000	0.0
11	0x00000000	0.0
12	0xbee6a8c0	-0.4505062
13	0x3caefb80	0.021360159
14	0x3de81fdc	0.11334202
15	0x00000000	0.0
16	0x00000000	0.0
17	0x00000000	0.0
18	0xbee3c844	-0.44488728
19	0x3ced7164	0.028984733
20	0x3df8d98e	0.1215087
21	0x00000000	0.0
22	0x00000000	0.0
23	0x00000000	0.0
24	0xbee3cb05	-0.4449083
25	0x3d021240	0.031755686
26	0x3e00244c	0.12513846
27	0x00000000	0.0
28	0x00000000	0.0
29	0x00000000	0.0
30	0xbee6986a	-0.45038158
31	0x3ca6873a	0.020328153
32	0x3de60cef	0.11232936
33	0x00000000	0.0
34	0x00000000	0.0
35	0x00000000	0.0
36	0xbee3ee72	-0.44517857
37	0x3c9b1960	0.018932998
38	0x3ddfd76d	0.10929761
39	0x00000000	0.0
40	0x00000000	0.0
41	0x00000000	0.0
42	0xbee3d16a	-0.44495708
43	0x3c9f97ce	0.019481566
44	0x3de15d91	0.110041745
45	0x00000000	0.0
46	0x00000000	0.0
47	0x00000000	0.0
48	0xbee0f324	-0.43935502
49	0x3cc826a4	0.024432488
50	0x3deab9f4	0.11461249
51	0x00000000	0.0
52	0x00000000	0.0
53	0x00000000	0.0
54	0xbedabea1	-0.42723563
55	0x3cfb2ad1	0.030660065
56	0x3df4f66a	0.11961062
57	0x00000000	0.0
58	0x00000000	0.0
59	0x00000000	0.0
60	0xbed9a801	-0.4251099
61	0x3cfad25c	0.030617885
62	0x3df3b9ab	0.11900648
63	0x00000000	0.0
64	0x00000000	0.0
65	0x00000000	0.0
66	0xbeddbff7	-0.4331052
67	0x3cf3feb5	0.02978454
68	0x3df501c0	0.119632244
69	0x00000000	0.0
70	0x00000000	0.0
71	0x00000000	0.0
72	0xbedf47ea	-0.43609554
73	0x3ced4989	0.028965728
74	0x3df3fe9b	0.119137965
75	0x00000000	0.0
76	0x00000000	0.0
77	0x00000000	0.0
78	0xbee25cbb	-0.44211373
79	0x3cc7f2fa	0.024407852
80	0x3debc794	0.11512676
81	0x00000000	0.0
82	0x00000000	0.0
83	0x00000000	0.0
84	0xbee16398	-0.44021297
85	0x3ca73178	0.02040933
86	0x3de103d2	0.10987057
87	0x00000000	0.0
88	0x00000000	0.0
89	0x00000000	0.0
90	0xbedf8a0d	-0.43660012
91	0x3cc04173	0.023468709
92	0x3de5fad5	0.11229483
93	0x00000000	0.0
94	0x00000000	0.0
95	0x00000000	0.0
96	0xbede510f	-0.43421218
97	0x3ccf1aec	0.025281392
98	0x3de91e93	0.11382785
99	0x00000000	0.0
100	0x00000000	0.0
101	0x00000000	0.0
102	0xbedf8edd	-0.43663684
103	0x3cc3691a	0.023853827
104	0x3de6b780	0.112654686
105	0x00000000	0.0
106	0x00000000	0.0
107	0x00000000	0.0
108	0xbedcedfb	-0.43150315
109	0x3cd1f9bd	0.02563178
110	0x3de895cb	0.11356696
111	0x00000000	0.0
112	0x00000000	0.0
113	0x00000000	0.0
114	0xbecf78e3	-0.40521917
115	0x3d4322e4	0.047640696
116	0x3e09991d	0.13437314
117	0x00000000	0.0
118	0x00000000	0.0
119	0x00000000	0.0
120	0xbed20b8a	-0.4102443
121	0x3d3f4a3c	0.046701655
122	0x3e09657d	0.13417621
123	0x00000000	0.0
124	0x00000000	0.0
125	0x00000000	0.0
126	0xbed84a63	-0.42244253
127	0x3d1b20d7	0.037873115
128	0x3e013842	0.12619117
129	0x00000000	0.0
130	0x00000000	0.0
131	0x00000000	0.0
132	0xbed9cedd	-0.42540637
133	0x3d1d0b84	0.03834106
134	0x3e02ecc2	0.12785628
135	0x00000000	0.0
136	0x00000000	0.0
137	0x00000000	0.0
138	0xbedb0f50	-0.4278512
139	0x3d18f8e3	0.037346732
140	0x3e0238ec	0.12717026
141	0x00000000	0.0
142	0x00000000	0.0
143	0x00000000	0.0
144	0xbedc04c5	-0.4297239
145	0x3d09c738	0.033637255
146	0x3dfc060f	0.12305843
147	0x00000000	0.0
148	0x00000000	0.0
149	0x00000000	0.0
150	0xbedfd573	-0.43717536
151	0x3cccc84e	0.024997856
152	0x3de9d704	0.11417964
153	0x00000000	0.0
154	0x00000000	0.0
155	0x00000000	0.0
156	0xbee2360a	-0.44181854
157	0x3cceb752	0.025233898
158	0x3deca3e9	0.11554701
159	0x00000000	0.0
160	0x00000000	0.0
161	0x00000000	0.0
162	0xbee458c4	-0.44598973
163	0x3ccafc21	0.024778428
164	0x3ded1e05	0.115779914
165	0x00000000	0.0
166	0x00000000	0.0
167	0x00000000	0.0
168	0xbef03d86	-0.4692194
169	0x3c432b9a	0.011912251
170	0x3dd7e106	0.10540967
171	0x00000000	0.0
172	0x00000000	0.0
173	0x00000000	0.0
174	0xbef42e9d	-0.47691813
175	0x3c842cd1	0.016134651
176	0x3de691c7	0.112582736
177	0x00000000	0.0
178	0x00000000	0.0
179	0x00000000	0.0
180	0xbef9c32a	-0.4878171
181	0x3c58fd5f	0.013244002
182	0x3de4c194	0.111697346
183	0x00000000	0.0
184	0x00000000	0.0
185	0x00000000	0.0
186	0xbefabb7f	-0.48971173
187	0x3c7186e0	0.014741629
188	0x3dea57d8	0.11442536
189	0x00000000	0.0
190	0x00000000	0.0
191	0x00000000	0.0
192	0xbefcbf50	-0.4936471
193	0x3c92d734	0.017924882
194	0x3df42caf	0.11922585
195	0x00000000	0.0
196	0x00000000	0.0
197	0x00000000	0.0
198	0xbef8c0a8	-0.48584485
199	0x3ce89638	0.028391942
200	0x3e05bab8	0.13059509
201	0x00000000	0.0
202	0x00000000	0.0
203	0x00000000	0.0
204	0xbef2abd6	-0.47396725
205	0x3d25f656	0.040518127
206	0x3e1272b1	0.14301564
207	0x00000000	0.0
208	0x00000000	0.0
209	0x00000000	0.0
210	0xbeecca10	-0.4624791
211	0x3d624ef1	0.055251066
212	0x3e21fcbd	0.15819068
213	0x00000000	0.0
214	0x00000000	0.0
215	0x00000000	0.0
216	0xbee92ee1	-0.45543578
217	0x3d64ac8b	0.055828612
218	0x3e21076f	0.15725492
219	0x00000000	0.0
220	0x00000000	0.0
221	0x00000000	0.0
222	0xbee82d75	-0.4534718
223	0x3d6928cc	0.056923673
224	0x3e21ef2e	0.15813896
225	0x00000000	0.0
226	0x00000000	0.0
227	0x00000000	0.0
228	0xbee3c6dd	-0.44487658
229	0x3d8203ec	0.06348404
230	0x3e283005	0.16424568
231	0x00000000	0.0
232	0x00000000	0.0
233	0x00000000	0.0
234	0xbee20e0f	-0.4415135
235	0x3d6d12df	0.057879325
236	0x3e204c58	0.15654123
237	0x00000000	0.0
238	0x00000000	0.0
239	0x00000000	0.0
240	0xbee33389	-0.44375256
241	0x3d684933	0.056710433
242	0x3e1f595e	0.15561435
243	0x00000000	0.0
244	0x00000000	0.0
245	0x00000000	0.0
246	0xbee82352	-0.45339447
247	0x3d544ffc	0.05183409
248	0x3e1b5696	0.15169749
249	0x00000000	0.0
250	0x00000000	0.0
251	0x00000000	0.0
252	0xbee8ae79	-0.45445612
253	0x3d499635	0.049215514
254	0x3e186fc4	0.14886385
255	0x00000000	0.0

theta f4 [801]
0	0x3e4ccccd	0.2
1	0x3e4ccccd	0.2
2	0x3e4c78a1	0.19967891
3	0x3e4c78a1	0.19967891
4	0x3edc0135	0.4296967
5	0x3edc0135	0.4296967
6	0x3edc0135	0.4296967
7	0x3edc0135	0.4296967
8	0x3edc0135	0.4296967
9	0x3edc0135	0.4296967
10	0x3edc0135	0.4296967
11	0x3edc0135	0.4296967
12	0x3edc0135	0.4296967
13	0x3edc0135	0.4296967
14	0x3edc0135	0.4296967
15	0x3edc0135	0.4296967
16	0x3edc0135	0.4296967
17	0x3edc0135	0.4296967
18	0x3edc0135	0.4296967
19	0x3edc0135	0.4296967
20	0x3edc0135	0.4296967
21	0x3edc0135	0.4296967
22	0x3edc0135	0.4296967
23	0x3edc0135	0.4296967
24	0x3edc0135	0.4296967
25	0x3edc0135	0.4296967
26	0x3edc0135	0.4296967
27	0x3edc0135	0.4296967
28	0x3edc0135	0.4296967
29	0x3edc0135	0.4296967
30	0x3edc0135	0.4296967
31	0x3edc0135	0.4296967
32	0x3ed19f90	0.4094205
33	0x3ed19f90	0.4094205
34	0x3ed19f90	0.4094205
35	0x3ed19f90	0.4094205
36	0x3ed19f90	0.4094205
37	0x3ed19f90	0.4094205
38	0x3ed19f90	0.4094205
39	0x3ed19f90	0.4094205
40	0x3ed19f90	0.4094205
41	0x3ed19f90	0.4094205
42	0x3ed19f90	0.4094205
43	0x3ed19f90	0.4094205
44	0x3ed19f90	0.4094205
45	0x3ed19f90	0.4094205
46	0x3ea83b1f	0.32857606
47	0x3ea83b1f	0.32857606
48	0x3ea83b1f	0.32857606
49	0x3ea83b1f	0.32857606
50	0x3ea83b1f	0.32857606
51	0x3ea83b1f	0.32857606
52	0x3ea83b1f	0.32857606
53	0x3ea83b1f	0.32857606
54	0x3ea83b1f	0.32857606
55	0x3ea83b1f	0.32857606
56	0x3ea83b1f	0.32857606
57	0x3ea83b1f	0.32857606
58	0x3ea83b1f	0.32857606
59	0x3ea83b1f	0.32857606
60	0x3ea83b1f	0.32857606
61	0x3ea83b1f	0.32857606
62	0x3ea83b1f	0.32857606
63	0x3ea83b1f	0.32857606
64	0x3ea83b1f	0.32857606
65	0x3ea83b1f	0.32857606
66	0x3ea83b1f	0.32857606
67	0x3ea83b1f	0.32857606
68	0x3ea83b1f	0.32857606
69	0x3ea83b1f	0.32857606
70	0x3ea83b1f	0.32857606
71	0x3ea83b1f	0.32857606
72	0x3ea83b1f	0.32857606
73	0x3ea83b1f	0.32857606
74	0x3ea83b1f	0.32857606
75	0x3ea83b1f	0.32857606
76	0x3ea83b1f	0.32857606
77	0x3ea83b1f	0.32857606
78	0x3ea83b1f	0.32857606
79	0x3ea83b1f	0.32857606
80	0x3ea83b1f	0.32857606
81	0x3ea83b1f	0.32857606
82	0x3ea83b1f	0.32857606
83	0x3ea83b1f	0.32857606
84	0x3ea83b1f	0.32857606
85	0x3ea83b1f	0.32857606
86	0x3ea83b1f	0.32857606
87	0x3ea83b1f	0.32857606
88	0x3ea83b1f	0.32857606
89	0x3ea83b1f	0.32857606
90	0x3ea83b1f	0.32857606
91	0x3ea83b1f	0.32857606
92	0x3ea83b1f	0.32857606
93	0x3ea83b1f	0.32857606
94	0x3ea83b1f	0.32857606
95	0x3ea83b1f	0.32857606
96	0x3ea83b1f	0.32857606
97	0x3ea83b1f	0.32857606
98	0x3ea83b1f	0.32857606
99	0x3ea83b1f	0.32857606
100	0x3ea83b1f	0.32857606
101	0x3ea83b1f	0.32857606
102	0x3ea83b1f	0.32857606
103	0x3ea83b1f	0.32857606
104	0x3ea83b1f	0.32857606
105	0x3ea83b1f	0.32857606
106	0x3ea83b1f	0.32857606
107	0x3ea83b1f	0.32857606
108	0x3ea83b1f	0.32857606
109	0x3ea83b1f	0.32857606
110	0x3ea83b1f	0.32857606
111	0x3ea83b1f	0.32857606
112	0x3ea83b1f	0.32857606
113	0x3ea83b1f	0.32857606
114	0x3ea83b1f	0.32857606
115	0x3ea83b1f	0.32857606
116	0x3ea83b1f	0.32857606
117	0x3ea83b1f	0.32857606
118	0x3ea83b1f	0.32857606
119	0x3ea83b1f	0.32857606
120	0x3ea83b1f	0.32857606
121	0x3ea83b1f	0.32857606
122	0x3e9ba988	0.3040278
123	0x3e9ba988	0.3040278
124	0x3e9ba988	0.3040278
125	0x3e9ba988	0.3040278
126	0x3e9d5bf0	0.30734205
127	0x3e9d5bf0	0.30734205
128	0x3e9d5bf0	0.30734205
129	0x3e9d5bf0	0.30734205
130	0x3e9d5bf0	0.30734205
131	0x3e9d5bf0	0.30734205
132	0x3e9d5bf0	0.30734205
133	0x3e9d5bf0	0.30734205
134	0x3e9d5bf0	0.30734205
135	0x3e9d5bf0	0.30734205
136	0x3e9d5bf0	0.30734205
137	0x3e9d5bf0	0.30734205
138	0x3e9d5bf0	0.30734205
139	0x3e9d5bf0	0.30734205
140	0x3e9d5bf0	0.30734205
141	0x3e9d5bf0	0.30734205
142	0x3e9d5bf0	0.30734205
143	0x3e9d5bf0	0.30734205
144	0x3e9d5bf0	0.30734205
145	0x3e9d5bf0	0.30734205
146	0x3e9d5bf0	0.30734205
147	0x3e9d5bf0	0.30734205
148	0x3e9d5bf0	0.30734205
149	0x3e9d5bf0	0.30734205
150	0x3e9d5bf0	0.30734205
151	0x3e9d5bf0	0.30734205
152	0x3e9d5bf0	0.30734205
153	0x3e9d5bf0	0.30734205
154	0x3e9d5bf0	0.30734205
155	0x3e9d5bf0	0.30734205
156	0x3e9d5bf0	0.30734205
157	0x3e9d5bf0	0.30734205
158	0x3e9d5bf0	0.30734205
159	0x3e9d5bf0	0.30734205
160	0x3e9d5bf0	0.30734205
161	0x3e9d5bf0	0.30734205
162	0x3e9d5bf0	0.30734205
163	0x3e9d5bf0	0.30734205
164	0x3e9d5bf0	0.30734205
165	0x3e9d5bf0	0.30734205
166	0x3e9d5bf0	0.30734205
167	0x3e9d5bf0	0.30734205
168	0x3e9d5bf0	0.30734205
169	0x3e98a562	0.29813677
170	0x3e98a562	0.29813677
171	0x3e98a562	0.29813677
172	0x3e98a562	0.29813677
173	0x3e98a562	0.29813677
174	0x3e98a562	0.29813677
175	0x3e98a562	0.29813677
176	0x3e98a562	0.29813677
177	0x3e98a562	0.29813677
178	0x3e98a562	0.29813677
179	0x3e98a562	0.29813677
180	0x3e98a562	0.29813677
181	0x3e98a562	0.29813677
182	0x3e98a562	0.29813677
183	0x3e98a562	0.29813677
184	0x3e98a562	0.29813677
185	0x3ec82462	0.39090258
186	0x3ec82462	0.39090258
187	0x3ec82462	0.39090258
188	0x3ec82462	0.39090258
189	0x3ec82462	0.39090258
190	0x3ec82462	0.39090258
191	0x3ec82462	0.39090258
192	0x3eb83ae0	0.35982418
193	0x3eb83ae0	0.35982418
194	0x3eb83ae0	0.35982418
195	0x3eb83ae0	0.35982418
196	0x3eb83ae0	0.35982418
197	0x3eb83ae0	0.35982418
198	0x3eb83ae0	0.35982418
199	0x3eb83ae0	0.35982418
200	0x3eb83ae0	0.35982418
201	0x3eb83ae0	0.35982418
202	0x3eb83ae0	0.35982418
203	0x3eb83ae0	0.35982418
204	0x3eb83ae0	0.35982418
205	0x3eb83ae0	0.35982418
206	0x3eb83ae0	0.35982418
207	0x3eb83ae0	0.35982418
208	0x3eb83ae0	0.35982418
209	0x3eb83ae0	0.35982418
210	0x3eb83ae0	0.35982418
211	0x3eb83ae0	0.35982418
212	0x3eb83ae0	0.35982418
213	0x3e94a692	0.29033333
214	0x3e94a692	0.29033333
215	0x3e94a692	0.29033333
216	0x3e94a692	0.29033333
217	0x3e94a692	0.29033333
218	0x3e94a692	0.29033333
219	0x3e94a692	0.29033333
220	0x3e94a692	0.29033333
221	0x3ea66d7a	0.325054
222	0x3ea66d7a	0.325054
223	0x3ea66d7a	0.325054
224	0x3ea66d7a	0.325054
225	0x3ea66d7a	0.325054
226	0x3ea922da	0.33034402
227	0x3ea1dec6	0.31615275
228	0x3ea1dec6	0.31615275
229	0x3ea1dec6	0.31615275
230	0x3ea1dec6	0.31615275
231	0x3ea1dec6	0.31615275
232	0x3ea1dec6	0.31615275
233	0x3ea1dec6	0.31615275
234	0x3ea1dec6	0.31615275
235	0x3ea1dec6	0.31615275
236	0x3ea1dec6	0.31615275
237	0x3ea1dec6	0.31615275
238	0x3ea1dec6	0.31615275
239	0x3ea1dec6	0.31615275
240	0x3ea1dec6	0.31615275
241	0x3ea1dec6	0.31615275
242	0x3ea1dec6	0.31615275
243	0x3ea1dec6	0.31615275
244	0x3ea1dec6	0.31615275
245	0x3ea1dec6	0.31615275
246	0x3ea1dec6	0.31615275
247	0x3ea1dec6	0.31615275
248	0x3ea1dec6	0.31615275
249	0x3ea1dec6	0.31615275
250	0x3ea1dec6	0.31615275
251	0x3ea1dec6	0.31615275
252	0x3ea1dec6	0.31615275
253	0x3ea1dec6	0.31615275
254	0x3ea1dec6	0.31615275
255	0x3ea1dec6	0.31615275
