main/template_estimation/simple_models/ahs_theta_iter_1050.npz (npz, 29180 bytes, 3 tensors)

Wt f4 [5, 101, 6]
0.0 0.0 0.0 0.0 0.0 0.0 0.016487861 0.01264809
-0.21845834 0.0051280633 -0.061443385 0.1064523 -0.13711508 -0.0088119665 -0.18879466 0.14722642
-0.07663152 -0.13841969 -0.079630196 -0.21223086 -0.100546405 -0.10434892 -0.46108693 -0.40951282
-0.22485748 -0.23314895 -0.09915453 -0.18736267 -0.43882602 -0.70775616 -0.44141674 -0.34641427
0.22759917 -0.1019236 -0.2436103 -0.8764108 -0.38007265 -0.5434516 0.3906667 -0.23586112
-0.28091788 -0.55999774 -0.51112765 -0.46902436 0.32844922 -0.123035826 -0.24263889 -0.548997
-0.38642117 -0.46451643 0.54126525 -0.24625447 -0.1336803 -0.22063833 -0.34928656 -0.3423292
0.65411246 -0.33138984 -0.24837893 -0.24996644 -0.3818646 -0.2781897 0.47447607 -0.28457966
-0.05622855 -0.35895267 -0.28386384 -0.25806093 0.59582156 -0.25397158 -0.059448935 -0.3103119
-0.31926346 -0.3945944 0.7020621 -0.38675296 0.08631895 -0.12545538 -0.25885332 -0.20287171
0.631846 -0.686146 0.09784248 -0.09963653 -0.13559216 -0.20713249 0.5710218 -0.58737856
0.005212821 0.048385985 -0.12144686 -0.28466076 0.6430297 -0.69229853 0.027068708 0.14006022
0.081364594 -0.27195913 0.9505226 -0.70314544 -0.1275832 0.04226884 0.15970382 -0.24921836
1.1245109 -0.5817732 -0.20069855 -0.064795 0.25595877 -0.22284989 1.4966851 -0.74554974
-0.11017788 -0.09500217 0.36239037 -0.11518235 1.6537572 -0.78729224 -0.26552618 -0.01561647
0.3549053 -0.2401511 1.7170312 -0.77311146 -0.51591665 0.13658471 0.32831788 -0.33997908
1.5944725 -0.60379535 -0.214948 0.033426736 0.56083393 -0.19437154 1.6177448 -0.58419156
-0.13453032 0.2575434 0.6607207 -0.13458508 1.7835125 -0.3313901 -0.20728791 0.34740815
0.6945016 -0.043708324 1.8753346 -0.46241814 -0.20087531 0.43568277 0.6860683 0.024643049
2.0985062 -0.4466926 -0.23404923 0.6674832 0.82429737 0.21982938 1.9719603 -0.21380523
-0.15648063 0.5890454 0.97498494 0.110756695 2.0429332 -0.17470142 -0.31516588 0.6911196
0.78563833 0.0074703395 1.9582795 -0.14212367 -0.28513747 0.65164375 0.9196406 0.10134432
2.1187313 0.11495626 -0.49587926 0.53013337 0.90501916 0.07119568 1.8697506 -0.036934257
-0.55965877 0.38036153 0.7868774 0.11349559 1.782808 0.014227271 -0.5050688 0.2848454
0.7687149 0.22207484 1.8581325 0.042751968 -0.44863373 0.48626348 0.88485223 0.30610955
2.0156813 0.22190166 -0.40694618 0.12560584 0.8127125 0.27150443 1.9261746 0.24130756
-0.47101957 0.080706015 0.67226714 0.29625827 1.8925762 0.2609653 -0.71469885 0.08231053
0.69253886 0.37227517 2.045278 0.28914595 -0.55143774 -0.10714395 0.7300842 0.3134971
1.9521139 0.2617911 -0.74625665 -0.05196573 0.70746136 0.11689289 1.9543159 0.22351408
-0.75065 -0.24473083 0.5314295 0.1254149 1.8642342 0.2207061 -0.7716146 -0.49746728
0.6458177 0.13228838 1.6765198 0.1252423 -0.76152384 -0.5555579 0.55031836 0.05429344
1.626383 0.07972121 -0.64795566 -0.47547254 0.3958287 -0.016583502 1.5749452 0.19810426
00000000: 0000 0000 0000 0000 0000 0000 0000 0000
00000010: 0000 0000 0000 0000 8d11 873c ef39 4f3c
00000020: 8bb3 5fbe 5009 a83b 0fac 7bbd aa03 da3d
00000030: e567 0cbe 1160 10bc 6353 41be 86c2 163e
00000040: fdf0 9cbd e4bd 0dbe 2815 a3bd 0c53 59be
00000050: 46eb cdbd e3b4 d5bd 9613 ecbe aaab d1be
00000060: 0a41 66be 99be 6ebe 8811 cbbd 00dc 3fbe
00000070: cead e0be 822f 35bf 6001 e2be 365d b1be
00000080: c20f 693e 52bd d0bd fa74 79be 755c 60bf
00000090: e298 c2be a51f 0bbf 7705 c83e 9485 71be
000000a0: 78d4 8fbe 035c 0fbf 43d9 02bf f623 f0be
000000b0: 7f2a a83e 35fa fbbd 5476 78be 118b 0cbf
000000c0: ffd8 c5be 19d5 edbe 5c90 0a3f 222a 7cbe
000000d0: 7de3 08be 04ef 61be b0d5 b2be c645 afbe
000000e0: ea73 273f eeab a9be 0c57 7ebe 34f7 7fbe
000000f0: c283 c3be e16e 8ebe 87ee f23e 6db4 91be
00000100: e84f 66bd a5c8 b7be 9a56 91be 9020 84be
00000110: c387 183f 9008 82be ba80 73bd 34e1 9ebe
00000120: 8076 a3be 4708 cabe 57ba 333f 7c04 c6be
00000130: fdc7 b03d 6077 00be 6c88 84be 9abd 4fbe
00000140: a9c0 213f 44a7 2fbf a361 c83d 3d0e ccbd
00000150: acd8 0abe 8a1a 54be 7c2e 123f 715e 16bf
00000160: 50d0 aa3b 6230 463d 22b9 f8bd 0ebf 91be
00000170: 989d 243f 7a3a 31bf 32bf dd3c f26b 0f3e
00000180: 7ba2 a63d 3a3e 8bbe 7355 733f 5701 34bf
00000190: 2ca5 02be 1722 2d3d 6689 233e 1933 7fbe
000001a0: f9ef 8f3f 17ef 14bf ec83 4dbe 3eb3 84bd
000001b0: 070d 833e c332 64be 6193 bf3f 59dc 3ebf
000001c0: f1a4 e1bd 7f90 c2bd 3b8b b93e b9e4 ebbd
000001d0: 51ae d33f fc8b 49bf 0cf3 87be 39dc 7fbc
000001e0: 26b6 b53e 2cea 75be aec7 db3f a2ea 45bf
000001f0: 1d13 04bf dddc 0b3e 4819 a83e bd11 aebe
00000200: ad17 cc3f 5592 1abf 541b 5cbe 79ea 083d
00000210: d092 0f3f 5509 47be 4312 cf3f 948d 15bf
00000220: 51c2 09be bbdc 833e fe24 293f acd0 09be
00000230: 234a e43f f7ab a9be 4843 54be 7bdf b13e
00000240: dbca 313f 8007 33bd f70a f03f 12c2 ecbe
00000250: 42b2 4dbe d011 df3e 2ca2 2f3f 38e0 c93c
00000260: ed4d 0640 e4b4 e4be 9aaa 6fbe 2ee0 2a3f
00000270: 2705 533f f41a 613e 3269 fc3f c2ef 5abe
00000280: 753c 20be aecb 163f 9d98 793f 68d4 e23d
00000290: 6bbf 0240 eee4 32be 6c5d a1be 37ed 303f
000002a0: 981f 493f c0c9 f43b e7a8 fa3f de88 11be
000002b0: 8afd 91be 20d2 263f 916d 6b3f 9c8d cf3d
000002c0: 4b99 0740 306e eb3d e3e3 fdbe d2b6 073f
000002d0: 56af 673f 0acf 913d fd53 ef3f 6048 17bd
000002e0: cc45 0fbf bfbe c23e cc70 493f 6070 e83d
000002f0: 0d33 e43f 8019 693c 304c 01bf 42d7 913e
00000300: 80ca 443f 9667 633e 49d7 ed3f b01c 2f3d
00000310: 52b3 e5be 87f7 f83e ad85 623f 64ba 9c3e
00000320: ec00 0140 303a 633e 405b d0be d19e 003e
00000330: ed0d 503f a102 8b3e e48c f63f 5419 773e
00000340: 7a29 f1be 3249 a53d b319 2c3f 2aaf 973e
00000350: f03f f23f 3e9d 853e 81f6 36bf 6c92 a83d
00000360: 3a4a 313f da9a be3e d6e5 0240 f00a 943e
00000370: 062b 0dbf 4a6e dbbd cce6 3a3f b182 a03e
00000380: dede f93f 7c09 863e ad0a 3fbf 04da 54bd
00000390: 301c 353f 8a65 ef3d 0627 fa3f e0e0 643e
000003a0: 992a 40bf b89a 7abe c40b 083f c36c 003e
000003b0: 3a9f ee3f c800 623e 8988 45bf 08b4 febe
000003c0: 4f54 253f 9b76 073e 3398 d63f 843f 003e
000003d0: 3af3 42bf 0b39 0ebf aae1 0c3f cc62 5e3d
000003e0: 512d d03f e044 a33d 6ce0 25bf 2371 f3be
000003f0: 0faa ca3e 20da 87bc ce97 c93f d8db 4a3e

Xt f4 [5, 101, 6]
-0.462221 0.020176614 0.11509853 0.0 0.0 0.0 -0.4780144 0.010936643
0.107749015 0.0 0.0 0.0 -0.4774575 0.016382396 0.1144896 0.0
0.0 0.0 -0.4781838 0.007957259 0.10380653 0.0 0.0 0.0
-0.4813446 0.0036879827 0.09940162 0.0 0.0 0.0 -0.46298605 0.018632632
0.113216 0.0 0.0 0.0 -0.45721543 0.018204521 0.11101196 0.0
0.0 0.0 -0.46108216 0.019621747 0.11394452 0.0 0.0 0.0
-0.45042142 0.021806031 0.11408979 0.0 0.0 0.0 -0.4447887 0.021748733
0.11281031 0.0 0.0 0.0 -0.45664296 0.016493112 0.10945635 0.0
0.0 0.0 -0.45003644 0.021640554 0.11426855 0.0 0.0 0.0
-0.44711667 0.019621344 0.110972814 0.0 0.0 0.0 -0.45481458 0.004604197
0.09460989 0.0 0.0 0.0 -0.4591386 0.005803023 0.0972225 0.0
0.0 0.0 -0.4576246 0.004183352 0.09477002 0.0 0.0 0.0
-0.43950847 0.015286098 0.10395801 0.0 0.0 0.0 -0.42837873 0.026337951
0.11492194 0.0 0.0 0.0 -0.40798864 0.03298554 0.11829839 0.0
0.0 0.0 -0.39955834 0.036367822 0.12055882 0.0 0.0 0.0
-0.39778173 0.03839109 0.12243965 0.0 0.0 0.0 -0.40545276 0.040731806
0.12708047 0.0 0.0 0.0 -0.40448257 0.041983258 0.12858202 0.0
0.0 0.0 -0.3922987 0.05784314 0.1452215 0.0 0.0 0.0
-0.3896466 0.054505542 0.14067023 0.0 0.0 0.0 -0.37718225 0.0620695
0.14715222 0.0 0.0 0.0 -0.38306522 0.06709896 0.15473852 0.0
0.0 0.0 -0.38093933 0.06991849 0.15754047 0.0 0.0 0.0
-0.38853416 0.06743043 0.15611629 0.0 0.0 0.0 -0.37682477 0.082883626
0.17229192 0.0 0.0 0.0 -0.39682266 0.06655506 0.15679713 0.0
0.0 0.0 -0.40335247 0.06504857 0.15649386 0.0 0.0 0.0
-0.39957386 0.06809495 0.15949817 0.0 0.0 0.0 -0.38906083 0.08038422
0.17220531 0.0 0.0 0.0 -0.39690682 0.077024825 0.1697885 0.0
0.0 0.0 -0.4008057 0.07542605 0.16861433 0.0 0.0 0.0
-0.39258033 0.08085699 0.17355253 0.0 0.0 0.0 -0.4014473 0.07516606
0.16844566 0.0 0.0 0.0 -0.40507042 0.07244137 0.16575631 0.0
0.0 0.0 -0.41275567 0.068419054 0.16258706 0.0 0.0 0.0
-0.42752525 0.057224844 0.15231426 0.0 0.0 0.0 -0.43322778 0.05323308
0.14873432 0.0 0.0 0.0 -0.43701497 0.05609417 0.15299529 0.0
00000000: 3ba8 ecbe 6d49 a53c c7b8 eb3d 0000 0000
00000010: 0000 0000 0000 0000 4ebe f4be 9b2f 333c
00000020: 84ab dc3d 0000 0000 0000 0000 0000 0000
00000030: 4f75 f4be 6034 863c 8679 ea3d 0000 0000
00000040: 0000 0000 0000 0000 82d4 f4be 2a5f 023c
00000050: 8598 d43d 0000 0000 0000 0000 0000 0000
00000060: cd72 f6be 15b2 713b 1493 cb3d 0000 0000
00000070: 0000 0000 0000 0000 820c edbe 76a3 983c
00000080: cadd e73d 0000 0000 0000 0000 0000 0000
00000090: 2418 eabe a621 953c 3d5a e33d 0000 0000
000000a0: 0000 0000 0000 0000 f612 ecbe c9bd a03c
000000b0: bf5b e93d 0000 0000 0000 0000 0000 0000
000000c0: a39d e6be 90a2 b23c e8a7 e93d 0000 0000
000000d0: 0000 0000 0000 0000 58bb e3be 662a b23c
000000e0: 1809 e73d 0000 0000 0000 0000 0000 0000
000000f0: 1bcd e9be 901c 873c a72a e03d 0000 0000
00000100: 0000 0000 0000 0000 2d6b e6be 8847 b13c
00000110: a105 ea3d 0000 0000 0000 0000 0000 0000
00000120: 7aec e4be f1bc a03c b745 e33d 0000 0000
00000130: 0000 0000 0000 0000 75dd e8be cede 963b
00000140: d4c2 c13d 0000 0000 0000 0000 0000 0000
00000150: 3714 ebbe 4927 be3b 971c c73d 0000 0000
00000160: 0000 0000 0000 0000 c64d eabe 8014 893b
00000170: c916 c23d 0000 0000 0000 0000 0000 0000
00000180: 4107 e1be 8b72 7a3c f0e7 d43d 0000 0000
00000190: 0000 0000 0000 0000 7554 dbbe b0c2 d73c
000001a0: 325c eb3d 0000 0000 0000 0000 0000 0000
000001b0: e3e3 d0be d81b 073d 6d46 f23d 0000 0000
000001c0: 0000 0000 0000 0000 e992 ccbe 6df6 143d
000001d0: 8be7 f63d 0000 0000 0000 0000 0000 0000
000001e0: 0caa cbbe fa3f 1d3d a4c1 fa3d 0000 0000
000001f0: 0000 0000 0000 0000 8197 cfbe 65d6 263d
00000200: 6221 023e 0000 0000 0000 0000 0000 0000
00000210: 5718 cfbe a3f6 2b3d 01ab 033e 0000 0000
00000220: 0000 0000 0000 0000 60db c8be eeec 6c3d
00000230: f2b4 143e 0000 0000 0000 0000 0000 0000
00000240: c27f c7be 3441 5f3d db0b 103e 0000 0000
00000250: 0000 0000 0000 0000 081e c1be 973c 7e3d
00000260: 12af 163e 0000 0000 0000 0000 0000 0000
00000270: 2021 c4be 2e6b 893d c673 1e3e 0000 0000
00000280: 0000 0000 0000 0000 7b0a c3be 6d31 8f3d
00000290: 4a52 213e 0000 0000 0000 0000 0000 0000
000002a0: f3ed c6be f718 8a3d f3dc 1f3e 0000 0000
000002b0: 0000 0000 0000 0000 2def c0be e4be a93d
000002c0: 4b6d 303e 0000 0000 0000 0000 0000 0000
000002d0: 572c cbbe 054e 883d 6d8f 203e 0000 0000
000002e0: 0000 0000 0000 0000 3784 cebe 2f38 853d
000002f0: ed3f 203e 0000 0000 0000 0000 0000 0000
00000300: f294 ccbe 5d75 8b3d 7d53 233e 0000 0000
00000310: 0000 0000 0000 0000 fb32 c7be 7ba0 a43d
00000320: 9756 303e 0000 0000 0000 0000 0000 0000
00000330: 5f37 cbbe 31bf 9d3d 09dd 2d3e 0000 0000
00000340: 0000 0000 0000 0000 6836 cdbe f978 9a3d
00000350: 3ca9 2c3e 0000 0000 0000 0000 0000 0000
00000360: 4a00 c9be 5998 a53d c1b7 313e 0000 0000
00000370: 0000 0000 0000 0000 808a cdbe aaf0 993d
00000380: 057d 2c3e 0000 0000 0000 0000 0000 0000
00000390: 6465 cfbe 245c 943d 06bc 293e 0000 0000
000003a0: 0000 0000 0000 0000 b654 d3be 4a1f 8c3d
000003b0: 397d 263e 0000 0000 0000 0000 0000 0000
000003c0: 97e4 dabe 9964 6a3d 45f8 1b3e 0000 0000
000003d0: 0000 0000 0000 0000 08d0 ddbe ee0a 5a3d
000003e0: cf4d 183e 0000 0000 0000 0000 0000 0000
000003f0: 6dc0 dfbe 00c3 653d ccaa 1c3e 0000 0000

theta f4 [1051]
0.2 0.2 0.19967891 0.19967891 0.4296967 0.4296967 0.4296967 0.4296967
0.4296967 0.4296967 0.4296967 0.4296967 0.4296967 0.4296967 0.4296967 0.4296967
0.4296967 0.4296967 0.4296967 0.4296967 0.4296967 0.4296967 0.4296967 0.4296967
0.4296967 0.4296967 0.4296967 0.4296967 0.4296967 0.4296967 0.4296967 0.4296967
0.4094205 0.4094205 0.4094205 0.4094205 0.4094205 0.4094205 0.4094205 0.4094205
0.4094205 0.4094205 0.4094205 0.4094205 0.4094205 0.4094205 0.32857606 0.32857606
0.32857606 0.32857606 0.32857606 0.32857606 0.32857606 0.32857606 0.32857606 0.32857606
0.32857606 0.32857606 0.32857606 0.32857606 0.32857606 0.32857606 0.32857606 0.32857606
0.32857606 0.32857606 0.32857606 0.32857606 0.32857606 0.32857606 0.32857606 0.32857606
0.32857606 0.32857606 0.32857606 0.32857606 0.32857606 0.32857606 0.32857606 0.32857606
0.32857606 0.32857606 0.32857606 0.32857606 0.32857606 0.32857606 0.32857606 0.32857606
0.32857606 0.32857606 0.32857606 0.32857606 0.32857606 0.32857606 0.32857606 0.32857606
0.32857606 0.32857606 0.32857606 0.32857606 0.32857606 0.32857606 0.32857606 0.32857606
0.32857606 0.32857606 0.32857606 0.32857606 0.32857606 0.32857606 0.32857606 0.32857606
0.32857606 0.32857606 0.32857606 0.32857606 0.32857606 0.32857606 0.32857606 0.32857606
0.32857606 0.32857606 0.3040278 0.3040278 0.3040278 0.3040278 0.30734205 0.30734205
0.30734205 0.30734205 0.30734205 0.30734205 0.30734205 0.30734205 0.30734205 0.30734205
0.30734205 0.30734205 0.30734205 0.30734205 0.30734205 0.30734205 0.30734205 0.30734205
0.30734205 0.30734205 0.30734205 0.30734205 0.30734205 0.30734205 0.30734205 0.30734205
0.30734205 0.30734205 0.30734205 0.30734205 0.30734205 0.30734205 0.30734205 0.30734205
0.30734205 0.30734205 0.30734205 0.30734205 0.30734205 0.30734205 0.30734205 0.30734205
0.30734205 0.29813677 0.29813677 0.29813677 0.29813677 0.29813677 0.29813677 0.29813677
0.29813677 0.29813677 0.29813677 0.29813677 0.29813677 0.29813677 0.29813677 0.29813677
0.29813677 0.39090258 0.39090258 0.39090258 0.39090258 0.39090258 0.39090258 0.39090258
0.35982418 0.35982418 0.35982418 0.35982418 0.35982418 0.35982418 0.35982418 0.35982418
0.35982418 0.35982418 0.35982418 0.35982418 0.35982418 0.35982418 0.35982418 0.35982418
0.35982418 0.35982418 0.35982418 0.35982418 0.35982418 0.29033333 0.29033333 0.29033333
0.29033333 0.29033333 0.29033333 0.29033333 0.29033333 0.325054 0.325054 0.325054
0.325054 0.325054 0.33034402 0.31615275 0.31615275 0.31615275 0.31615275 0.31615275
0.31615275 0.31615275 0.31615275 0.31615275 0.31615275 0.31615275 0.31615275 0.31615275
0.31615275 0.31615275 0.31615275 0.31615275 0.31615275 0.31615275 0.31615275 0.31615275
0.31615275 0.31615275 0.31615275 0.31615275 0.31615275 0.31615275 0.31615275 0.31615275
00000000: cdcc 4c3e cdcc 4c3e a178 4c3e a178 4c3e
00000010: 3501 dc3e 3501 dc3e 3501 dc3e 3501 dc3e
00000020: 3501 dc3e 3501 dc3e 3501 dc3e 3501 dc3e
00000030: 3501 dc3e 3501 dc3e 3501 dc3e 3501 dc3e
00000040: 3501 dc3e 3501 dc3e 3501 dc3e 3501 dc3e
00000050: 3501 dc3e 3501 dc3e 3501 dc3e 3501 dc3e
00000060: 3501 dc3e 3501 dc3e 3501 dc3e 3501 dc3e
00000070: 3501 dc3e 3501 dc3e 3501 dc3e 3501 dc3e
00000080: 909f d13e 909f d13e 909f d13e 909f d13e
00000090: 909f d13e 909f d13e 909f d13e 909f d13e
000000a0: 909f d13e 909f d13e 909f d13e 909f d13e
000000b0: 909f d13e 909f d13e 1f3b a83e 1f3b a83e
000000c0: 1f3b a83e 1f3b a83e 1f3b a83e 1f3b a83e
000000d0: 1f3b a83e 1f3b a83e 1f3b a83e 1f3b a83e
000000e0: 1f3b a83e 1f3b a83e 1f3b a83e 1f3b a83e
000000f0: 1f3b a83e 1f3b a83e 1f3b a83e 1f3b a83e
00000100: 1f3b a83e 1f3b a83e 1f3b a83e 1f3b a83e
00000110: 1f3b a83e 1f3b a83e 1f3b a83e 1f3b a83e
00000120: 1f3b a83e 1f3b a83e 1f3b a83e 1f3b a83e
00000130: 1f3b a83e 1f3b a83e 1f3b a83e 1f3b a83e
00000140: 1f3b a83e 1f3b a83e 1f3b a83e 1f3b a83e
00000150: 1f3b a83e 1f3b a83e 1f3b a83e 1f3b a83e
00000160: 1f3b a83e 1f3b a83e 1f3b a83e 1f3b a83e
00000170: 1f3b a83e 1f3b a83e 1f3b a83e 1f3b a83e
00000180: 1f3b a83e 1f3b a83e 1f3b a83e 1f3b a83e
00000190: 1f3b a83e 1f3b a83e 1f3b a83e 1f3b a83e
000001a0: 1f3b a83e 1f3b a83e 1f3b a83e 1f3b a83e
000001b0: 1f3b a83e 1f3b a83e 1f3b a83e 1f3b a83e
000001c0: 1f3b a83e 1f3b a83e 1f3b a83e 1f3b a83e
000001d0: 1f3b a83e 1f3b a83e 1f3b a83e 1f3b a83e
000001e0: 1f3b a83e 1f3b a83e 88a9 9b3e 88a9 9b3e
000001f0: 88a9 9b3e 88a9 9b3e f05b 9d3e f05b 9d3e
00000200: f05b 9d3e f05b 9d3e f05b 9d3e f05b 9d3e
00000210: f05b 9d3e f05b 9d3e f05b 9d3e f05b 9d3e
00000220: f05b 9d3e f05b 9d3e f05b 9d3e f05b 9d3e
00000230: f05b 9d3e f05b 9d3e f05b 9d3e f05b 9d3e
00000240: f05b 9d3e f05b 9d3e f05b 9d3e f05b 9d3e
00000250: f05b 9d3e f05b 9d3e f05b 9d3e f05b 9d3e
00000260: f05b 9d3e f05b 9d3e f05b 9d3e f05b 9d3e
00000270: f05b 9d3e f05b 9d3e f05b 9d3e f05b 9d3e
00000280: f05b 9d3e f05b 9d3e f05b 9d3e f05b 9d3e
00000290: f05b 9d3e f05b 9d3e f05b 9d3e f05b 9d3e
000002a0: f05b 9d3e 62a5 983e 62a5 983e 62a5 983e
000002b0: 62a5 983e 62a5 983e 62a5 983e 62a5 983e
000002c0: 62a5 983e 62a5 983e 62a5 983e 62a5 983e
000002d0: 62a5 983e 62a5 983e 62a5 983e 62a5 983e
000002e0: 62a5 983e 6224 c83e 6224 c83e 6224 c83e
000002f0: 6224 c83e 6224 c83e 6224 c83e 6224 c83e
00000300: e03a b83e e03a b83e e03a b83e e03a b83e
00000310: e03a b83e e03a b83e e03a b83e e03a b83e
00000320: e03a b83e e03a b83e e03a b83e e03a b83e
00000330: e03a b83e e03a b83e e03a b83e e03a b83e
00000340: e03a b83e e03a b83e e03a b83e e03a b83e
00000350: e03a b83e 92a6 943e 92a6 943e 92a6 943e
00000360: 92a6 943e 92a6 943e 92a6 943e 92a6 943e
00000370: 92a6 943e 7a6d a63e 7a6d a63e 7a6d a63e
00000380: 7a6d a63e 7a6d a63e da22 a93e c6de a13e
00000390: c6de a13e c6de a13e c6de a13e c6de a13e
000003a0: c6de a13e c6de a13e c6de a13e c6de a13e
000003b0: c6de a13e c6de a13e c6de a13e c6de a13e
000003c0: c6de a13e c6de a13e c6de a13e c6de a13e
000003d0: c6de a13e c6de a13e c6de a13e c6de a13e
000003e0: c6de a13e c6de a13e c6de a13e c6de a13e
000003f0: c6de a13e c6de a13e c6de a13e c6de a13e
