main/template_estimation/simple_models/ahs_theta_iter_4250.npz (npz, 41980 bytes, 3 tensors)

Wt f4 [5, 101, 6]
0.0 0.0 0.0 0.0 0.0 0.0 -0.0015697144 -0.019906994
0.014051534 0.55555046 -0.09634217 0.058289085 -0.10794321 -5.2955e-05 0.25572026 0.76358134
-0.33949932 0.13482675 -0.24632594 -0.061990492 -0.074644834 1.1736928 -0.46606266 0.18134679
-0.01891128 -0.08082769 -0.16011176 1.7060146 -0.8495146 0.3453241 0.07446845 -0.13623548
-0.052666537 1.9796995 -0.99767804 0.480537 -0.040185645 -0.1580034 -0.14590287 2.3341868
-1.2430335 0.41441798 -0.1358548 -0.14649113 -0.14414583 2.4741082 -1.2874249 0.65529275
0.11991982 -0.16294599 0.036125362 2.853579 -1.2368252 0.68097997 0.090390794 -0.45929658
0.026746884 3.0870311 -1.3617532 0.7453655 0.11657302 -0.29750645 0.08407447 3.4622529
-1.4326615 0.6287005 0.16417006 -0.42677745 0.13071986 3.442453 -1.3750484 0.51750714
0.23715168 -0.5718037 0.0008521676 3.4890559 -1.3958406 0.6495422 0.237528 -0.4240147
0.08049382 3.8561554 -1.4943781 0.6089703 0.26700085 -0.57759213 -0.047723114 4.0767264
-1.3803008 0.51641375 0.098243125 -0.43569836 -0.09372027 4.315612 -1.4621742 0.6241096
0.042166427 -0.40971744 -0.085660145 4.5551333 -1.714518 0.8297383 0.10981342 -0.2750653
-0.051988766 4.669539 -1.7889886 0.96142626 0.13557196 -0.28640413 -0.003129132 4.856633
-1.7515857 1.1080598 0.1765575 -0.19898663 0.16581479 5.1619606 -1.4068644 1.0574576
0.3336994 -0.17789565 0.081566006 5.422649 -1.4524444 1.2179246 0.44865835 -0.26286072
-0.01743652 5.5388255 -1.620934 1.1816034 0.7483253 -0.19001925 -0.0190994 5.862867
-1.8939404 1.1786208 0.68207276 -0.10096128 -0.13547517 5.962904 -1.8567994 1.0944182
0.73057294 -0.020742878 -0.1099616 6.0668693 -1.8118533 1.1346995 0.798439 -0.055297606
-0.054250754 6.1962166 -2.0114527 1.2275289 0.8201505 -0.3068619 -0.06213069 6.2383785
-2.1711843 1.196126 0.7603745 -0.2295166 -0.02978447 6.140718 -2.3137128 1.2874136
0.69079614 -0.0525892 0.048314422 6.238459 -2.6692243 1.4465439 0.64748186 -0.15461464
0.1849483 6.3977895 -2.6248834 1.5561593 0.77626526 -2.8520823e-05 0.14987597 6.57467
-2.647789 1.4698582 0.707178 0.15166384 0.24214149 6.614326 -2.6731346 1.3573865
0.79186916 0.19634148 0.38613698 6.6007614 -2.7161672 1.3555613 0.98213065 -0.05526766
0.4772877 6.6114964 -2.7738955 1.4427338 1.0925345 -0.09412206 0.44870818 6.5015607
-2.939317 1.5578096 1.1406748 -0.12400189 0.634612 6.4377637 -2.9975615 1.5983527
1.0871177 -0.17807929 0.5952585 6.432954 -3.041864 1.6004531 1.1402038 -0.11912979
0.8308739 6.296174 -3.0949552 1.7219121 0.96199614 -0.25342384 0.861876 6.2227607
-2.932621 1.8391508 0.9507352 -0.27697682 0.9433708 6.1662984 -3.2007978 1.8783132
0.6987793 -0.34561458 0.8249334 6.209437 -3.2218335 1.9547966 0.70185935 -0.28030878
0.9073583 6.147673 -3.167736 1.8164915 0.7095765 -0.22418496 0.9318092 6.015598
00000000: 0000 0000 0000 0000 0000 0000 0000 0000
00000010: 0000 0000 0000 0000 e0be cdba fe13 a3bc
00000020: 6838 663c 8e38 0e3f 0b4f c5bd 89c0 6e3d
00000030: 5411 ddbd 001c 5eb8 c4ed 823e 117a 433f
00000040: dbd2 adbe 0610 0a3e de3c 7cbe bee9 7dbd
00000050: 64df 98bd 913b 963f c49f eebe f9b2 393e
00000060: d4eb 9abc fd88 a5bd 56f4 23be b05e da3f
00000070: ca79 59bf 52ce b03e ea82 983d 5081 0bbe
00000080: deb8 57bd cb66 fd3f d467 7fbf f208 f63e
00000090: b499 24bd a5cb 21be 9067 15be 5163 1540
000000a0: b91b 9fbf 982e d43e 851d 0bbe c501 16be
000000b0: f79a 13be ca57 1e40 57ca a4bf 44c1 273f
000000c0: 8698 f53d 50db 26be 30f8 133d 0aa1 3640
000000d0: 4a50 9ebf b454 2e3f cf1e b93d ec28 ebbe
000000e0: 481c db3c eb91 4540 ee4d aebf 46d0 3e3f
000000f0: d6bd ee3d c452 98be 3c2f ac3d 8d95 5d40
00000100: 7461 b7bf 84f2 203f 321c 283e 9382 dabe
00000110: 6ddb 053e 2651 5c40 9601 b0bf 597b 043f
00000120: e4d7 723e ba61 12bf 0064 5f3a b14c 5f40
00000130: e8aa b2bf 6648 263f 8a3a 733e 7418 d9be
00000140: f2d9 a43d 40cb 7640 c847 bfbf 7ae5 1b3f
00000150: 56b4 883e 14dd 13bf 5079 43bd 8b74 8240
00000160: b2ad b0bf b133 043f b133 c93d db13 dfbe
00000170: 6af0 bfbd 7e19 8a40 8628 bbbf a6c5 1f3f
00000180: b4b6 2c3d 7cc6 d1be 966e afbd a7c3 9140
00000190: 5375 dbbf bb69 543f dce5 e03d 5cd5 8cbe
000001a0: 2cf2 54bd dd6c 9540 94fd e4bf 0820 763f
000001b0: 60d3 0a3e 90a3 92be 2012 4dbb 8a69 9b40
000001c0: f633 e0bf e7d4 8d3f 7dcb 343e 27c3 4bbe
000001d0: 5acb 293e c82e a540 2214 b4bf c55a 873f
000001e0: a6da aa3e 472a 36be 140c a73d 5786 ad40
000001f0: b3e9 b9bf f4e4 9b3f 8cb6 e53e ae95 86be
00000200: 08d7 8ebc 0f3e b140 c47a cfbf c83e 973f
00000210: 3f92 3f3f 6894 42be 5876 9cbc 9b9c bb40
00000220: a46c f2bf 0cdd 963f 529c 2e3f cac4 cebd
00000230: 01ba 0abe 1cd0 be40 9aab edbf e515 8c3f
00000240: d406 3b3f f8ec a9bc 8c33 e1bd cb23 c240
00000250: cfea e7bf d53d 913f 8066 4c3f be7f 62bd
00000260: 0a36 5ebd 6847 c640 a4bb 00c0 ab1f 9d3f
00000270: 62f5 513f 011d 9dbe c07c 7ebd cca0 c740
00000280: aff4 0ac0 a81a 993f e7a7 423f 6606 6bbe
00000290: 90fe f3bc c380 c440 df13 14c0 f8c9 a43f
000002a0: 04d8 303f c667 57bd 58e5 453d 75a1 c740
000002b0: 92d4 2ac0 5a28 b93f 5fc1 253f 4d53 1ebe
000002c0: 1663 3d3e b1ba cc40 17fe 27c0 3a30 c73f
000002d0: 52b9 463f 0040 efb7 1679 193e b263 d240
000002e0: 6075 29c0 5024 bc3f 9e09 353f c44d 1b3e
000002f0: f0f3 773e 8fa8 d340 a314 2bc0 d7be ad3f
00000300: f0b7 4a3f be0d 493e bfb3 c53e 7039 d340
00000310: afd5 2dc0 0883 ad3f ea6c 7b3f 5860 62bd
00000320: 0e5f f43e 6191 d340 8187 31c0 80ab b83f
00000330: 2cd8 8b3f 11c3 c0bd 14bd e53e c90c d040
00000340: c51d 3cc0 4e66 c73f a201 923f b4f4 fdbd
00000350: ef75 223f 2902 ce40 0cd8 3fc0 d296 cc3f
00000360: ac26 8b3f 6b5a 36be dc62 183f c2da cd40
00000370: e6ad 42c0 a6db cc3f 33f2 913f 52fa f3bd
00000380: 27b4 543f 427a c940 bf13 46c0 9e67 dc3f
00000390: 6145 763f c5c0 81be e8a3 5c3f db20 c740
000003a0: 10b0 3bc0 4b69 eb3f 6263 733f e8cf 8dbe
000003b0: c080 713f 5152 c540 dfd9 4cc0 916c f03f
000003c0: 33e3 323f 65f4 b0be d62e 533f b5b3 c640
000003d0: 8532 4ec0 c636 fa3f 0ead 333f a284 8fbe
000003e0: a248 683f bdb9 c440 30bc 4ac0 cb82 e83f
000003f0: cea6 353f be90 65be 0c8b 6e3f c77f c040

Xt f4 [5, 101, 6]
-0.5916197 0.2341217 0.3908387 0.0 0.0 0.0 -0.5750277 0.23637083
0.39104813 0.0 0.0 0.0 -0.5457892 0.22551589 0.3735747 0.0
0.0 0.0 -0.5545343 0.2190558 0.36796284 0.0 0.0 0.0
-0.54734796 0.22495666 0.37315956 0.0 0.0 0.0 -0.52915406 0.22087403
0.36526003 0.0 0.0 0.0 -0.52375555 0.21885768 0.36186117 0.0
0.0 0.0 -0.5139764 0.20859866 0.34857854 0.0 0.0 0.0
-0.49287704 0.21834199 0.35632208 0.0 0.0 0.0 -0.48720112 0.21534371
0.35147482 0.0 0.0 0.0 -0.472508 0.2224576 0.35738406 0.0
0.0 0.0 -0.46463954 0.20811906 0.33967477 0.0 0.0 0.0
-0.46945727 0.1959414 0.3263801 0.0 0.0 0.0 -0.45641035 0.2069379
0.3369441 0.0 0.0 0.0 -0.4599418 0.20515637 0.3356658 0.0
0.0 0.0 -0.4559814 0.20605281 0.33615687 0.0 0.0 0.0
-0.44962543 0.20806205 0.3370768 0.0 0.0 0.0 -0.4421792 0.20437974
0.33161685 0.0 0.0 0.0 -0.43479082 0.20604105 0.3323555 0.0
0.0 0.0 -0.4181914 0.21780568 0.3437506 0.0 0.0 0.0
-0.41894367 0.22034389 0.34682426 0.0 0.0 0.0 -0.42274305 0.21412142
0.34001347 0.0 0.0 0.0 -0.41709384 0.2215371 0.34729648 0.0
0.0 0.0 -0.42078507 0.21432336 0.33983922 0.0 0.0 0.0
-0.4159961 0.21130002 0.3357229 0.0 0.0 0.0 -0.41037765 0.21040533
0.333404 0.0 0.0 0.0 -0.41134813 0.20362748 0.3252967 0.0
0.0 0.0 -0.40969262 0.19092783 0.31015363 0.0 0.0 0.0
-0.40303338 0.19052441 0.30817825 0.0 0.0 0.0 -0.39383948 0.19572282
0.31256646 0.0 0.0 0.0 -0.3939485 0.19747446 0.3147506 0.0
0.0 0.0 -0.38788757 0.19492094 0.310807 0.0 0.0 0.0
-0.38050097 0.19118214 0.30511358 0.0 0.0 0.0 -0.37828496 0.18785255
0.30056047 0.0 0.0 0.0 -0.3841931 0.17530586 0.28673664 0.0
0.0 0.0 -0.37617505 0.17154372 0.280727 0.0 0.0 0.0
-0.38199282 0.16541848 0.2745193 0.0 0.0 0.0 -0.37183407 0.16001754
0.26620042 0.0 0.0 0.0 -0.3751918 0.15324381 0.2588835 0.0
0.0 0.0 -0.37467736 0.14829992 0.25264794 0.0 0.0 0.0
-0.38540092 0.14346413 0.24893256 0.0 0.0 0.0 -0.38399765 0.13924454
0.24373104 0.0 0.0 0.0 -0.38737258 0.13019748 0.23372442 0.0
00000000: 6374 17bf 99bd 6f3e 031c c83e 0000 0000
00000010: 0000 0000 0000 0000 0435 13bf 320b 723e
00000020: 7637 c83e 0000 0000 0000 0000 0000 0000
00000030: d7b8 0bbf a3ed 663e 2f45 bf3e 0000 0000
00000040: 0000 0000 0000 0000 f6f5 0dbf 2a50 603e
00000050: a065 bc3e 0000 0000 0000 0000 0000 0000
00000060: ff1e 0cbf 0a5b 663e c50e bf3e 0000 0000
00000070: 0000 0000 0000 0000 a476 07bf cd2c 623e
00000080: 5d03 bb3e 0000 0000 0000 0000 0000 0000
00000090: d814 06bf 3a1c 603e de45 b93e 0000 0000
000000a0: 0000 0000 0000 0000 f593 03bf e39a 553e
000000b0: e378 b23e 0000 0000 0000 0000 0000 0000
000000c0: 615a fcbe 0b95 5f3e d96f b63e 0000 0000
000000d0: 0000 0000 0000 0000 6d72 f9be 1083 5c3e
000000e0: 82f4 b33e 0000 0000 0000 0000 0000 0000
000000f0: 92ec f1be edcb 633e 0bfb b63e 0000 0000
00000100: 0000 0000 0000 0000 3ce5 edbe 2a1d 553e
00000110: dae9 ad3e 0000 0000 0000 0000 0000 0000
00000120: b45c f0be dda4 483e 4b1b a73e 0000 0000
00000130: 0000 0000 0000 0000 9eae e9be 87e7 533e
00000140: f083 ac3e 0000 0000 0000 0000 0000 0000
00000150: 7e7d ebbe 8314 523e 63dc ab3e 0000 0000
00000160: 0000 0000 0000 0000 6576 e9be 82ff 523e
00000170: c11c ac3e 0000 0000 0000 0000 0000 0000
00000180: 4e35 e6be 380e 553e 5595 ac3e 0000 0000
00000190: 0000 0000 0000 0000 5065 e2be ec48 513e
000001a0: afc9 a93e 0000 0000 0000 0000 0000 0000
000001b0: e79c debe 6dfc 523e 802a aa3e 0000 0000
000001c0: 0000 0000 0000 0000 2f1d d6be 7408 5f3e
000001d0: 1400 b03e 0000 0000 0000 0000 0000 0000
000001e0: c97f d6be d4a1 613e f392 b13e 0000 0000
000001f0: 0000 0000 0000 0000 c771 d8be a542 5b3e
00000200: 3f16 ae3e 0000 0000 0000 0000 0000 0000
00000210: 538d d5be 9fda 623e d8d0 b13e 0000 0000
00000220: 0000 0000 0000 0000 2471 d7be 9577 5b3e
00000230: 68ff ad3e 0000 0000 0000 0000 0000 0000
00000240: 71fd d4be 085f 583e dfe3 ab3e 0000 0000
00000250: 0000 0000 0000 0000 051d d2be 7f74 573e
00000260: eeb3 aa3e 0000 0000 0000 0000 0000 0000
00000270: 399c d2be b983 503e 4a8d a63e 0000 0000
00000280: 0000 0000 0000 0000 3bc3 d1be 9682 433e
00000290: 75cc 9e3e 0000 0000 0000 0000 0000 0000
000002a0: 645a cebe d518 433e 8ac9 9d3e 0000 0000
000002b0: 0000 0000 0000 0000 54a5 c9be 906b 483e
000002c0: b608 a03e 0000 0000 0000 0000 0000 0000
000002d0: 9eb3 c9be bf36 4a3e fe26 a13e 0000 0000
000002e0: 0000 0000 0000 0000 3399 c6be 5b99 473e
000002f0: 1822 9f3e 0000 0000 0000 0000 0000 0000
00000300: 06d1 c2be 40c5 433e d937 9c3e 0000 0000
00000310: 0000 0000 0000 0000 91ae c1be 6b5c 403e
00000320: 10e3 993e 0000 0000 0000 0000 0000 0000
00000330: f5b4 c4be 6183 333e 25cf 923e 0000 0000
00000340: 0000 0000 0000 0000 049a c0be 28a9 2f3e
00000350: 73bb 8f3e 0000 0000 0000 0000 0000 0000
00000360: 9094 c3be 7663 293e cb8d 8c3e 0000 0000
00000370: 0000 0000 0000 0000 0961 bebe a3db 233e
00000380: 6c4b 883e 0000 0000 0000 0000 0000 0000
00000390: 2419 c0be f2eb 1c3e 618c 843e 0000 0000
000003a0: 0000 0000 0000 0000 b6d5 bfbe efdb 173e
000003b0: 125b 813e 0000 0000 0000 0000 0000 0000
000003c0: 4553 c5be 43e8 123e 2de8 7e3e 0000 0000
000003d0: 0000 0000 0000 0000 579b c4be 1f96 0e3e
000003e0: a194 793e 0000 0000 0000 0000 0000 0000
000003f0: b355 c6be 7d52 053e 7455 6f3e 0000 0000

theta f4 [4251]
0.2 0.2 0.19967891 0.19967891 0.19967891 0.19967891 0.19967891 0.19967891
0.19967891 1.8854456 1.8854456 1.8854456 0.71058667 0.71058667 0.71058667 2.151802
20.785885 20.785885 20.785885 20.785885 20.785885 20.785885 20.785885 20.785885
20.785885 20.785885 20.785885 20.785885 20.785885 20.785885 20.785885 20.785885
20.785885 20.785885 20.785885 20.785885 20.785885 20.785885 20.785885 20.785885
20.785885 20.785885 20.785885 20.785885 20.785885 20.785885 20.785885 20.785885
20.785885 20.785885 20.785885 20.785885 20.785885 20.785885 20.785885 20.785885
20.785885 20.785885 20.785885 20.785885 20.785885 20.785885 20.785885 20.785885
20.785885 20.785885 20.785885 20.785885 20.785885 20.785885 20.785885 20.785885
20.785885 20.785885 20.785885 20.785885 20.785885 20.785885 20.785885 20.785885
20.785885 20.785885 20.785885 20.785885 20.785885 20.785885 20.785885 20.785885
20.785885 20.785885 20.785885 20.785885 20.785885 20.785885 20.785885 20.785885
20.785885 20.785885 20.785885 20.785885 20.785885 20.785885 20.785885 20.785885
20.785885 20.785885 20.785885 20.785885 20.785885 20.785885 20.785885 20.785885
20.785885 20.785885 20.785885 20.785885 20.785885 20.785885 20.785885 20.785885
20.785885 20.785885 20.785885 20.785885 20.785885 20.785885 20.785885 20.785885
20.785885 20.785885 20.785885 20.785885 20.785885 20.785885 20.785885 20.785885
20.785885 20.785885 20.785885 20.785885 20.785885 20.785885 20.785885 20.785885
20.785885 20.785885 20.785885 20.785885 20.785885 20.785885 20.785885 20.785885
20.785885 20.785885 20.785885 20.785885 20.785885 20.785885 20.785885 20.785885
20.785885 20.785885 20.785885 20.785885 20.785885 20.785885 20.785885 20.785885
20.785885 20.785885 20.785885 20.785885 20.785885 20.785885 20.785885 20.785885
20.785885 20.785885 20.785885 20.785885 20.785885 20.785885 20.785885 20.785885
20.785885 20.785885 20.785885 20.785885 20.785885 20.785885 20.785885 20.785885
20.785885 20.785885 20.785885 20.785885 20.785885 20.785885 20.785885 20.785885
20.785885 20.785885 20.785885 20.785885 20.785885 20.785885 20.785885 20.785885
20.785885 20.785885 20.785885 20.785885 20.785885 20.785885 20.785885 20.785885
20.785885 20.785885 20.785885 20.785885 20.785885 20.785885 20.785885 20.785885
20.785885 20.785885 20.785885 20.785885 20.785885 20.785885 20.785885 20.785885
20.785885 20.785885 20.785885 20.785885 20.785885 20.785885 20.785885 20.785885
20.785885 20.785885 20.785885 20.785885 20.785885 20.785885 20.785885 20.785885
20.785885 20.785885 20.785885 20.785885 20.785885 20.785885 20.785885 20.785885
00000000: cdcc 4c3e cdcc 4c3e a178 4c3e a178 4c3e
00000010: a178 4c3e a178 4c3e a178 4c3e a178 4c3e
00000020: a178 4c3e 4856 f13f 4856 f13f 4856 f13f
00000030: 02e9 353f 02e9 353f 02e9 353f 20b7 0940
00000040: 7e49 a641 7e49 a641 7e49 a641 7e49 a641
00000050: 7e49 a641 7e49 a641 7e49 a641 7e49 a641
00000060: 7e49 a641 7e49 a641 7e49 a641 7e49 a641
00000070: 7e49 a641 7e49 a641 7e49 a641 7e49 a641
00000080: 7e49 a641 7e49 a641 7e49 a641 7e49 a641
00000090: 7e49 a641 7e49 a641 7e49 a641 7e49 a641
000000a0: 7e49 a641 7e49 a641 7e49 a641 7e49 a641
000000b0: 7e49 a641 7e49 a641 7e49 a641 7e49 a641
000000c0: 7e49 a641 7e49 a641 7e49 a641 7e49 a641
000000d0: 7e49 a641 7e49 a641 7e49 a641 7e49 a641
000000e0: 7e49 a641 7e49 a641 7e49 a641 7e49 a641
000000f0: 7e49 a641 7e49 a641 7e49 a641 7e49 a641
00000100: 7e49 a641 7e49 a641 7e49 a641 7e49 a641
00000110: 7e49 a641 7e49 a641 7e49 a641 7e49 a641
00000120: 7e49 a641 7e49 a641 7e49 a641 7e49 a641
00000130: 7e49 a641 7e49 a641 7e49 a641 7e49 a641
00000140: 7e49 a641 7e49 a641 7e49 a641 7e49 a641
00000150: 7e49 a641 7e49 a641 7e49 a641 7e49 a641
00000160: 7e49 a641 7e49 a641 7e49 a641 7e49 a641
00000170: 7e49 a641 7e49 a641 7e49 a641 7e49 a641
00000180: 7e49 a641 7e49 a641 7e49 a641 7e49 a641
00000190: 7e49 a641 7e49 a641 7e49 a641 7e49 a641
000001a0: 7e49 a641 7e49 a641 7e49 a641 7e49 a641
000001b0: 7e49 a641 7e49 a641 7e49 a641 7e49 a641
000001c0: 7e49 a641 7e49 a641 7e49 a641 7e49 a641
000001d0: 7e49 a641 7e49 a641 7e49 a641 7e49 a641
000001e0: 7e49 a641 7e49 a641 7e49 a641 7e49 a641
000001f0: 7e49 a641 7e49 a641 7e49 a641 7e49 a641
00000200: 7e49 a641 7e49 a641 7e49 a641 7e49 a641
00000210: 7e49 a641 7e49 a641 7e49 a641 7e49 a641
00000220: 7e49 a641 7e49 a641 7e49 a641 7e49 a641
00000230: 7e49 a641 7e49 a641 7e49 a641 7e49 a641
00000240: 7e49 a641 7e49 a641 7e49 a641 7e49 a641
00000250: 7e49 a641 7e49 a641 7e49 a641 7e49 a641
00000260: 7e49 a641 7e49 a641 7e49 a641 7e49 a641
00000270: 7e49 a641 7e49 a641 7e49 a641 7e49 a641
00000280: 7e49 a641 7e49 a641 7e49 a641 7e49 a641
00000290: 7e49 a641 7e49 a641 7e49 a641 7e49 a641
000002a0: 7e49 a641 7e49 a641 7e49 a641 7e49 a641
000002b0: 7e49 a641 7e49 a641 7e49 a641 7e49 a641
000002c0: 7e49 a641 7e49 a641 7e49 a641 7e49 a641
000002d0: 7e49 a641 7e49 a641 7e49 a641 7e49 a641
000002e0: 7e49 a641 7e49 a641 7e49 a641 7e49 a641
000002f0: 7e49 a641 7e49 a641 7e49 a641 7e49 a641
00000300: 7e49 a641 7e49 a641 7e49 a641 7e49 a641
00000310: 7e49 a641 7e49 a641 7e49 a641 7e49 a641
00000320: 7e49 a641 7e49 a641 7e49 a641 7e49 a641
00000330: 7e49 a641 7e49 a641 7e49 a641 7e49 a641
00000340: 7e49 a641 7e49 a641 7e49 a641 7e49 a641
00000350: 7e49 a641 7e49 a641 7e49 a641 7e49 a641
00000360: 7e49 a641 7e49 a641 7e49 a641 7e49 a641
00000370: 7e49 a641 7e49 a641 7e49 a641 7e49 a641
00000380: 7e49 a641 7e49 a641 7e49 a641 7e49 a641
00000390: 7e49 a641 7e49 a641 7e49 a641 7e49 a641
000003a0: 7e49 a641 7e49 a641 7e49 a641 7e49 a641
000003b0: 7e49 a641 7e49 a641 7e49 a641 7e49 a641
000003c0: 7e49 a641 7e49 a641 7e49 a641 7e49 a641
000003d0: 7e49 a641 7e49 a641 7e49 a641 7e49 a641
000003e0: 7e49 a641 7e49 a641 7e49 a641 7e49 a641
000003f0: 7e49 a641 7e49 a641 7e49 a641 7e49 a641
