main/template_estimation/simple_models/ms_theta_iter_7000.npz (npz, 46920 bytes, 3 tensors)

Wt f4 [5, 101, 3]
000000 00 00 00 00 00 00 00 00 00 00 00 00 70 c9 98 be
       0.0 0.0 0.0 -0.29841185
000010 2b 5f 26 be 27 25 9c 3d f6 5d 2f bf b6 0e ff bd
       -0.16247241 0.07624274 -0.6850275 -0.12453978
000020 c1 b7 2c 3e e3 07 87 bf 59 fa 9a bd 26 c1 cf 3e
       0.16866972 -1.0549282 -0.07567281 0.40577048
000030 bf e1 95 bf 66 7f 13 be 32 a6 08 3f a8 c7 ba bf
       -1.1709517 -0.14404067 0.53378594 -1.459218
000040 4c 82 94 3d 9b e1 04 3f 3a 37 c8 bf d0 7c 3a 3d
       0.07251415 0.51906747 -1.5641854 0.045529187
000050 8b 8f 7f 3f 14 ed f1 bf 3c d7 c0 3d 25 14 90 3f
       0.99828404 -1.8900476 0.09416053 1.1256148
000060 04 12 f6 bf 59 0f 86 3e b9 2e bc 3f 2e 02 13 c0
       -1.9224248 0.26183584 1.4701759 -2.297008
000070 d8 6b 1e 3e 27 30 d1 3f ba 24 24 c0 35 fc 14 3e
       0.15470827 1.634282 -2.5647416 0.14549334
000080 3c 9f d4 3f ab df 31 c0 db 15 14 3e e0 5c e4 3f
       1.6611094 -2.7792766 0.14461462 1.7840843
000090 68 40 48 c0 a0 18 cf bc 1a 8d f4 3f de fc 4f c0
       -3.128931 -0.025280297 1.9105561 -3.2498088
0000a0 3c 14 42 3e 6e 77 03 40 f9 af 61 c0 48 ca e3 3d
       0.18953031 2.0541644 -3.5263655 0.111225665
0000b0 92 69 1c 40 d3 c2 7c c0 ef 28 3b 3d e3 1a 0f 40
       2.4439435 -3.9493911 0.045693334 2.236016
0000c0 ec 7c 86 c0 92 c0 5e 3e c7 cd 16 40 76 b5 86 c0
       -4.2027493 0.21753147 2.3563097 -4.209651
0000d0 dd 23 80 3e 90 12 15 40 0a 43 89 c0 8d 7a f0 3e
       0.25027362 2.329258 -4.2894335 0.469685
0000e0 c0 d3 13 40 b0 af 8f c0 03 ad 2f 3f 45 65 19 40
       2.3097992 -4.490196 0.6862337 2.396806
0000f0 66 05 8e c0 35 2e 59 3f 93 68 1c 40 77 17 96 c0
       -4.438159 0.8483613 2.4438827 -4.6903644
000100 33 8f 3c 3f a5 75 25 40 ac cc 9e c0 42 b8 40 3f
       0.73656005 2.5853055 -4.9624844 0.75281155
000110 c3 ab 27 40 f6 ac a3 c0 b6 59 3b 3f 36 d9 3e 40
       2.6198585 -5.1148634 0.73183763 2.9820075
000120 02 e2 a8 c0 e2 99 21 3f 85 a0 43 40 7e c5 ae c0
       -5.277589 0.6312543 3.0566723 -5.461608
000130 9a 2b 29 3f 44 4f 43 40 ab a4 b7 c0 5a e7 27 3f
       0.66082156 3.051713 -5.738851 0.6558739
000140 46 cb 48 40 2c 63 bf c0 c7 d1 78 3f 60 83 52 40
       3.1374068 -5.980856 0.97195095 3.2892685
000150 3e 39 c5 c0 b9 01 7a 3f 62 95 60 40 77 ad cd c0
       -6.1632376 0.9765888 3.5091176 -6.427425
000160 75 a0 8a 3f 89 5c 64 40 dd 1a d1 c0 37 0a 92 3f
       1.0830218 3.568148 -6.534529 1.1409367
000170 2c c2 74 40 7e 01 d6 c0 c6 34 ab 3f e5 84 7b 40
       3.8243513 -6.687682 1.337548 3.9299862
000180 b3 a2 e1 c0 19 44 c4 3f d1 e1 83 40 08 e4 e4 c0
       -7.0511107 1.5333282 4.1213155 -7.152836
000190 a2 d8 ac 3f e9 d9 84 40 95 4f ed c0 97 c1 ad 3f
       1.3503611 4.1516004 -7.4159646 1.3574704
0001a0 af ee 86 40 29 8f ef c0 99 ab c4 3f 8c 55 88 40
       4.216636 -7.4862256 1.5364867 4.2604427
0001b0 87 86 f5 c0 d7 99 b6 3f ba c7 8f 40 32 0b fa c0
       -7.672672 1.4265698 4.4931307 -7.8138666
0001c0 3a 67 ce 3f cd 89 92 40 65 18 00 c1 d3 bc ef 3f
       1.6125252 4.5793214 -8.005956 1.87295
0001d0 d9 99 96 40 55 5e ff c0 cf 52 f0 3f 27 d1 9f 40
       4.70628 -7.980265 1.8775271 4.9942813
0001e0 c7 52 01 c1 aa 60 f0 3f ff 3e a3 40 ff a7 05 c1
       -8.082709 1.87795 5.10144 -8.353515
0001f0 a4 34 ec 3f be 0a af 40 e5 32 09 c1 2c f4 da 3f
       1.8453565 5.4700613 -8.574925 1.7105765
000200 52 9b ad 40 89 1f 0b c1 a5 4f ff 3f bf 3c ac 40
       5.42521 -8.695199 1.994618 5.3824153
000210 ae 72 0d c1 de 81 0c 40 df 86 ae 40 a2 0f 10 c1
       -8.840498 2.1954265 5.4539638 -9.003817
000220 30 f7 0e 40 7a 7c ae 40 68 10 15 c1 da b5 08 40
       2.2338371 5.452695 -9.316505 2.1360993
000230 5f d8 ae 40 60 19 17 c1 c2 48 10 40 a5 48 b1 40
       5.4639125 -9.443695 2.2544408 5.5401177
000240 4d 39 1b c1 58 27 12 40 1c ca b0 40 6f d1 20 c1
       -9.701489 2.2836514 5.5246716 -10.051131
000250 1b c2 11 40 a2 d9 b2 40 6a 3b 24 c1 a0 15 0f 40
       2.2774723 5.5890665 -10.264505 2.235695
000260 7b 65 b3 40 05 b9 2b c1 d2 07 1d 40 d5 ec b6 40
       5.6061378 -10.732671 2.4536023 5.71641
000270 ae 87 2b c1 a6 10 20 40 5e 44 b3 40 5c a2 2c c1
       -10.720625 2.5010161 5.6020956 -10.7896385
000280 fc 86 26 40 ec 39 b6 40 98 0a 2e c1 f9 3b 29 40
       2.6019888 5.6945705 -10.877586 2.6442854
000290 cf 2d b6 40 0f ac 2f c1 f1 1b 24 40 9c 05 b3 40
       5.693092 -10.9795065 2.5642054 5.5944347
0002a0 83 8e 31 c1 f6 3f 2b 40 41 bd b8 40 40 5d 34 c1
       -11.097293 2.6757789 5.7731023 -11.272766
0002b0 de dc 2c 40 70 fe ba 40 80 3b 36 c1 1a 27 26 40
       2.7009807 5.8435593 -11.389526 2.5961366
0002c0 8b 8c bc 40 90 0f 38 c1 ce 15 2a 40 1c a6 c2 40
       5.892156 -11.503799 2.6575809 6.082777
0002d0 57 b1 36 c1 92 db 2f 40 71 b0 c2 40 67 05 38 c1
       -11.418296 2.7477765 6.0840383 -11.501319
0002e0 bd d6 30 40 0e 04 c6 40 b7 95 3b c1 8b 6d 2e 40
       2.7631066 6.187995 -11.724051 2.725436
0002f0 df 07 c8 40 d0 a9 3f c1 c3 a1 33 40 ba b3 c6 40
       6.250961 -11.978958 2.8067482 6.2094393
000300 06 3b 42 c1 8f 3e 36 40 d1 1b ca 40 27 82 44 c1
       -12.13941 2.8475683 6.3158956 -12.281775
000310 2b e5 44 40 b8 2f cb 40 71 e2 46 c1 57 76 3c 40
       3.0764873 6.349575 -12.430284 2.944723
000320 a6 ea ca 40 07 b6 49 c1 dc 75 41 40 85 a7 cb 40
       6.3411436 -12.60694 3.0228186 6.364199
000330 bd 82 4a c1 ea dc 41 40 f1 90 cc 40 66 e3 4b c1
       -12.656919 3.0291085 6.392693 -12.743017
000340 7d ab 4a 40 4a 65 d0 40 50 27 4c c1 fe 88 4c 40
       3.1667168 6.5123644 -12.759598 3.1958613
000350 2a bc d0 40 b3 ae 4c c1 fb eb 4f 40 5c 71 d0 40
       6.5229692 -12.792651 3.248778 6.513838
000360 8b 9a 4e c1 fa 34 52 40 c6 14 d1 40 7f 9b 4f c1
       -12.91273 3.2844834 6.533786 -12.975463
000370 bb 94 55 40 fd 4a ce 40 ae 8b 51 c1 2e 75 5c 40
       3.3372028 6.446654 -13.0966015 3.444652
000380 d5 95 d1 40 98 db 50 c1 65 ef 5d 40 38 f0 d3 40
       6.54954 -13.053612 3.4677365 6.6230736
000390 2f 17 50 c1 6a e6 62 40 a7 84 d8 40 3c e5 50 c1
       -13.00566 3.5453134 6.766193 -13.055965
0003a0 28 a8 66 40 60 86 db 40 7a 2c 52 c1 b9 e8 65 40
       3.6040134 6.860153 -13.135859 3.5923293
0003b0 ac f5 df 40 62 95 52 c1 cf da 60 40 02 15 e1 40
       6.9987392 -13.16147 3.513355 7.0338144
0003c0 c7 b7 54 c1 e1 9b 57 40 9e 0c e3 40 d8 ef 53 c1
       -13.2948675 3.368889 7.09529 -13.246056
0003d0 3a 56 5b 40 5b 87 e3 40 70 fc 52 c1 22 e7 5a 40
       3.4271379 7.110273 -13.18663 3.4203572
0003e0 81 81 e5 40 e2 a6 52 c1 5d 65 59 40 6f 2b e8 40
       7.1720586 -13.165743 3.3968117 7.255302
0003f0 5f ef 53 c1 f5 ab 5b 40 67 16 e7 40 ea 62 55 c1
       -13.24594 3.4323704 7.2214847 -13.336649

Xt f4 [5, 101, 6]
000000 91 d1 a5 bf 03 1f c2 be a9 39 30 be 00 00 00 00
       -1.295458 -0.37914285 -0.17209496 0.0
000010 00 00 00 00 00 00 00 00 91 d1 a5 bf 03 1f c2 be
       0.0 0.0 -1.295458 -0.37914285
000020 a9 39 30 be 00 bc eb ba c9 5f f4 bd ad 6c 63 bd
       -0.17209496 -0.0017985106 -0.11932332 -0.055523563
000030 6b 18 a6 bf 80 e2 c3 be 7c b8 33 be 08 e3 44 bd
       -1.2976202 -0.38258743 -0.17550844 -0.048068076
000040 4c 37 f2 bd f4 f0 c5 bd c2 89 a6 bf 69 53 c6 be
       -0.11826953 -0.09665099 -1.301079 -0.38735512
000050 37 79 38 be 52 ec 9c bd e6 90 e1 bd f8 32 60 bd
       -0.1801499 -0.07662262 -0.11013965 -0.054736108
000060 91 fa a6 bf 3c 71 c8 be 61 7e 3c be 2a b1 47 3d
       -1.3045217 -0.3914889 -0.18407585 0.04875294
000070 7c b2 30 be dc da a4 bd 22 3e a7 bf 01 96 ca be
       -0.17255586 -0.080495566 -1.3065836 -0.3956757
000080 b4 dc 40 be 2a 4f 94 3d 80 c6 8f bd 30 e7 3f be
       -0.18834192 0.07241662 -0.07020283 -0.18740535
000090 1b 6c a7 bf d2 93 cc be a2 11 45 be 0a 3b 51 3e
       -1.3079866 -0.39956528 -0.19245008 0.20432678
0000a0 f1 5b e0 bd 60 c9 2c bc ce 1e a7 bf 23 6e cc be
       -0.109550364 -0.010546058 -1.3056276 -0.39927778
0000b0 55 39 45 be 6a 85 52 3e ae 1a e9 bd 46 b6 3a bd
       -0.19260152 0.20558706 -0.11382042 -0.045583986
0000c0 cf de a6 bf bc a3 cc be 11 1a 46 be 58 79 c3 3e
       -1.3036746 -0.3996867 -0.19345881 0.38178515
0000d0 ec ab 4b bd ac ce 34 3d 65 ff a5 bf c2 52 ca be
       -0.049724504 0.04414241 -1.2968565 -0.39516264
0000e0 e9 52 42 be 5c 78 b4 3e 5c a6 1d be 44 fb ac 3c
       -0.1897694 0.35248077 -0.15395492 0.021115907
0000f0 5d 64 a5 bf 0f 62 c9 be ca 2f 41 be 1a c9 c9 3e
       -1.2921253 -0.39332625 -0.18865886 0.3941124
000100 f1 19 4c be df d9 a0 bd 51 e4 a4 bf c1 80 c9 be
       -0.19931771 -0.078540556 -1.2882177 -0.39356044
000110 34 46 42 be ba 90 f0 3e 78 ae 72 be 02 3d f3 bd
       -0.18972093 0.46985418 -0.23699367 -0.11876871
000120 9a 55 a4 bf eb d9 c9 be d9 f9 43 be 7e b9 ef 3e
       -1.2838624 -0.3942407 -0.19138278 0.46821207
000130 c0 88 be be ec 93 1f be f9 09 a4 bf b1 ba cb be
       -0.37213707 -0.15583771 -1.2815543 -0.39790872
000140 89 ae 48 be e9 28 1b 3f 93 d2 8f be 93 38 36 be
       -0.1959783 0.606093 -0.28090343 -0.17795019
000150 1e 56 a3 bf e6 20 cc be ef c0 4a be 5d e7 25 3f
       -1.2760656 -0.3986885 -0.19800161 0.6480616
000160 7e 60 ba be 48 26 80 bd 67 89 a2 bf c3 fd cb be
       -0.36401743 -0.062573016 -1.2698182 -0.39842042
000170 f1 bf 4b be bb bc 1b 3f 44 46 e3 be 42 6d 97 be
       -0.19897439 0.60834855 -0.44389546 -0.29575545
000180 fd 3c a2 bf 6c bd ce be fc 76 52 be ee 2b 2d 3f
       -1.2674862 -0.40378892 -0.20553201 0.67645156
000190 d4 72 c0 be 80 d9 a7 be 8c be a1 bf 18 b8 d0 be
       -0.37587607 -0.32783127 -1.2636275 -0.40765452
0001a0 a1 ca 57 be d0 b9 62 3f 6a 1d c8 be fe 6b e5 be
       -0.2107339 0.8856478 -0.3908494 -0.44808954
0001b0 62 fd a0 bf fc 8b d2 be 34 3e 5d be 1b 91 85 3f
       -1.2577326 -0.41122425 -0.2160576 1.0434908
0001c0 9e ea 97 be 30 45 0f bf 8b ec 9f bf f7 84 d3 be
       -0.29671186 -0.55964947 -1.2494062 -0.41312382
0001d0 ba 51 61 be e3 b3 8f 3f 6f 1b 52 be 42 3b 1c bf
       -0.22003832 1.1226772 -0.20518278 -0.6102792
0001e0 1c a6 9e bf fc 9f d3 be de cd 63 be 5a f4 ab 3f
       -1.2394443 -0.41332996 -0.22246501 1.3433945
0001f0 96 bc 16 be 69 cd 2f bf 09 f6 9c bf d1 89 d2 be
       -0.14720377 -0.68672806 -1.2262584 -0.4112077
000200 27 4c 64 be af ee af 3f 35 3e 7f be be 95 35 bf
       -0.22294675 1.3744715 -0.24926074 -0.70931613
000210 85 6b 9b bf b7 37 d2 be 9d 47 66 be ac b2 b2 3f
       -1.2142187 -0.41058132 -0.22488256 1.3960776
000220 89 db 8c be 8e d0 49 bf 10 01 9a bf 49 87 d2 be
       -0.27511242 -0.78833854 -1.2031574 -0.4111884
000230 44 80 69 be cd 77 be 3f 16 6e a3 be f4 81 2c bf
       -0.22802836 1.488031 -0.31919926 -0.6738579
000240 fe 5d 98 bf 7d b3 d1 be 05 7c 6a be 35 c5 c8 3f
       -1.1903684 -0.4095725 -0.22898872 1.5685183
000250 77 44 d4 be 02 55 3a bf 00 d0 96 bf 93 80 d1 be
       -0.41458485 -0.7278596 -1.1782227 -0.40918407
000260 85 c4 6c be fa 41 d1 3f f6 0b dd be fd 40 52 bf
       -0.23121841 1.634826 -0.43173188 -0.82130414
000270 bb 4e 95 bf 16 af d1 be 3b da 6f be fd 7d d2 3f
       -1.1664652 -0.40953892 -0.23423092 1.6444699
000280 ef 3f ee be 33 83 5b bf 64 ea 93 bf 5b 3f d2 be
       -0.46533152 -0.8574707 -1.1555905 -0.4106396
000290 b0 a0 73 be 5c 6a d6 3f 46 45 9f be c5 f6 59 bf
       -0.23791766 1.6751208 -0.3110754 -0.85142165
0002a0 fd 47 92 bf 8c 5c d1 be c6 7e 74 be 9f f4 dd 3f
       -1.1428219 -0.4089092 -0.23876485 1.7340277
0002b0 e4 88 ae be 7c 0b 50 bf 89 92 90 bf 06 06 d0 be
       -0.34088814 -0.81267524 -1.1294719 -0.40629596
0002c0 07 71 74 be 5c f5 de 3f ff a5 a0 be 6f c9 5d bf
       -0.23871242 1.7418628 -0.31376645 -0.8663549
0002d0 8e ea 8e bf 42 c6 ce be f7 80 74 be 93 7f eb 3f
       -1.116533 -0.40385634 -0.23877321 1.8398308
0002e0 1b 4f a0 be 04 f9 4d bf 7d 0c 8d bf 7f 7e cc be
       -0.31310353 -0.8045809 -1.1019436 -0.3994026
0002f0 79 89 72 be 07 94 f3 3f 4f 4a 72 be 17 f4 54 bf
       -0.23685254 1.9029549 -0.23661159 -0.8318495
000300 12 0a 8b bf b1 7b c9 be ae 1e 6f be 03 3d eb 3f
       -1.0862448 -0.39352182 -0.23351547 1.8377994
000310 27 53 26 be 9c cf 4f bf 40 0f 89 bf fc 26 c6 be
       -0.16242658 -0.8117616 -1.0707779 -0.38701618
000320 8e e5 6a be c5 a0 f6 3f 94 5d 9e be 95 76 63 bf
       -0.2293913 1.9267813 -0.3093077 -0.88852817
000330 08 42 87 bf 49 d9 c3 be 54 bd 68 be 82 c6 f5 3f
       -1.0567026 -0.38251713 -0.22728473 1.9201205
000340 31 57 ae be 73 47 6f bf b3 9a 85 bf ed 10 c2 be
       -0.34050897 -0.934684 -1.0437835 -0.37903538
000350 b7 87 67 be 04 af 01 40 99 d8 89 be 77 1a 7d bf
       -0.22610365 2.026307 -0.26923063 -0.9886851
000360 94 c8 83 bf 78 91 bf be d8 f1 64 be 99 80 03 40
       -1.0295587 -0.3741567 -0.22357881 2.054724
000370 b4 22 bb be 0c 24 6f bf 23 05 82 bf 18 2c bd be
       -0.36549914 -0.9341438 -1.0157818 -0.36947703
000380 66 7b 62 be f6 e7 06 40 5c 05 95 be 1c f0 75 bf
       -0.22117385 2.1079078 -0.2910565 -0.960695
000390 75 25 80 bf 1d 2b ba be 73 c9 5e be 69 f6 07 40
       -1.0011431 -0.36361018 -0.21756534 2.1244147
0003a0 ea 38 33 be e5 22 77 bf 0c 4a 7c bf 0d 5e b6 be
       -0.1750218 -0.9653762 -0.98550487 -0.3561863
0003b0 61 71 59 be ae b4 10 40 aa 23 57 be bd cb 61 bf
       -0.21234657 2.2610278 -0.21009699 -0.88201505
0003c0 7c d8 77 bf fe 95 b1 be af 2b 52 be e6 d9 13 40
       -0.96814704 -0.34684747 -0.20524476 2.3101745
0003d0 85 80 81 be 3e 9a 67 bf df 80 73 bf b1 fa ac be
       -0.25293365 -0.9046973 -0.95118517 -0.33785012
0003e0 0c 34 4b be e2 76 10 40 d7 7c a0 be 7b cb 45 bf
       -0.19844073 2.257256 -0.31345245 -0.7726361
0003f0 7c 43 6f bf ba 3c a8 be be ce 43 be cd 1e 0f 40
       -0.9346235 -0.3285883 -0.19121835 2.236255

theta f4 [7001]
000000 cd cc 4c 3e cd cc 4c 3e a1 78 4c 3e a1 78 4c 3e
       0.2 0.2 0.19967891 0.19967891
000010 a1 78 4c 3e a1 78 4c 3e a1 78 4c 3e a1 78 4c 3e
       0.19967891 0.19967891 0.19967891 0.19967891
000020 a1 78 4c 3e 48 56 f1 3f 48 56 f1 3f 48 56 f1 3f
       0.19967891 1.8854456 1.8854456 1.8854456
000030 02 e9 35 3f 02 e9 35 3f 02 e9 35 3f 20 b7 09 40
       0.71058667 0.71058667 0.71058667 2.151802
000040 7e 49 a6 41 7e 49 a6 41 7e 49 a6 41 7e 49 a6 41
       20.785885 20.785885 20.785885 20.785885
000050 7e 49 a6 41 7e 49 a6 41 7e 49 a6 41 7e 49 a6 41
       20.785885 20.785885 20.785885 20.785885
000060 7e 49 a6 41 7e 49 a6 41 7e 49 a6 41 7e 49 a6 41
       20.785885 20.785885 20.785885 20.785885
000070 7e 49 a6 41 7e 49 a6 41 7e 49 a6 41 7e 49 a6 41
       20.785885 20.785885 20.785885 20.785885
000080 7e 49 a6 41 7e 49 a6 41 7e 49 a6 41 7e 49 a6 41
       20.785885 20.785885 20.785885 20.785885
000090 7e 49 a6 41 7e 49 a6 41 7e 49 a6 41 7e 49 a6 41
       20.785885 20.785885 20.785885 20.785885
0000a0 7e 49 a6 41 7e 49 a6 41 7e 49 a6 41 7e 49 a6 41
       20.785885 20.785885 20.785885 20.785885
0000b0 7e 49 a6 41 7e 49 a6 41 7e 49 a6 41 7e 49 a6 41
       20.785885 20.785885 20.785885 20.785885
0000c0 7e 49 a6 41 7e 49 a6 41 7e 49 a6 41 7e 49 a6 41
       20.785885 20.785885 20.785885 20.785885
0000d0 7e 49 a6 41 7e 49 a6 41 7e 49 a6 41 7e 49 a6 41
       20.785885 20.785885 20.785885 20.785885
0000e0 7e 49 a6 41 7e 49 a6 41 7e 49 a6 41 7e 49 a6 41
       20.785885 20.785885 20.785885 20.785885
0000f0 7e 49 a6 41 7e 49 a6 41 7e 49 a6 41 7e 49 a6 41
       20.785885 20.785885 20.785885 20.785885
000100 7e 49 a6 41 7e 49 a6 41 7e 49 a6 41 7e 49 a6 41
       20.785885 20.785885 20.785885 20.785885
000110 7e 49 a6 41 7e 49 a6 41 7e 49 a6 41 7e 49 a6 41
       20.785885 20.785885 20.785885 20.785885
000120 7e 49 a6 41 7e 49 a6 41 7e 49 a6 41 7e 49 a6 41
       20.785885 20.785885 20.785885 20.785885
000130 7e 49 a6 41 7e 49 a6 41 7e 49 a6 41 7e 49 a6 41
       20.785885 20.785885 20.785885 20.785885
000140 7e 49 a6 41 7e 49 a6 41 7e 49 a6 41 7e 49 a6 41
       20.785885 20.785885 20.785885 20.785885
000150 7e 49 a6 41 7e 49 a6 41 7e 49 a6 41 7e 49 a6 41
       20.785885 20.785885 20.785885 20.785885
000160 7e 49 a6 41 7e 49 a6 41 7e 49 a6 41 7e 49 a6 41
       20.785885 20.785885 20.785885 20.785885
000170 7e 49 a6 41 7e 49 a6 41 7e 49 a6 41 7e 49 a6 41
       20.785885 20.785885 20.785885 20.785885
000180 7e 49 a6 41 7e 49 a6 41 7e 49 a6 41 7e 49 a6 41
       20.785885 20.785885 20.785885 20.785885
000190 7e 49 a6 41 7e 49 a6 41 7e 49 a6 41 7e 49 a6 41
       20.785885 20.785885 20.785885 20.785885
0001a0 7e 49 a6 41 7e 49 a6 41 7e 49 a6 41 7e 49 a6 41
       20.785885 20.785885 20.785885 20.785885
0001b0 7e 49 a6 41 7e 49 a6 41 7e 49 a6 41 7e 49 a6 41
       20.785885 20.785885 20.785885 20.785885
0001c0 7e 49 a6 41 7e 49 a6 41 7e 49 a6 41 7e 49 a6 41
       20.785885 20.785885 20.785885 20.785885
0001d0 7e 49 a6 41 7e 49 a6 41 7e 49 a6 41 7e 49 a6 41
       20.785885 20.785885 20.785885 20.785885
0001e0 7e 49 a6 41 7e 49 a6 41 7e 49 a6 41 7e 49 a6 41
       20.785885 20.785885 20.785885 20.785885
0001f0 7e 49 a6 41 7e 49 a6 41 7e 49 a6 41 7e 49 a6 41
       20.785885 20.785885 20.785885 20.785885
000200 7e 49 a6 41 7e 49 a6 41 7e 49 a6 41 7e 49 a6 41
       20.785885 20.785885 20.785885 20.785885
000210 7e 49 a6 41 7e 49 a6 41 7e 49 a6 41 7e 49 a6 41
       20.785885 20.785885 20.785885 20.785885
000220 7e 49 a6 41 7e 49 a6 41 7e 49 a6 41 7e 49 a6 41
       20.785885 20.785885 20.785885 20.785885
000230 7e 49 a6 41 7e 49 a6 41 7e 49 a6 41 7e 49 a6 41
       20.785885 20.785885 20.785885 20.785885
000240 7e 49 a6 41 7e 49 a6 41 7e 49 a6 41 7e 49 a6 41
       20.785885 20.785885 20.785885 20.785885
000250 7e 49 a6 41 7e 49 a6 41 7e 49 a6 41 7e 49 a6 41
       20.785885 20.785885 20.785885 20.785885
000260 7e 49 a6 41 7e 49 a6 41 7e 49 a6 41 7e 49 a6 41
       20.785885 20.785885 20.785885 20.785885
000270 7e 49 a6 41 7e 49 a6 41 7e 49 a6 41 7e 49 a6 41
       20.785885 20.785885 20.785885 20.785885
000280 7e 49 a6 41 7e 49 a6 41 7e 49 a6 41 7e 49 a6 41
       20.785885 20.785885 20.785885 20.785885
000290 7e 49 a6 41 7e 49 a6 41 7e 49 a6 41 7e 49 a6 41
       20.785885 20.785885 20.785885 20.785885
0002a0 7e 49 a6 41 7e 49 a6 41 7e 49 a6 41 7e 49 a6 41
       20.785885 20.785885 20.785885 20.785885
0002b0 7e 49 a6 41 7e 49 a6 41 7e 49 a6 41 7e 49 a6 41
       20.785885 20.785885 20.785885 20.785885
0002c0 7e 49 a6 41 7e 49 a6 41 7e 49 a6 41 7e 49 a6 41
       20.785885 20.785885 20.785885 20.785885
0002d0 7e 49 a6 41 7e 49 a6 41 7e 49 a6 41 7e 49 a6 41
       20.785885 20.785885 20.785885 20.785885
0002e0 7e 49 a6 41 7e 49 a6 41 7e 49 a6 41 7e 49 a6 41
       20.785885 20.785885 20.785885 20.785885
0002f0 7e 49 a6 41 7e 49 a6 41 7e 49 a6 41 7e 49 a6 41
       20.785885 20.785885 20.785885 20.785885
000300 7e 49 a6 41 7e 49 a6 41 7e 49 a6 41 7e 49 a6 41
       20.785885 20.785885 20.785885 20.785885
000310 7e 49 a6 41 7e 49 a6 41 7e 49 a6 41 7e 49 a6 41
       20.785885 20.785885 20.785885 20.785885
000320 7e 49 a6 41 7e 49 a6 41 7e 49 a6 41 7e 49 a6 41
       20.785885 20.785885 20.785885 20.785885
000330 7e 49 a6 41 7e 49 a6 41 7e 49 a6 41 7e 49 a6 41
       20.785885 20.785885 20.785885 20.785885
000340 7e 49 a6 41 7e 49 a6 41 7e 49 a6 41 7e 49 a6 41
       20.785885 20.785885 20.785885 20.785885
000350 7e 49 a6 41 7e 49 a6 41 7e 49 a6 41 7e 49 a6 41
       20.785885 20.785885 20.785885 20.785885
000360 7e 49 a6 41 7e 49 a6 41 7e 49 a6 41 7e 49 a6 41
       20.785885 20.785885 20.785885 20.785885
000370 7e 49 a6 41 7e 49 a6 41 7e 49 a6 41 7e 49 a6 41
       20.785885 20.785885 20.785885 20.785885
000380 7e 49 a6 41 7e 49 a6 41 7e 49 a6 41 7e 49 a6 41
       20.785885 20.785885 20.785885 20.785885
000390 7e 49 a6 41 7e 49 a6 41 7e 49 a6 41 7e 49 a6 41
       20.785885 20.785885 20.785885 20.785885
0003a0 7e 49 a6 41 7e 49 a6 41 7e 49 a6 41 7e 49 a6 41
       20.785885 20.785885 20.785885 20.785885
0003b0 7e 49 a6 41 7e 49 a6 41 7e 49 a6 41 7e 49 a6 41
       20.785885 20.785885 20.785885 20.785885
0003c0 7e 49 a6 41 7e 49 a6 41 7e 49 a6 41 7e 49 a6 41
       20.785885 20.785885 20.785885 20.785885
0003d0 7e 49 a6 41 7e 49 a6 41 7e 49 a6 41 7e 49 a6 41
       20.785885 20.785885 20.785885 20.785885
0003e0 7e 49 a6 41 7e 49 a6 41 7e 49 a6 41 7e 49 a6 41
       20.785885 20.785885 20.785885 20.785885
0003f0 7e 49 a6 41 7e 49 a6 41 7e 49 a6 41 7e 49 a6 41
       20.785885 20.785885 20.785885 20.785885
