main/template_estimation/simple_models/ms_theta_iter_19600.npz (npz, 97320 bytes, 3 tensors)

Wt f4 [5, 101, 3]
0	0x00000000	0.0
1	0x00000000	0.0
2	0x00000000	0.0
3	0xbd59f52a	-0.053212322
4	0xbd859d55	-0.06524149
5	0x3e098c7f	0.13432501
6	0xbe343b75	-0.17600806
7	0x3dd930fb	0.106050454
8	0x3e8911d5	0.26771417
9	0xbe8a322c	-0.26991403
10	0x3e842daf	0.25816104
11	0x3ed00d30	0.4063506
12	0xbf0710a6	-0.5275978
13	0x3e85b16e	0.2611193
14	0x3f1882e4	0.59574723
15	0xbf6a14f0	-0.914382
16	0x3e884b90	0.2662015
17	0x3f821eed	1.0165688
18	0xbf8cbd31	-1.0995237
19	0x3e51c883	0.20486645
20	0x3fa13e60	1.259716
21	0xbfb54394	-1.4161248
22	0x3d75790c	0.059929892
23	0x3fbcb0ba	1.4741433
24	0xbfd44383	-1.6583103
25	0x3af19e00	0.0018433928
26	0x3fabf2ed	1.343351
27	0xbfe0c740	-1.7560806
28	0xbe089a27	-0.13340054
29	0x3fb11f75	1.3837725
30	0xbff2ed33	-1.8978637
31	0x3d332aa4	0.043741837
32	0x3fbc9266	1.4732177
33	0xc01263e5	-2.287347
34	0x3ea55582	0.322918
35	0x3fcefe00	1.6171265
36	0xc014dc3c	-2.325942
37	0x3ec405c2	0.38285643
38	0x3fe29300	1.7701111
39	0xc01c5120	-2.4424515
40	0x3f3207bc	0.6954305
41	0x3ff294cf	1.8951663
42	0xc0260dec	-2.5945997
43	0x3f149412	0.5803844
44	0x40083420	2.1281815
45	0xc030ddc9	-2.7635367
46	0x3eb21fe0	0.34789944
47	0x40115870	2.2710228
48	0xc03f7b4b	-2.9919002
49	0x3e545ea4	0.20739228
50	0x4015f31f	2.342964
51	0xc0454cc8	-3.0828114
52	0x3eb381d2	0.35059983
53	0x4010f625	2.2650235
54	0xc050e33b	-3.263869
55	0x3f1a2c40	0.6022377
56	0x400e4de3	2.2235038
57	0xc069d6d1	-3.6537364
58	0x3f36bf5f	0.7138576
59	0x401cfc72	2.452908
60	0xc070fedb	-3.7655551
61	0x3f44d4d7	0.7688727
62	0x4028136f	2.6261861
63	0xc080d2a4	-4.025713
64	0x3f4ba449	0.79547554
65	0x4029851d	2.6487496
66	0xc08b2ede	-4.349471
67	0x3f248211	0.64260966
68	0x402cca7a	2.6998582
69	0xc08eb71d	-4.4598527
70	0x3f4027ad	0.7506054
71	0x403084a2	2.7580953
72	0xc093862c	-4.6101284
73	0x3f7d7bbb	0.9901692
74	0x403a3ef2	2.9100919
75	0xc09bd09a	-4.869214
76	0x3fa3c6bd	1.2795025
77	0x403f861a	2.99256
78	0xc0a2ac5c	-5.08354
79	0x3fb8e049	1.4443446
80	0x4040f3a4	3.0148706
81	0xc0a3ef49	-5.1229596
82	0x3fd7371f	1.6813697
83	0x404c0934	3.1880617
84	0xc0a782a4	-5.2346973
85	0x3fcdfc39	1.6092597
86	0x40505918	3.2554379
87	0xc0a829a9	-5.2550855
88	0x3fe7ac85	1.8099524
89	0x404c5b26	3.1930633
90	0xc0a6eac7	-5.2161593
91	0x4011ff3d	2.2812035
92	0x4054ef2b	3.3270977
93	0xc0acc926	-5.3995543
94	0x401375cb	2.3040645
95	0x405e1925	3.4702847
96	0xc0b3d645	-5.619906
97	0x401c7b11	2.4450114
98	0x40632d60	3.5496445
99	0xc0b859b5	-5.7609506
100	0x40281739	2.6264174
101	0x40698206	3.648561
102	0xc0c3a4f6	-6.113887
103	0x40328a4a	2.7896905
104	0x406eafec	3.7294874
105	0xc0c2a452	-6.0825586
106	0x40351aaa	2.8297524
107	0x407ac9b7	3.9185617
108	0xc0c8f7de	-6.280257
109	0x40382727	2.8773897
110	0x4081d487	4.0571933
111	0xc0d11a16	-6.5344343
112	0x403ef1dc	2.983512
113	0x4083c482	4.117738
114	0xc0d65ebe	-6.699065
115	0x4048532f	3.1300771
116	0x4087a1ed	4.2385163
117	0xc0dcb4e5	-6.897082
118	0x404e3e57	3.222555
119	0x409483ea	4.641103
120	0xc0e1ce33	-7.056421
121	0x40536b99	3.3034422
122	0x4096f957	4.717937
123	0xc0e4127f	-7.127258
124	0x405b6f9c	3.428687
125	0x40932f32	4.599511
126	0xc0e61670	-7.190239
127	0x405e006c	3.4687757
128	0x409b91a7	4.86153
129	0xc0eb00bd	-7.34384
130	0x40601083	3.5010078
131	0x40a56e21	5.1696935
132	0xc0ef131e	-7.4710836
133	0x4062be8a	3.5428796
134	0x40ad923d	5.4241014
135	0xc0f29a2a	-7.581319
136	0x406d80a8	3.7109776
137	0x40b4ffa5	5.6562066
138	0xc0f71c8d	-7.722235
139	0x406b1719	3.6732848
140	0x40b4c0c3	5.6485305
141	0xc0ff410d	-7.976691
142	0x4071655f	3.7718122
143	0x40b97bb4	5.7963505
144	0xc100cdba	-8.050226
145	0x40729e2e	3.7909045
146	0x40bd60af	5.918052
147	0xc101b940	-8.107727
148	0x407edf2a	3.9823709
149	0x40c07704	6.0145283
150	0xc1066c63	-8.401462
151	0x4081fd13	4.062143
152	0x40c059a2	6.0109415
153	0xc1095c02	-8.584963
154	0x408798e0	4.2374115
155	0x40c48955	6.141764
156	0xc107d31e	-8.489042
157	0x408d7fd5	4.4218545
158	0x40c7890d	6.23548
159	0xc10a72db	-8.653041
160	0x4090c6a4	4.524248
161	0x40cc5938	6.385891
162	0xc10c4f58	-8.769371
163	0x40950706	4.6571074
164	0x40ce3b91	6.4447713
165	0xc10ee711	-8.931413
166	0x40982e5e	4.75566
167	0x40d14e66	6.54082
168	0xc11059c1	-9.021913
169	0x409ac6f5	4.8367867
170	0x40d7a817	6.739269
171	0xc112c844	-9.173893
172	0x4099f5dc	4.811262
173	0x40d990c0	6.7989197
174	0xc11309c5	-9.189885
175	0x409cc003	4.898439
176	0x40de6197	6.949413
177	0xc115eaaa	-9.369791
178	0x409e9c85	4.9566064
179	0x40dd8206	6.922122
180	0xc11675d9	-9.403771
181	0x40a0f5ca	5.0300035
182	0x40e08150	7.015785
183	0xc1175e36	-9.460501
184	0x40a231ac	5.0685635
185	0x40e632df	7.19371
186	0xc119a38a	-9.602427
187	0x40a717e5	5.221667
188	0x40e43093	7.1309295
189	0xc11b369d	-9.700833
190	0x40a94231	5.28933
191	0x40e8ccba	7.274991
192	0xc11c7ee6	-9.780981
193	0x40aa49f8	5.3215294
194	0x40e9d255	7.3069253
195	0xc11e1d63	-9.8821745
196	0x40a854af	5.2603374
197	0x40ec8f4e	7.3924932
198	0xc11f7330	-9.965622
199	0x40a9da6a	5.307912
200	0x40e887d4	7.2665806
201	0xc11ddcce	-9.866407
202	0x40a86bcb	5.2631583
203	0x40e645db	7.1960273
204	0xc11f4702	-9.954836
205	0x40acd903	5.4014907
206	0x40e47d2c	7.14028
207	0xc11ece45	-9.925359
208	0x40aa6e7e	5.325988
209	0x40ea27a1	7.3173375
210	0xc11f24d6	-9.946493
211	0x40ab7ebb	5.35922
212	0x40edd0a4	7.431719
213	0xc11fe326	-9.992956
214	0x40a9b697	5.303539
215	0x40ecb2e5	7.3968377
216	0xc11ed6f3	-9.927478
217	0x40aa7685	5.3269677
218	0x40f026f5	7.5047555
219	0xc11eeb88	-9.932503
220	0x40ab7872	5.358453
221	0x40ee12af	7.4397807
222	0xc1209457	-10.036216
223	0x40afd269	5.494435
224	0x40f08327	7.51601
225	0xc121d1e9	-10.113748
226	0x40afc68e	5.4929876
227	0x40f18600	7.5476074
228	0xc1226f6a	-10.152201
229	0x40b0c5da	5.524152
230	0x40f3ffb5	7.624964
231	0xc121e5af	-10.118575
232	0x40b239d5	5.5695596
233	0x40f65446	7.6977873
234	0xc1223ee5	-10.140355
235	0x40b204f2	5.5631037
236	0x40f9059d	7.781935
237	0xc121d74a	-10.115061
238	0x40b1cdaa	5.5563555
239	0x40f627b7	7.692348
240	0xc1213b6b	-10.077006
241	0x40b18bed	5.548331
242	0x40f96cba	7.7945223
243	0xc11ee74b	-9.931468
244	0x40b0eac4	5.528658
245	0x40f7c983	7.7433486
246	0xc11e2ade	-9.885466
247	0x40b05ca2	5.5113077
248	0x40fa2dcb	7.81809
249	0xc11fcb09	-9.987069
250	0x40b2b96e	5.5851355
251	0x40fa0462	7.813035
252	0xc1210e04	-10.065922
253	0x40b296bc	5.5809
254	0x40fb366a	7.8503923
255	0xc121a1c7	-10.101996

Xt f4 [5, 101, 6]
0	0xbfa2c70c	-1.2716994
1	0xbea69312	-0.3253408
2	0xbdea4874	-0.114396006
3	0x00000000	0.0
4	0x00000000	0.0
5	0x00000000	0.0
6	0xbfa2c70c	-1.2716994
7	0xbea69312	-0.3253408
8	0xbdea4874	-0.114396006
9	0x3e16975c	0.14706177
10	0xbd8df8c3	-0.06932213
11	0xbce3400c	-0.0277405
12	0xbfa28de0	-1.2699547
13	0xbea69976	-0.32538956
14	0xbdeb19b6	-0.11479513
15	0x3e7febdc	0.24992317
16	0xbb0993c0	-0.0020992607
17	0xbd5ddc5e	-0.054165237
18	0xbfa200cd	-1.2656494
19	0xbea58d56	-0.32334393
20	0xbde83952	-0.11339058
21	0x3ebb943a	0.36636525
22	0x3d4c5d65	0.049893755
23	0xbda6207e	-0.08111666
24	0xbfa11f46	-1.2587669
25	0xbea38553	-0.31937656
26	0xbde20b93	-0.11037364
27	0x3ec4b144	0.38416493
28	0x3c437853	0.011930543
29	0xbda6f653	-0.08152451
30	0xbfa0446c	-1.2520881
31	0xbea1c480	-0.3159523
32	0xbddd018e	-0.10791312
33	0x3ea99980	0.33124924
34	0xbcd41892	-0.025890622
35	0x3d51c424	0.051212445
36	0xbf9f7123	-1.2456402
37	0xbe9f7708	-0.311455
38	0xbdd5576a	-0.104170635
39	0x3ece93ff	0.40347287
40	0xbddc38de	-0.10753034
41	0x3d9955d0	0.074870706
42	0xbf9e8c95	-1.2386652
43	0xbe9d4bbf	-0.30721852
44	0xbdce7330	-0.10080564
45	0x3ecd4fcc	0.40099943
46	0xbe748c34	-0.23881608
47	0x3da7b22d	0.08188281
48	0xbf9ddd54	-1.2333169
49	0xbe9c5657	-0.30534622
50	0xbdcc40b1	-0.099732764
51	0x3ee5bbcd	0.44869843
52	0xbea2dbb6	-0.3180825
53	0xbddd45b4	-0.108043104
54	0xbf9d6e59	-1.22993
55	0xbe9d9350	-0.30776453
56	0xbdd320fc	-0.10309026
57	0x3f1540a7	0.58301777
58	0xbede719a	-0.43446046
59	0xbe427654	-0.18990451
60	0xbf9cf8af	-1.2263392
61	0xbe9fcb22	-0.31209666
62	0xbdde7c3d	-0.1086354
63	0x3f308145	0.6894725
64	0xbebbd56d	-0.36686268
65	0xbe72b1aa	-0.23700586
66	0xbf9c3c64	-1.220593
67	0xbea11f75	-0.31469312
68	0xbde6d02a	-0.11270173
69	0x3f26046f	0.64850515
70	0xbe78bd30	-0.2429092
71	0xbe828892	-0.2549482
72	0xbf9b71c7	-1.2144097
73	0xbea1b062	-0.31579882
74	0xbdebf4e7	-0.11521321
75	0x3f507599	0.8142944
76	0xbe7ed9dc	-0.24887794
77	0xbe8c1228	-0.27357602
78	0xbf9a53e1	-1.2056848
79	0xbea172ef	-0.31533
80	0xbdee8d88	-0.11648089
81	0x3f6d8105	0.92774993
82	0xbde4667e	-0.11152361
83	0xbe9e2ce4	-0.30893624
84	0xbf98d141	-1.1938859
85	0xbe9f9756	-0.31170148
86	0xbdeb359c	-0.114848346
87	0x3f81bb54	1.0135293
88	0xbe679258	-0.2261442
89	0xbe935684	-0.28776944
90	0xbf97494c	-1.1819243
91	0xbe9e076d	-0.3086504
92	0xbde93982	-0.11387922
93	0x3f8b618e	1.0889146
94	0xbed169dc	-0.40901077
95	0xbea1d754	-0.31609595
96	0xbf95ebee	-1.1712625
97	0xbe9dd117	-0.30823585
98	0xbdecbfd0	-0.11560023
99	0x3f90d962	1.131634
100	0xbf09027a	-0.53519404
101	0xbec162f2	-0.37770802
102	0xbf94c0e0	-1.1621361
103	0xbe9ee549	-0.31034306
104	0xbdf57742	-0.11985637
105	0x3fa0ccfc	1.2562556
106	0xbefc9549	-0.49332646
107	0xbf04d6f0	-0.5189047
108	0xbf937634	-1.1520448
109	0xbe9ffbfe	-0.31246942
110	0xbdfeb61b	-0.124370776
111	0x3fa945b3	1.3224396
112	0xbec5f4ab	-0.3866323
113	0xbf22ca23	-0.63589686
114	0xbf920d56	-1.141032
115	0xbea0aaa4	-0.31380188
116	0xbe034aca	-0.12821499
117	0x3fa1b240	1.2632523
118	0xbeb83d5a	-0.35984308
119	0xbf18c8ef	-0.596816
120	0xbf90b63f	-1.1305617
121	0xbea11297	-0.31459495
122	0xbe067e22	-0.13134053
123	0x3faf2e66	1.3686035
124	0xbebc1f1f	-0.36742494
125	0xbf17b96b	-0.592673
126	0xbf8f31da	-1.1187088
127	0xbea0d250	-0.31410456
128	0xbe087fc8	-0.13329995
129	0x3fb0f1a7	1.3823746
130	0xbec96668	-0.39335942
131	0xbf2d014c	-0.67580104
132	0xbf8dd309	-1.1080028
133	0xbea149dd	-0.31501666
134	0xbe0be8b4	-0.13662988
135	0x3fae3157	1.3608807
136	0xbf04fa01	-0.51943976
137	0xbf3cf603	-0.73812884
138	0xbf8cca62	-1.0999262
139	0xbea34a32	-0.31892544
140	0xbe124356	-0.14283499
141	0x3fbbf878	1.4685202
142	0xbefa52d7	-0.48891327
143	0xbf49b19a	-0.78786623
144	0xbf8b98ad	-1.0905968
145	0xbea4b77f	-0.32171246
146	0xbe179875	-0.14804251
147	0x3fc5e283	1.5459751
148	0xbec3da9e	-0.3825273
149	0xbf48608b	-0.7827231
150	0xbf8a20f3	-1.0791305
151	0xbea4bdce	-0.3217606
152	0xbe1a319d	-0.15057988
153	0x3fc6bc54	1.5526223
154	0xbe80a0ce	-0.25122684
155	0xbf528912	-0.822404
156	0xbf888be1	-1.0667688
157	0xbea3f30c	-0.32021368
158	0xbe1b2040	-0.15149021
159	0x3fca7e1c	1.5819736
160	0xbe46248f	-0.19349883
161	0xbf669d4b	-0.9008376
162	0xbf86f5d4	-1.0543771
163	0xbea3144a	-0.31851417
164	0xbe1be4c1	-0.15223981
165	0x3fdada53	1.7097877
166	0xbdbe00a2	-0.092774644
167	0xbf643743	-0.8914682
168	0xbf850509	-1.0392162
169	0xbea09cdb	-0.3136967
170	0xbe1996ba	-0.14998904
171	0x3fe44c5d	1.7835804
172	0xbe33a964	-0.17545086
173	0xbf72cbd2	-0.94842255
174	0xbf832bc1	-1.0247728
175	0xbe9eb646	-0.3099844
176	0xbe186c60	-0.14885092
177	0x3ff41623	1.9069256
178	0xbdc78e42	-0.097439304
179	0xbf897946	-1.0740135
180	0xbf812fb2	-1.009268
181	0xbe9c67f0	-0.30548048
182	0xbe168ef3	-0.14702968
183	0x40036bd6	2.0534568
184	0x3e0e17bc	0.13876241
185	0xbf8ad98b	-1.0847639
186	0xbf7d577f	-0.98961633
187	0xbe97a253	-0.2961603
188	0xbe0fe4df	-0.14052151
189	0x40035463	2.0520256
190	0x3ddf05a9	0.108897515
191	0xbf8cedd4	-1.1010079
192	0xbf788992	-0.97084916
193	0xbe932ec3	-0.28746614
194	0xbe09c182	-0.13452724
195	0x4001d0ff	2.028381
196	0x3e178906	0.14798364
197	0xbf935e68	-1.1513186
198	0xbf73ed55	-0.95284015
199	0xbe8eecb7	-0.27914974
200	0xbe03e26d	-0.12879343
201	0x400332c7	2.0499742
202	0x3e5885fe	0.21144864
203	0xbf984010	-1.189455
204	0xbf6f41ea	-0.9345995
205	0xbe8a5e39	-0.2702501
206	0xbdfab5d9	-0.12241716
207	0x3ff8db23	1.9441875
208	0x3e8706dc	0.2637242
209	0xbf9e99ea	-1.2390721
210	0xbf6b041f	-0.91803163
211	0xbe865ca1	-0.26242545
212	0xbdef72df	-0.11691832
213	0x40044053	2.066426
214	0x3e7c2a7b	0.2462558
215	0xbf9ce61b	-1.2257723
216	0xbf667909	-0.90028435
217	0xbe81bcb6	-0.25339288
218	0xbde1c9a7	-0.1102479
219	0x4002dba7	2.0446565
220	0x3e6c677a	0.23086348
221	0xbf9eea06	-1.2415168
222	0xbf622bb1	-0.8834792
223	0xbe7ae201	-0.24500276
224	0xbdd5361b	-0.104107104
225	0x3ffecd7e	1.9906461
226	0x3e7fdd35	0.24986728
227	0xbfa67283	-1.3003696
228	0xbf5e3840	-0.8680458
229	0xbe736210	-0.23767877
230	0xbdca8e02	-0.09890367
231	0x3ffee0d9	1.9912368
232	0x3e96c2ae	0.29445404
233	0xbfa93dd8	-1.3221998
234	0xbf5a4972	-0.8526832
235	0xbe6b9b74	-0.2300852
236	0xbdbf32e8	-0.093358815
237	0x3ffc21dd	1.9697834
238	0x3e9d188a	0.30682784
239	0xbf975722	-1.1823466
240	0xbf5625c2	-0.83651364
241	0xbe623675	-0.22091086
242	0xbdb060d1	-0.08612216
243	0x3ffc16ad	1.969442
244	0x3e9bc200	0.30421448
245	0xbf9e6c61	-1.2376825
246	0xbf5239ec	-0.8211963
247	0xbe59984b	-0.21249501
248	0xbda2f99e	-0.07957767
249	0x40013fd9	2.019522
250	0x3ea85de3	0.3288413
251	0xbfb3a681	-1.4035188
252	0xbf4e8d58	-0.80684423
253	0xbe523800	-0.20529175
254	0xbd9809f6	-0.07423775
255	0x400465a4	2.0687037

theta f4 [19601]
0	0x3e4ccccd	0.2
1	0x3e4ccccd	0.2
2	0x3e4c78a1	0.19967891
3	0x3e4c78a1	0.19967891
4	0x3e4c78a1	0.19967891
5	0x3e4c78a1	0.19967891
6	0x3e4c78a1	0.19967891
7	0x3e4c78a1	0.19967891
8	0x3e4c78a1	0.19967891
9	0x3ff15648	1.8854456
10	0x3ff15648	1.8854456
11	0x3ff15648	1.8854456
12	0x3f35e902	0.71058667
13	0x3f35e902	0.71058667
14	0x3f35e902	0.71058667
15	0x4009b720	2.151802
16	0x41a6497e	20.785885
17	0x41a6497e	20.785885
18	0x41a6497e	20.785885
19	0x41a6497e	20.785885
20	0x41a6497e	20.785885
21	0x41a6497e	20.785885
22	0x41a6497e	20.785885
23	0x41a6497e	20.785885
24	0x41a6497e	20.785885
25	0x41a6497e	20.785885
26	0x41a6497e	20.785885
27	0x41a6497e	20.785885
28	0x41a6497e	20.785885
29	0x41a6497e	20.785885
30	0x41a6497e	20.785885
31	0x41a6497e	20.785885
32	0x41a6497e	20.785885
33	0x41a6497e	20.785885
34	0x41a6497e	20.785885
35	0x41a6497e	20.785885
36	0x41a6497e	20.785885
37	0x41a6497e	20.785885
38	0x41a6497e	20.785885
39	0x41a6497e	20.785885
40	0x41a6497e	20.785885
41	0x41a6497e	20.785885
42	0x41a6497e	20.785885
43	0x41a6497e	20.785885
44	0x41a6497e	20.785885
45	0x41a6497e	20.785885
46	0x41a6497e	20.785885
47	0x41a6497e	20.785885
48	0x41a6497e	20.785885
49	0x41a6497e	20.785885
50	0x41a6497e	20.785885
51	0x41a6497e	20.785885
52	0x41a6497e	20.785885
53	0x41a6497e	20.785885
54	0x41a6497e	20.785885
55	0x41a6497e	20.785885
56	0x41a6497e	20.785885
57	0x41a6497e	20.785885
58	0x41a6497e	20.785885
59	0x41a6497e	20.785885
60	0x41a6497e	20.785885
61	0x41a6497e	20.785885
62	0x41a6497e	20.785885
63	0x41a6497e	20.785885
64	0x41a6497e	20.785885
65	0x41a6497e	20.785885
66	0x41a6497e	20.785885
67	0x41a6497e	20.785885
68	0x41a6497e	20.785885
69	0x41a6497e	20.785885
70	0x41a6497e	20.785885
71	0x41a6497e	20.785885
72	0x41a6497e	20.785885
73	0x41a6497e	20.785885
74	0x41a6497e	20.785885
75	0x41a6497e	20.785885
76	0x41a6497e	20.785885
77	0x41a6497e	20.785885
78	0x41a6497e	20.785885
79	0x41a6497e	20.785885
80	0x41a6497e	20.785885
81	0x41a6497e	20.785885
82	0x41a6497e	20.785885
83	0x41a6497e	20.785885
84	0x41a6497e	20.785885
85	0x41a6497e	20.785885
86	0x41a6497e	20.785885
87	0x41a6497e	20.785885
88	0x41a6497e	20.785885
89	0x41a6497e	20.785885
90	0x41a6497e	20.785885
91	0x41a6497e	20.785885
92	0x41a6497e	20.785885
93	0x41a6497e	20.785885
94	0x41a6497e	20.785885
95	0x41a6497e	20.785885
96	0x41a6497e	20.785885
97	0x41a6497e	20.785885
98	0x41a6497e	20.785885
99	0x41a6497e	20.785885
100	0x41a6497e	20.785885
101	0x41a6497e	20.785885
102	0x41a6497e	20.785885
103	0x41a6497e	20.785885
104	0x41a6497e	20.785885
105	0x41a6497e	20.785885
106	0x41a6497e	20.785885
107	0x41a6497e	20.785885
108	0x41a6497e	20.785885
109	0x41a6497e	20.785885
110	0x41a6497e	20.785885
111	0x41a6497e	20.785885
112	0x41a6497e	20.785885
113	0x41a6497e	20.785885
114	0x41a6497e	20.785885
115	0x41a6497e	20.785885
116	0x41a6497e	20.785885
117	0x41a6497e	20.785885
118	0x41a6497e	20.785885
119	0x41a6497e	20.785885
120	0x41a6497e	20.785885
121	0x41a6497e	20.785885
122	0x41a6497e	20.785885
123	0x41a6497e	20.785885
124	0x41a6497e	20.785885
125	0x41a6497e	20.785885
126	0x41a6497e	20.785885
127	0x41a6497e	20.785885
128	0x41a6497e	20.785885
129	0x41a6497e	20.785885
130	0x41a6497e	20.785885
131	0x41a6497e	20.785885
132	0x41a6497e	20.785885
133	0x41a6497e	20.785885
134	0x41a6497e	20.785885
135	0x41a6497e	20.785885
136	0x41a6497e	20.785885
137	0x41a6497e	20.785885
138	0x41a6497e	20.785885
139	0x41a6497e	20.785885
140	0x41a6497e	20.785885
141	0x41a6497e	20.785885
142	0x41a6497e	20.785885
143	0x41a6497e	20.785885
144	0x41a6497e	20.785885
145	0x41a6497e	20.785885
146	0x41a6497e	20.785885
147	0x41a6497e	20.785885
148	0x41a6497e	20.785885
149	0x41a6497e	20.785885
150	0x41a6497e	20.785885
151	0x41a6497e	20.785885
152	0x41a6497e	20.785885
153	0x41a6497e	20.785885
154	0x41a6497e	20.785885
155	0x41a6497e	20.785885
156	0x41a6497e	20.785885
157	0x41a6497e	20.785885
158	0x41a6497e	20.785885
159	0x41a6497e	20.785885
160	0x41a6497e	20.785885
161	0x41a6497e	20.785885
162	0x41a6497e	20.785885
163	0x41a6497e	20.785885
164	0x41a6497e	20.785885
165	0x41a6497e	20.785885
166	0x41a6497e	20.785885
167	0x41a6497e	20.785885
168	0x41a6497e	20.785885
169	0x41a6497e	20.785885
170	0x41a6497e	20.785885
171	0x41a6497e	20.785885
172	0x41a6497e	20.785885
173	0x41a6497e	20.785885
174	0x41a6497e	20.785885
175	0x41a6497e	20.785885
176	0x41a6497e	20.785885
177	0x41a6497e	20.785885
178	0x41a6497e	20.785885
179	0x41a6497e	20.785885
180	0x41a6497e	20.785885
181	0x41a6497e	20.785885
182	0x41a6497e	20.785885
183	0x41a6497e	20.785885
184	0x41a6497e	20.785885
185	0x41a6497e	20.785885
186	0x41a6497e	20.785885
187	0x41a6497e	20.785885
188	0x41a6497e	20.785885
189	0x41a6497e	20.785885
190	0x41a6497e	20.785885
191	0x41a6497e	20.785885
192	0x41a6497e	20.785885
193	0x41a6497e	20.785885
194	0x41a6497e	20.785885
195	0x41a6497e	20.785885
196	0x41a6497e	20.785885
197	0x41a6497e	20.785885
198	0x41a6497e	20.785885
199	0x41a6497e	20.785885
200	0x41a6497e	20.785885
201	0x41a6497e	20.785885
202	0x41a6497e	20.785885
203	0x41a6497e	20.785885
204	0x41a6497e	20.785885
205	0x41a6497e	20.785885
206	0x41a6497e	20.785885
207	0x41a6497e	20.785885
208	0x41a6497e	20.785885
209	0x41a6497e	20.785885
210	0x41a6497e	20.785885
211	0x41a6497e	20.785885
212	0x41a6497e	20.785885
213	0x41a6497e	20.785885
214	0x41a6497e	20.785885
215	0x41a6497e	20.785885
216	0x41a6497e	20.785885
217	0x41a6497e	20.785885
218	0x41a6497e	20.785885
219	0x41a6497e	20.785885
220	0x41a6497e	20.785885
221	0x41a6497e	20.785885
222	0x41a6497e	20.785885
223	0x41a6497e	20.785885
224	0x41a6497e	20.785885
225	0x41a6497e	20.785885
226	0x41a6497e	20.785885
227	0x41a6497e	20.785885
228	0x41a6497e	20.785885
229	0x41a6497e	20.785885
230	0x41a6497e	20.785885
231	0x41a6497e	20.785885
232	0x41a6497e	20.785885
233	0x41a6497e	20.785885
234	0x41a6497e	20.785885
235	0x41a6497e	20.785885
236	0x41a6497e	20.785885
237	0x41a6497e	20.785885
238	0x41a6497e	20.785885
239	0x41a6497e	20.785885
240	0x41a6497e	20.785885
241	0x41a6497e	20.785885
242	0x41a6497e	20.785885
243	0x41a6497e	20.785885
244	0x41a6497e	20.785885
245	0x41a6497e	20.785885
246	0x41a6497e	20.785885
247	0x41a6497e	20.785885
248	0x41a6497e	20.785885
249	0x41a6497e	20.785885
250	0x41a6497e	20.785885
251	0x41a6497e	20.785885
252	0x41a6497e	20.785885
253	0x41a6497e	20.785885
254	0x41a6497e	20.785885
255	0x41a6497e	20.785885
