main/template_estimation/simple_models/ms_theta_iter_1850.npz (npz, 26320 bytes, 3 tensors)

Wt f4 [5, 101, 3]
00000000: 0000 0000 0000 0000 0000 0000 7ab6 d8bd
00000010: 40c9 a4ba 79db 1f3e 5870 01bd f3be 21bd
00000020: 5349 5c3e bf30 36be ec37 243e a848 fa3c
00000030: 6a6c e0bd 1233 a83e f89b 62bd efd6 c8bd
00000040: 1cf9 433e 44c1 f2bd b025 58bc 6df6 e93e
00000050: 438c 38be 1be8 0dbe 8c3b ba3e 10b1 98be
00000060: b414 d2be 59f3 503e 7f8f 11be 9684 ddbe
00000070: cde2 023f 50f9 0ebe 6dc5 e7be 705f 1c3f
00000080: 4856 c63c 28c0 eabe e8cd 7b3f c50c 01be
00000090: c748 cfbe 6aee 983f a46f 15be eac6 febe
000000a0: 19ef a83f 3e57 b0be 50eb ffbe 3116 b03f
000000b0: ba2a f4be 1301 27bf 235f ac3f e58b e6be
000000c0: 3c48 21bf dab2 ac3f a29c babe 1f62 48bf
000000d0: c1f4 b73f 364c b7be 9661 5abf c679 bb3f
000000e0: 88ca 96be 99a2 5abf cd67 b83f 2aa6 acbe
000000f0: 1e72 7dbf c2af bd3f a1b0 edbe 52c8 7cbf
00000100: 391d a03f 56be 56bf 49f4 6fbf d725 b73f
00000110: 921a 4fbf 8853 88bf 4010 b93f 7137 06bf
00000120: 0b20 9cbf f6b4 af3f db9a d1be 514b aebf
00000130: 92da c03f 5540 c6be d018 bfbf 5a6c b83f
00000140: a9ca edbe e382 d6bf e68c a73f c837 90be
00000150: 73ef e0bf 72c4 aa3f 754a 01be 3c6e e0bf
00000160: 46a8 ca3f 322a d8bd d9bd ddbf cfd6 c63f
00000170: e32e 7ebe 487a eabf 37ee cd3f 58c0 01bc
00000180: 70ad 04c0 7903 b73f 5072 1f3d 6d93 05c0
00000190: 1225 bd3f 80d8 a03a 3314 06c0 8999 b93f
000001a0: 2c88 7e3d 197e 0fc0 54bd b73f 00f3 2aba
000001b0: aa27 15c0 bb46 ac3f 889a 65bd 0413 15c0
000001c0: 75e7 a73f 2325 343e 7d43 0cc0 51fa a43f
000001d0: 9433 f43e 5d4b 0cc0 c461 ad3f 2a99 223f
000001e0: b5a9 1ac0 3c89 aa3f 9c55 113f fa6d 17c0
000001f0: 90fc a33f 49c8 393f bb2d 1ac0 4282 a83f
00000200: dccf 373f 318d 19c0 0ad0 ac3f 42f9 493f
00000210: 401f 22c0 53bc a63f 4fc2 6c3f ff2f 24c0
00000220: 3555 a33f b85b 3e3f b874 2cc0 4cd9 9f3f
00000230: d261 503f f317 2ac0 b47b aa3f 74eb 4c3f
00000240: d983 33c0 806b 8a3f 9e24 453f ebcb 2cc0
00000250: 09de 863f 84a5 833f 18c4 3ac0 303e 783f
00000260: a2b1 923f 939a 38c0 d298 513f a2fb 873f
00000270: 6073 3ec0 3c5b 283f 1e36 973f 5f62 41c0
00000280: 9464 303f 6c0a a13f b219 48c0 e463 2c3f
00000290: 98ef a53f 8ec5 4cc0 5ef6 433f a23f 9c3f
000002a0: 4259 50c0 dd15 563f 3c1f 943f 27d4 53c0
000002b0: 4b66 563f c134 913f 5eee 59c0 aab0 4f3f
000002c0: 3ef0 9c3f 638e 5bc0 07d1 403f b559 a83f
000002d0: ed61 5cc0 d4c3 473f 4ec8 a93f 151b 5bc0
000002e0: 9c84 343f a1fe a33f ead5 5ec0 580c 203f
000002f0: dc59 a93f b338 63c0 9454 083f 565a a23f
00000300: 0a93 63c0 0ebc 9b3e 1aba b63f 335c 5fc0
00000310: 3432 bc3e e11f c43f b5e9 60c0 0885 cc3e
00000320: 007c c23f ebf4 5dc0 3628 0d3f 7013 c13f
00000330: 7b60 5ec0 24a3 fa3e 933d bd3f e525 64c0
00000340: 5485 1d3f 440c c93f c7bb 61c0 c4d2 163f
00000350: d15b c63f f022 5fc0 1bf7 343f 26e1 ca3f
00000360: c7e4 60c0 7793 253f 9e88 c63f 9f11 6cc0
00000370: 3de6 163f 17b2 c83f 6c8f 6ac0 872c 1a3f
00000380: 4ef8 c53f 4821 71c0 e667 193f f999 d03f
00000390: da7c 71c0 cbe4 223f d0e5 d43f 78f5 6fc0
000003a0: 6e10 1e3f 0f13 ce3f 024a 73c0 b8b2 2a3f
000003b0: 4e17 ce3f 99ab 70c0 e4d8 123f d3c2 da3f
000003c0: 6a4d 72c0 b2a9 113f 8ea6 db3f efe7 6dc0
000003d0: 40e2 1a3f 25b6 d93f 88ce 66c0 673f 233f
000003e0: 4d04 e03f 4333 62c0 8461 253f 795e dc3f
000003f0: 3850 61c0 8a3a 303f c6cc d63f 186f 5cc0
0.0 0.0 0.0 -0.1058168 -0.0012572184 0.15611066 -0.03160128 -0.039488744
0.21512346 -0.17792033 0.16036958 0.030552223 -0.10958178 0.32851464 -0.055324525 -0.0980662
0.19137996 -0.11853269 -0.013192579 0.4569582 -0.18022256 -0.13858072 0.36373556 -0.29822588
-0.4103142 0.2040533 -0.14214896 -0.43265218 0.5112732 -0.13962293 -0.4526781 0.61083126
0.024211064 -0.4584973 0.98361063 -0.12602527 -0.40485212 1.1947758 -0.14593369 -0.49761134
1.3197967 -0.3444156 -0.49984217 1.3756772 -0.47688848 -0.65236014 1.3466533 -0.45028606
-0.63000846 1.3492081 -0.36447626 -0.7827472 1.4371568 -0.35800332 -0.85305154 1.4646537
-0.29451394 -0.85404354 1.4406677 -0.33720523 -0.99002254 1.4819262 -0.4642382 -0.98743165
1.2508918 -0.8388418 -0.93732125 1.4308423 -0.8089992 -1.0650492 1.4458084 -0.52428347
-1.2197279 1.37271 -0.40938458 -1.3616735 1.5066702 -0.38720956 -1.4929447 1.4408066
-0.4644368 -1.6758693 1.3089874 -0.28167558 -1.7573074 1.33412 -0.1262606 -1.7533641
1.5832603 -0.10554923 -1.7323562 1.5534304 -0.24822573 -1.8318567 1.6088322 -0.0079193935
-2.0730858 1.4297935 0.038927376 -2.0871232 1.4776938 0.0012271553 -2.0949829 1.449998
0.062141582 -2.2420714 1.4354653 -0.0006521195 -2.330546 1.3459085 -0.056055576 -2.3292856
1.311751 0.17592292 -2.1916192 1.288889 0.476956 -2.1920998 1.3545461 0.6351496
-2.416608 1.3323131 0.56771255 -2.3660874 1.2811451 0.72571236 -2.4090412 1.3164752
0.71801543 -2.3992426 1.3500988 0.7889596 -2.5331573 1.3026222 0.9248399 -2.5654294
1.2760378 0.743587 -2.694624 1.2488189 0.8139926 -2.6577117 1.3319001 0.8004677
-2.8049223 1.0814056 0.77009 -2.6999462 1.053651 1.0284886 -2.9182186 0.9696989
1.1460459 -2.8844345 0.8187381 1.0623667 -2.975792 0.6576421 1.181339 -3.021629
0.6890347 1.2581306 -3.1265683 0.6733992 1.2963743 -3.1995578 0.765478 1.2206919
-3.2554479 0.8362711 1.1572032 -3.3098238 0.83749837 1.1344224 -3.4051738 0.8112894
1.2260816 -3.4305656 0.7531895 1.3152376 -3.443477 0.78033185 1.3264253 -3.423528
0.70514846 1.2812082 -3.4818063 0.62518835 1.3230548 -3.5503356 0.53254056 1.2683818
-3.5558496 0.30416912 1.4275544 -3.4900024 0.36757052 1.5322229 -3.5142643 0.39945245
1.5194092 -3.4680736 0.5513948 1.5084057 -3.4746387 0.4895259 1.4784416 -3.564813
0.6153157 1.5706868 -3.527086 0.5891535 1.549677 -3.4865074 0.70689553 1.584996
-3.5139635 0.6467814 1.5510442 -3.6885755 0.58945066 1.5679349 -3.6650038 0.60224193
1.5466402 -3.7676563 0.5992416 1.6296989 -3.7732453 0.6363036 1.6632633 -3.7493572
0.6174382 1.6099566 -3.801392 0.66678953 1.6100862 -3.7604735 0.573622 1.7090706
-3.785975 0.5689956 1.7160203 -3.717281 0.6050148 1.7008711 -3.6063557 0.6376862
1.7501312 -3.5343788 0.6460192 1.7216331 -3.5205212 0.68839324 1.6781242 -3.4442806

Xt f4 [5, 101, 6]
00000000: 7dba 1cbe 203d 233e f78a 643e 0000 0000
00000010: 0000 0000 0000 0000 7dba 1cbe 203d 233e
00000020: f78a 643e d24b 97bc 9a55 05be 9abb 143e
00000030: 4b38 1dbe 633e 233e 1eae 643e da71 8f3d
00000040: 9eab 8ebe 9766 693e be00 1dbe 0d18 233e
00000050: 078b 643e 34f2 e13c 8691 92be 248b 2c3e
00000060: 5663 1ebe d713 213e 6b9d 623e 344c e53d
00000070: f49e 9dbe cf0a 2b3e 5269 1ebe e9bd 1f3e
00000080: ec30 613e 9202 223e 1039 01bf 68be 353e
00000090: 8900 20be ae6a 1b3e 09bf 5c3e 44db 7c3e
000000a0: 15cf ebbe a898 443e f42b 1fbe d56c 193e
000000b0: 9470 5a3e 2af3 533e b4db 1fbf 0250 2d3e
000000c0: e07f 21be 746e 133e 0843 543e 32af b23d
000000d0: 39cc 50bf cd84 9d3e ca0f 27be 89f2 0a3e
000000e0: caf0 4b3e 52f4 f53d 8074 39bf 5282 b33e
000000f0: 3c5c 2abe a575 053e b988 463e 4eb0 193e
00000100: a55d 41bf 4af0 f43e 071d 2cbe 6829 023e
00000110: 074e 433e 14b0 3e3e 94ec 20bf ecdd d43e
00000120: 4e44 2cbe ef8b 003e 5aa1 413e 30e2 803e
00000130: e3f1 18bf 4d0c da3e 7dc0 2abe 4b85 003e
00000140: 4a69 413e 0aa8 683e 2418 1ebf 6dcb a83e
00000150: 72f6 2abe c755 fc3d 88e4 3e3e 7b7f 833e
00000160: 63da 2bbf a972 8c3e 0aeb 2bbe 93a8 f43d
00000170: 99d5 3a3e ec25 4b3e 6cd7 44bf 095b a03e
00000180: c2b3 2ebe 9b9d e93d 393e 353e e066 7b3e
00000190: cb3d 57bf 847b c43e a4d3 30be 11cf df3d
000001a0: 2439 303e e4ae 413e 8382 5cbf d336 cf3e
000001b0: a7f1 33be 26c8 d43d 54b5 2a3e 00f4 3b3e
000001c0: 8967 69bf 27ac e83e f13d 37be a8ba c93d
000001d0: c037 253e 1702 603e c809 7dbf 08ad e03e
000001e0: a507 3bbe 75a5 bc3d 9daa 1e3e 9e27 333e
000001f0: 16f4 82bf dc96 c03e e893 40be a992 ab3d
00000200: 8330 163e d936 5b3e 1a85 9abf 6479 303e
00000210: c4bd 49be 9c4d 8f3d e90a 083e bc2e 903e
00000220: 54e2 91bf ceb7 603e 8290 50be f953 713d
00000230: 0530 f93d 4ad0 753e b8c8 95bf bb6c d03e
00000240: 8980 56be c374 4c3d e7be e63d fa10 3d3e
00000250: 5716 a0bf 28d5 f73e b171 5dbe 663e 253d
00000260: d664 d33d c895 103e 5c51 9abf 98bc 003f
00000270: 0f4b 64be 3c74 003d 5a61 c13d 2f8c d83d
00000280: 4613 a3bf 6ffe ea3e 4cda 6cbe b5a6 a73c
00000290: 2092 ab3d 86ca 343d ecb0 afbf 6a7b 113f
000002a0: a44e 76be 0723 163c ac38 953d c3ab 433d
000002b0: 2ff0 afbf e8c9 273f 6cc9 7ebe 73db 42ba
000002c0: 71c2 813d b36b d03d d3bd 9fbf 984a 283f
000002d0: b27a 82be aed7 04bc e28e 663d 594f 243e
000002e0: 7a02 a5bf 844a 0f3f 9ccf 85be 654a 88bc
000002f0: bb6a 443d e22e 163e 0382 a3bf 92e2 303f
00000300: 2885 88be 3a85 bebc 184a 2a3d 18c3 583d
00000310: a2b4 b3bf 6812 333f 7f7e 8cbe 7692 04bd
00000320: 3ea4 063d d4ec ce3d f2c4 b1bf 38e7 283f
00000330: 6a32 90be 4392 28bd faf1 c73c eab0 193e
00000340: ab76 b5bf 71c8 2d3f 0a98 93be 867c 4abd
00000350: 364b 863c b6a2 ef3d 823d b8bf 0846 203f
00000360: e985 97be bd23 71bd beea ed3b 3e81 f93d
00000370: ddd9 bfbf de89 143f 41e3 9bbe 8e35 8ebd
00000380: d8fa 44bb 1adc 383e a2ab c2bf bd88 343f
00000390: 2363 9fbe d7b8 9fbd f635 39bc 90c7 a13e
000003a0: 4e47 c5bf e9c7 5c3f 9d68 a1be 16d6 aabd
000003b0: 3b27 88bc a1d0 b93e 83a9 c2bf c9dc 6d3f
000003c0: f1b9 a2be 54b0 b2bd 9a12 a7bc 66f3 8d3e
000003d0: b332 c7bf 4e27 5c3f a504 a5be 7598 bebd
000003e0: 0c5d d5bc ba40 b83e e8c9 ccbf f26e 6c3f
000003f0: ddba a6be 313e c8bd cf49 fbbc 88a1 c43e
-0.15305515 0.15941286 0.22318636 0.0 0.0 0.0 -0.15305515 0.15941286
0.22318636 -0.018468771 -0.13020936 0.1452469 -0.15353505 0.15941767 0.22332045 0.07004137
-0.2786531 0.22793041 -0.15332314 0.15927143 0.2231866 0.027581312 -0.2862665 0.16849953
-0.15467581 0.15730225 0.22130363 0.11196175 -0.30785334 0.16703342 -0.15469864 0.15599789
0.21991318 0.15821293 -0.50477695 0.17748415 -0.15625204 0.15177414 0.21557249 0.24693018
-0.4605643 0.19198859 -0.1554411 0.14982922 0.21332008 0.20698228 -0.62444615 0.16925052
-0.15771437 0.14397603 0.20728695 0.08724822 -0.8156162 0.3076538 -0.16314617 0.13569082
0.19916072 0.12009491 -0.7244339 0.35060364 -0.16636747 0.13033159 0.19388093 0.15008661
-0.75533515 0.47839576 -0.16807948 0.12711108 0.19072734 0.18621856 -0.6286099 0.41575563
-0.16822931 0.1255338 0.18909207 0.25172567 -0.5974409 0.4258751 -0.16674991 0.12550847
0.18887821 0.22720352 -0.61755586 0.32967702 -0.16695574 0.12321048 0.18641865 0.25683197
-0.67130107 0.2743123 -0.16788879 0.119462155 0.18245544 0.19838685 -0.7689121 0.31319454
-0.1706076 0.11407014 0.17699517 0.24550962 -0.84078664 0.38375485 -0.17268234 0.10928167
0.17209297 0.18914372 -0.86136645 0.40471515 -0.17572652 0.10389738 0.16670734 0.18354797
-0.9117361 0.45443842 -0.17894723 0.09850055 0.16134548 0.21875797 -0.9884305 0.43882012
-0.18264635 0.09211246 0.15494771 0.17495582 -1.0230739 0.37615097 -0.18806422 0.083775826
0.14666943 0.21407641 -1.2071869 0.17233807 -0.19701296 0.06997225 0.13285412 0.28160655
-1.1397195 0.21945116 -0.20367625 0.058917973 0.12167362 0.24005237 -1.170188 0.40707955
-0.2094747 0.04991604 0.112668805 0.18463507 -1.2506818 0.48404813 -0.21625401 0.04034271
0.10321967 0.14119637 -1.2056079 0.5028777 -0.22294258 0.03136085 0.094423965 0.10573613
-1.2740257 0.45897242 -0.23130149 0.020465234 0.083774805 0.044138454 -1.3725867 0.5682894
-0.24053437 0.009163625 0.072862 0.047771227 -1.3745173 0.6554246 -0.24881524 -0.0007433213
0.06335915 0.10176792 -1.2479805 0.6573882 -0.25484234 -0.008108063 0.056288607 0.16045894
-1.2891381 0.55973077 -0.26134956 -0.016637037 0.04795335 0.14666322 -1.2774051 0.6909572
-0.2666409 -0.023256887 0.041574568 0.05292043 -1.40395 0.6994996 -0.2744026 -0.03236624
0.032871477 0.10103765 -1.3888228 0.6597781 -0.28163463 -0.04115511 0.024407376 0.15008894
-1.417684 0.67883974 -0.28826934 -0.04943516 0.016393285 0.117009565 -1.4393771 0.6260686
-0.29594353 -0.058871973 0.0072606495 0.12182854 -1.4988362 0.5802287 -0.30446818 -0.069438085
-0.003005674 0.18052712 -1.5208628 0.70521146 -0.31130323 -0.07798927 -0.011304369 0.31597567
-1.5412385 0.8624254 -0.31525126 -0.08341615 -0.016620269 0.36291984 -1.5207981 0.92915016
-0.31782487 -0.08725038 -0.020394612 0.2772476 -1.5562347 0.85997474 -0.32230106 -0.093064226
-0.026045345 0.35986882 -1.5999117 0.9235679 -0.3256444 -0.09777487 -0.030674843 0.3840449

theta f4 [1851]
00000000: cdcc 4c3e cdcc 4c3e a178 4c3e a178 4c3e
00000010: a178 4c3e a178 4c3e a178 4c3e a178 4c3e
00000020: a178 4c3e a178 4c3e a178 4c3e a178 4c3e
00000030: a178 4c3e a178 4c3e a178 4c3e a178 4c3e
00000040: a178 4c3e a178 4c3e a178 4c3e a178 4c3e
00000050: a178 4c3e a178 4c3e a178 4c3e a178 4c3e
00000060: a178 4c3e a178 4c3e a178 4c3e a178 4c3e
00000070: a178 4c3e a178 4c3e a178 4c3e a178 4c3e
00000080: a178 4c3e a178 4c3e a178 4c3e a178 4c3e
00000090: a178 4c3e a178 4c3e a178 4c3e a178 4c3e
000000a0: a178 4c3e a178 4c3e a178 4c3e a178 4c3e
000000b0: a178 4c3e a178 4c3e a178 4c3e a178 4c3e
000000c0: a178 4c3e a178 4c3e a178 4c3e a178 4c3e
000000d0: a178 4c3e aeef 713e aeef 713e aeef 713e
000000e0: aeef 713e aeef 713e aeef 713e aeef 713e
000000f0: aeef 713e aeef 713e aeef 713e aeef 713e
00000100: aeef 713e aeef 713e aeef 713e aeef 713e
00000110: aeef 713e aeef 713e aeef 713e aeef 713e
00000120: aeef 713e aeef 713e aeef 713e aeef 713e
00000130: aeef 713e aeef 713e aeef 713e aeef 713e
00000140: aeef 713e aeef 713e aeef 713e aeef 713e
00000150: aeef 713e aeef 713e aeef 713e aeef 713e
00000160: aeef 713e aeef 713e aeef 713e aeef 713e
00000170: aeef 713e aeef 713e aeef 713e 375b 863e
00000180: 375b 863e 375b 863e 375b 863e 375b 863e
00000190: 375b 863e 375b 863e 375b 863e 375b 863e
000001a0: 375b 863e 375b 863e 375b 863e 375b 863e
000001b0: 375b 863e 375b 863e 375b 863e 375b 863e
000001c0: 375b 863e 375b 863e 375b 863e 375b 863e
000001d0: 375b 863e 375b 863e 375b 863e 375b 863e
000001e0: 375b 863e 375b 863e 5bb2 913e ee5b 903e
000001f0: ee5b 903e ee5b 903e ee5b 903e ee5b 903e
00000200: ee5b 903e ee5b 903e ee5b 903e ee5b 903e
00000210: ee5b 903e ee5b 903e ee5b 903e ee5b 903e
00000220: ee5b 903e ee5b 903e ee5b 903e ee5b 903e
00000230: ee5b 903e ee5b 903e ee5b 903e ee5b 903e
00000240: ee5b 903e ee5b 903e ee5b 903e ee5b 903e
00000250: ee5b 903e ee5b 903e ee5b 903e ee5b 903e
00000260: ee5b 903e ee5b 903e ee5b 903e ee5b 903e
00000270: ee5b 903e 5a5b 923e 5a5b 923e 5a5b 923e
00000280: ba1a 943e ba1a 943e ba1a 943e ba1a 943e
00000290: ba1a 943e ba1a 943e ba1a 943e ba1a 943e
000002a0: ba1a 943e 61e9 953e 61e9 953e 61e9 953e
000002b0: 61e9 953e 61e9 953e 61e9 953e 61e9 953e
000002c0: 61e9 953e 61e9 953e 61e9 953e 61e9 953e
000002d0: 61e9 953e 61e9 953e 61e9 953e 61e9 953e
000002e0: 61e9 953e 61e9 953e 61e9 953e 61e9 953e
000002f0: 61e9 953e 61e9 953e 61e9 953e 61e9 953e
00000300: 9d03 a73e 9d03 a73e 9d03 a73e 9d03 a73e
00000310: 9d03 a73e 9d03 a73e 9d03 a73e 9d03 a73e
00000320: 9d03 a73e 9d03 a73e 9d03 a73e 9d03 a73e
00000330: 9d03 a73e 9d03 a73e 9d03 a73e 9d03 a73e
00000340: 9d03 a73e 9d03 a73e 9d03 a73e 9d03 a73e
00000350: 9d03 a73e 9d03 a73e 9d03 a73e 9d03 a73e
00000360: 9d03 a73e 9d03 a73e 9d03 a73e 9d03 a73e
00000370: 9d03 a73e 9d03 a73e 9d03 a73e 9d03 a73e
00000380: 9d03 a73e 9d03 a73e 9d03 a73e 9d03 a73e
00000390: 9d03 a73e 9d03 a73e 9d03 a73e 9d03 a73e
000003a0: 9d03 a73e 9d03 a73e 9d03 a73e 9d03 a73e
000003b0: 9d03 a73e 9d03 a73e 9d03 a73e 9d03 a73e
000003c0: 9d03 a73e 9d03 a73e 9d03 a73e 9d03 a73e
000003d0: 9d03 a73e 9d03 a73e 9d03 a73e 9d03 a73e
000003e0: 9d03 a73e 9d03 a73e 9d03 a73e 9d03 a73e
000003f0: 9d03 a73e 9d03 a73e 9d03 a73e 9d03 a73e
0.2 0.2 0.19967891 0.19967891 0.19967891 0.19967891 0.19967891 0.19967891
0.19967891 0.19967891 0.19967891 0.19967891 0.19967891 0.19967891 0.19967891 0.19967891
0.19967891 0.19967891 0.19967891 0.19967891 0.19967891 0.19967891 0.19967891 0.19967891
0.19967891 0.19967891 0.19967891 0.19967891 0.19967891 0.19967891 0.19967891 0.19967891
0.19967891 0.19967891 0.19967891 0.19967891 0.19967891 0.19967891 0.19967891 0.19967891
0.19967891 0.19967891 0.19967891 0.19967891 0.19967891 0.19967891 0.19967891 0.19967891
0.19967891 0.19967891 0.19967891 0.19967891 0.19967891 0.23626587 0.23626587 0.23626587
0.23626587 0.23626587 0.23626587 0.23626587 0.23626587 0.23626587 0.23626587 0.23626587
0.23626587 0.23626587 0.23626587 0.23626587 0.23626587 0.23626587 0.23626587 0.23626587
0.23626587 0.23626587 0.23626587 0.23626587 0.23626587 0.23626587 0.23626587 0.23626587
0.23626587 0.23626587 0.23626587 0.23626587 0.23626587 0.23626587 0.23626587 0.23626587
0.23626587 0.23626587 0.23626587 0.23626587 0.23626587 0.23626587 0.23626587 0.26241466
0.26241466 0.26241466 0.26241466 0.26241466 0.26241466 0.26241466 0.26241466 0.26241466
0.26241466 0.26241466 0.26241466 0.26241466 0.26241466 0.26241466 0.26241466 0.26241466
0.26241466 0.26241466 0.26241466 0.26241466 0.26241466 0.26241466 0.26241466 0.26241466
0.26241466 0.26241466 0.28456387 0.28195137 0.28195137 0.28195137 0.28195137 0.28195137
0.28195137 0.28195137 0.28195137 0.28195137 0.28195137 0.28195137 0.28195137 0.28195137
0.28195137 0.28195137 0.28195137 0.28195137 0.28195137 0.28195137 0.28195137 0.28195137
0.28195137 0.28195137 0.28195137 0.28195137 0.28195137 0.28195137 0.28195137 0.28195137
0.28195137 0.28195137 0.28195137 0.28195137 0.28195137 0.2858532 0.2858532 0.2858532
0.2892664 0.2892664 0.2892664 0.2892664 0.2892664 0.2892664 0.2892664 0.2892664
0.2892664 0.29279616 0.29279616 0.29279616 0.29279616 0.29279616 0.29279616 0.29279616
0.29279616 0.29279616 0.29279616 0.29279616 0.29279616 0.29279616 0.29279616 0.29279616
0.29279616 0.29279616 0.29279616 0.29279616 0.29279616 0.29279616 0.29279616 0.29279616
0.32619944 0.32619944 0.32619944 0.32619944 0.32619944 0.32619944 0.32619944 0.32619944
0.32619944 0.32619944 0.32619944 0.32619944 0.32619944 0.32619944 0.32619944 0.32619944
0.32619944 0.32619944 0.32619944 0.32619944 0.32619944 0.32619944 0.32619944 0.32619944
0.32619944 0.32619944 0.32619944 0.32619944 0.32619944 0.32619944 0.32619944 0.32619944
0.32619944 0.32619944 0.32619944 0.32619944 0.32619944 0.32619944 0.32619944 0.32619944
0.32619944 0.32619944 0.32619944 0.32619944 0.32619944 0.32619944 0.32619944 0.32619944
0.32619944 0.32619944 0.32619944 0.32619944 0.32619944 0.32619944 0.32619944 0.32619944
0.32619944 0.32619944 0.32619944 0.32619944 0.32619944 0.32619944 0.32619944 0.32619944
