main/template_estimation/simple_models/ms_theta_iter_1850.npz (npz, 26320 bytes, 3 tensors)

Wt f4 [5, 101, 3]
0	0x00000000	0.0
1	0x00000000	0.0
2	0x00000000	0.0
3	0xbe2f238d	-0.17103405
4	0xbe1c6e15	-0.15276368
5	0x3d846316	0.06464212
6	0xbece69af	-0.40315005
7	0xbde605f7	-0.112316065
8	0x3ebc2365	0.36745754
9	0xbf0a5b7d	-0.5404585
10	0xbd0343f6	-0.032047234
11	0x3ecb7e70	0.39744902
12	0xbef9c186	-0.4878046
13	0xbe80f1f1	-0.25184587
14	0x3f1ff295	0.62479526
15	0xbf2b7451	-0.6697436
16	0xbea51207	-0.32240316
17	0x3f4f06e8	0.80869913
18	0xbf21f546	-0.6326488
19	0xbe5910d1	-0.21197821
20	0x3f50e33c	0.8159673
21	0xbf569794	-0.8382504
22	0xbea36daa	-0.31919605
23	0x3f5c7a41	0.86124045
24	0xbfa9a30b	-1.3252882
25	0xbef5bc45	-0.479952
26	0x3f796a9c	0.974283
27	0xbf9e64be	-1.2374494
28	0xbecb5c7d	-0.39719
29	0x3f827c57	1.0194196
30	0xbfa4cdf9	-1.2875358
31	0xbe274440	-0.16334629
32	0x3f9b3ef1	1.2128583
33	0xbfa32e74	-1.2748551
34	0xbe3d806d	-0.18506022
35	0x3fa7159a	1.3053467
36	0xbfad52a5	-1.3540846
37	0xbe6e55ef	-0.23274969
38	0x3fc9fe89	1.5780803
39	0xbfb12e88	-1.3842325
40	0xbe9f89b4	-0.31159747
41	0x3fe66cb2	1.8001921
42	0xbfb70a24	-1.429997
43	0xbe50e75a	-0.20400754
44	0x3fe0ff41	1.7577897
45	0xbfcd589f	-1.604267
46	0xbe309d3f	-0.17247485
47	0x3ff206a7	1.890828
48	0xbff0864e	-1.8790987
49	0xbe71824a	-0.23584858
50	0x3ff8087b	1.9377588
51	0xc013611e	-2.3028026
52	0xbd9b92b8	-0.07596344
53	0x400580d5	2.0859883
54	0xc0128bc4	-2.2897806
55	0xbdfb58a8	-0.12272769
56	0x4006f19c	2.1084967
57	0xc01675fb	-2.350951
58	0xbe3fb354	-0.18720752
59	0x40199850	2.3999214
60	0xc02b196b	-2.6734264
61	0xbdd086ae	-0.10181938
62	0x40212a5b	2.5182102
63	0xc0421d98	-3.0330563
64	0xbe02af80	-0.1276226
65	0x401ad849	2.419451
66	0xc04937e5	-3.1440365
67	0xbd837cd6	-0.06420295
68	0x40189f02	2.384705
69	0xc04bffb4	-3.1874819
70	0x3dd8095c	0.1054866
71	0x40264098	2.5976925
72	0xc0572af7	-3.3619974
73	0xbd9649e3	-0.073383115
74	0x402fb59f	2.7454603
75	0xc062da48	-3.5445728
76	0x3e5c70f9	0.2152747
77	0x403b6b56	2.9284263
78	0xc0720ec8	-3.7821522
79	0x3e828b99	0.2549713
80	0x403d6d16	2.959783
81	0xc081101d	-4.033217
82	0x3e6de56e	0.23232052
83	0x404cefd4	3.202138
84	0xc0898380	-4.2973022
85	0x3ef19509	0.47184017
86	0x405709d5	3.359975
87	0xc087eec4	-4.247896
88	0x3f17559e	0.59115016
89	0x40570a56	3.3600059
90	0xc08bdb7f	-4.370544
91	0x3f0a25e5	0.5396407
92	0x4054a815	3.322759
93	0xc0927052	-4.576211
94	0x3ee0f3c3	0.43935975
95	0x405b5219	3.4268858
96	0xc099576a	-4.7919207
97	0x3ed0584f	0.40692374
98	0x406799d3	3.6187637
99	0xc096b7d8	-4.709942
100	0x3eeb4fae	0.45959228
101	0x40709ee9	3.759699
102	0xc09b9bd3	-4.8627715
103	0x3f012b00	0.5045624
104	0x4077d867	3.8725832
105	0xc09ebe07	-4.9606967
106	0x3e8cf9d6	0.2753436
107	0x4077f40f	3.8742712
108	0xc0a49833	-5.143579
109	0x3ecd1a13	0.40058956
110	0x4075d0bc	3.8408651
111	0xc0a94a77	-5.29034
112	0x3eed6d76	0.46372575
113	0x408306de	4.0945883
114	0xc0b17eb9	-5.546719
115	0x3f1e62ee	0.61869705
116	0x4089c181	4.304871
117	0xc0b6c500	-5.711548
118	0x3f37f05c	0.71851134
119	0x408a188b	4.315496
120	0xc0be42bf	-5.9456477
121	0x3f3d6a0d	0.73989946
122	0x4089fbf0	4.312004
123	0xc0c2a961	-6.083176
124	0x3f3e2084	0.74268365
125	0x40912ae4	4.5364857
126	0xc0c70e0b	-6.220464
127	0x3f5535a4	0.83284974
128	0x4090459c	4.508497
129	0xc0ce3ab5	-6.4446664
130	0x3f7bb174	0.98317647
131	0x409135f4	4.537836
132	0xc0d52234	-6.660425
133	0x3f96b600	1.1774292
134	0x4092be33	4.5857177
135	0xc0d68ce9	-6.704701
136	0x3fa1dcf3	1.2645553
137	0x409203b5	4.5629525
138	0xc0d9eefe	-6.810424
139	0x3fad966d	1.3561531
140	0x4095d18c	4.6818295
141	0xc0da9f69	-6.8319592
142	0x3fb05ea6	1.3778884
143	0x40946066	4.6367674
144	0xc0de6350	-6.949623
145	0x3fa59347	1.293557
146	0x40945bc5	4.6362023
147	0xc0dea617	-6.9577746
148	0x3fb32d1e	1.3998144
149	0x40999ffb	4.800779
150	0xc0e56a0a	-7.169194
151	0x3fb815fd	1.438171
152	0x409c72c4	4.8890095
153	0xc0ecfc87	-7.405826
154	0x3fa62b7c	1.298202
155	0x40995ee4	4.7928333
156	0xc0ec8685	-7.391421
157	0x3f91b3b1	1.1382962
158	0x409e423d	4.9455857
159	0xc0f2d7ba	-7.588834
160	0x3f981525	1.1881453
161	0x40a0f8ce	5.0303717
162	0xc0fb9480	-7.8618774
163	0x3f947597	1.1598386
164	0x40a72701	5.223511
165	0xc1007294	-8.027973
166	0x3fa1c067	1.2636842
167	0x40aa28a8	5.317463
168	0xc103bc3e	-8.233458
169	0x3f96f92c	1.1794791
170	0x40a6d061	5.212937
171	0xc1053b55	-8.326985
172	0x3f9140bd	1.1347882
173	0x40aad1bc	5.3381023
174	0xc10acd5d	-8.6751375
175	0x3f8db75a	1.107158
176	0x40ac999a	5.39375
177	0xc10bc060	-8.734467
178	0x3f94d765	1.1628233
179	0x40b1e8e8	5.559681
180	0xc10e1e81	-8.882447
181	0x3f9da7cf	1.2316836
182	0x40b3f220	5.6233063
183	0xc10ecd00	-8.925049
184	0x3f95df9e	1.1708868
185	0x40b535e0	5.6628265
186	0xc1104a21	-9.018098
187	0x3f8960d8	1.0732679
188	0x40b45c51	5.636269
189	0xc1119de0	-9.101044
190	0x3f747d6f	0.95503896
191	0x40b3bc55	5.6167397
192	0xc1130fd7	-9.191367
193	0x3f6d86da	0.9278389
194	0x40b6558f	5.697944
195	0xc110e9b5	-9.057057
196	0x3f7f498e	0.9972161
197	0x40ba644b	5.824743
198	0xc110be24	-9.046421
199	0x3f819cc2	1.0125964
200	0x40bbc365	5.867602
201	0xc111220e	-9.070814
202	0x3f89859e	1.0743902
203	0x40bc5856	5.885783
204	0xc1132ca4	-9.198399
205	0x3f84412f	1.0332392
206	0x40b9f908	5.8116493
207	0xc113b225	-9.230992
208	0x3f91c432	1.1387999
209	0x40bf1e8f	5.9724803
210	0xc11289fb	-9.158687
211	0x3f832f0c	1.0248733
212	0x40c013ba	6.002408
213	0xc1133722	-9.20096
214	0x3f8e2a00	1.1106567
215	0x40bd91e3	5.9240584
216	0xc113ccee	-9.237532
217	0x3f8f65ee	1.1202981
218	0x40bcab82	5.895936
219	0xc1162537	-9.384086
220	0x3f926062	1.1435664
221	0x40bd0b9d	5.9076676
222	0xc1159de6	-9.351049
223	0x3f9d93c2	1.2310717
224	0x40bbac4b	5.864782
225	0xc116c018	-9.421898
226	0x3f9dad79	1.2318565
227	0x40bd5672	5.9168024
228	0xc115ad82	-9.35486
229	0x3f930a8c	1.1487594
230	0x40bcadb3	5.8962035
231	0xc1162025	-9.382848
232	0x3f99f467	1.2027711
233	0x40bd06f9	5.907101
234	0xc1160404	-9.37598
235	0x3fa33927	1.2751817
236	0x40bbce35	5.8689218
237	0xc116e16b	-9.430034
238	0x3f98d176	1.1938922
239	0x40be6e88	5.9509926
240	0xc1181c70	-9.506943
241	0x3f903b01	1.1268007
242	0x40bcc421	5.8989415
243	0xc117d66f	-9.489852
244	0x3f8e3c0e	1.1112077
245	0x40bc0616	5.875743
246	0xc118ca4a	-9.549387
247	0x3f8fcd11	1.1234456
248	0x40be5a29	5.948506
249	0xc1179f96	-9.476461
250	0x3f931a7a	1.1492455
251	0x40bdacf9	5.927365
252	0xc1166919	-9.400659
253	0x3f8eea59	1.1165267
254	0x40bdb28a	5.9280443
255	0xc1144c28	-9.268593

Xt f4 [5, 101, 6]
0	0xbfab4aa4	-1.3382154
1	0xbec19972	-0.37812382
2	0xbe27f59b	-0.16402285
3	0x00000000	0.0
4	0x00000000	0.0
5	0x00000000	0.0
6	0xbfab4aa4	-1.3382154
7	0xbec19972	-0.37812382
8	0xbe27f59b	-0.16402285
9	0x3db08570	0.08619201
10	0xbdf6f64e	-0.12058698
11	0xbd8b70bd	-0.068086125
12	0xbfab5a28	-1.3386889
13	0xbec2f044	-0.38073933
14	0xbe2ad672	-0.16683367
15	0x3e0d3fbb	0.13793842
16	0xbe0086d5	-0.12551434
17	0x3be11b40	0.0068697035
18	0xbfab327f	-1.3374785
19	0xbec34115	-0.3813559
20	0xbe2bc38f	-0.16773818
21	0x3e7c0d6a	0.24614492
22	0xbde5b977	-0.11217015
23	0xbda66e56	-0.08126514
24	0xbfaaddac	-1.3348899
25	0xbec39b8c	-0.3820461
26	0xbe2d151e	-0.16902587
27	0x3eec643e	0.4617023
28	0xbe8b4c96	-0.27206868
29	0xbd5dbec4	-0.054137006
30	0xbfaa3a06	-1.3298957
31	0xbec3eb0e	-0.3826527
32	0xbe2ec440	-0.17067051
33	0x3f08ca86	0.53434026
34	0xbeb1176a	-0.34588176
35	0xbd479ca6	-0.048733376
36	0xbfa98749	-1.3244411
37	0xbec46cc1	-0.38364223
38	0xbe30f92e	-0.17282555
39	0x3f3bdc06	0.73382604
40	0xbea175d2	-0.31535202
41	0xbe13b844	-0.1442576
42	0xbfa86f4e	-1.3158967
43	0xbec44812	-0.38336235
44	0xbe3266c4	-0.17422014
45	0x3f489570	0.78353024
46	0xbed2cd55	-0.4117228
47	0xbe5d9840	-0.2164011
48	0xbfa77a45	-1.3084189
49	0xbec561d3	-0.38551196
50	0xbe366575	-0.1781214
51	0x3f2c38f6	0.67274415
52	0xbf0909b2	-0.5353042
53	0xbe79a015	-0.24377473
54	0xbfa705b4	-1.3048615
55	0xbec88410	-0.39163256
56	0xbe3e2071	-0.18567063
57	0x3f67f95a	0.90614855
58	0xbf033d78	-0.5126567
59	0xbe9c4692	-0.3052259
60	0xbfa6156c	-1.2975287
61	0xbeca8079	-0.39551142
62	0xbe441bb5	-0.19151194
63	0x3f861f2e	1.0478265
64	0xbecf6fe9	-0.40515068
65	0xbe8f989e	-0.28046125
66	0xbfa4a645	-1.2863241
67	0xbeca56c8	-0.39519334
68	0xbe461a88	-0.19346058
69	0x3f9ba806	1.2160652
70	0xbee72696	-0.45146626
71	0xbea3d162	-0.31995684
72	0xbfa2fb22	-1.273289
73	0xbec9dcce	-0.39426273
74	0xbe47ca48	-0.19510758
75	0x3fa961ba	1.3232949
76	0xbf036ded	-0.5133961
77	0xbe8144a0	-0.2524767
78	0xbfa11d52	-1.2587073
79	0xbec89f8c	-0.39184225
80	0xbe4812c1	-0.19538404
81	0x3fba1055	1.4536234
82	0xbf18c80d	-0.59680253
83	0xbe5b5ec0	-0.21422863
84	0xbf9f12a3	-1.2427562
85	0xbec6ed8c	-0.3885311
86	0xbe479b8b	-0.19492929
87	0x3fc8ca30	1.5686703
88	0xbf132e90	-0.57492924
89	0xbea734cf	-0.32657477
90	0xbf9ced04	-1.2259831
91	0xbec53b6e	-0.38521904
92	0xbe4757a6	-0.19467029
93	0x3fcd2c88	1.6029215
94	0xbf1877e3	-0.5955793
95	0xbeab2f78	-0.33434653
96	0xbf9ac9c2	-1.2092822
97	0xbec37c7d	-0.38180915
98	0xbe46f3a1	-0.19428875
99	0x3fc9dfdb	1.577144
100	0xbf2bd6db	-0.6712472
101	0xbec7c346	-0.3901617
102	0xbf98ef19	-1.1947967
103	0xbec2ed86	-0.3807184
104	0xbe48ca17	-0.19608341
105	0x3fbc165f	1.4694327
106	0xbf1d31ae	-0.6140393
107	0xbec36e08	-0.38169885
108	0xbf97404e	-1.1816499
109	0xbec25f77	-0.3796346
110	0xbe4a5c2b	-0.19761722
111	0x3fcf4048	1.6191492
112	0xbf2d08cf	-0.67591566
113	0xbee54790	-0.4478116
114	0xbf95789b	-1.1677431
115	0xbec1e4ab	-0.37869772
116	0xbe4c470b	-0.19948976
117	0x3fdbf360	1.7183647
118	0xbf3f270d	-0.7466896
119	0xbeb4d914	-0.35321867
120	0xbf938338	-1.152442
121	0xbec089b6	-0.37605065
122	0xbe4c7ca1	-0.19969417
123	0x3fd47737	1.6598881
124	0xbf3c20f8	-0.73487806
125	0xbeb76372	-0.35818058
126	0xbf91b42e	-1.1383111
127	0xbebf650a	-0.37381774
128	0xbe4ceee0	-0.20012999
129	0x3fca9cc7	1.5829095
130	0xbf49454f	-0.7862138
131	0xbef9d3b0	-0.48794317
132	0xbf90557a	-1.1276085
133	0xbec0140f	-0.37515303
134	0xbe50d71a	-0.20394555
135	0x3fd4215a	1.6572678
136	0xbf472d9d	-0.77803975
137	0xbf129f2a	-0.57274115
138	0xbf8ef35d	-1.1168019
139	0xbec0d296	-0.37660664
140	0xbe54ee2e	-0.20793983
141	0x3fe204c6	1.7657707
142	0xbf34c0ae	-0.70606506
143	0xbf02bab2	-0.51066124
144	0xbf8d34a7	-1.1031693
145	0xbebfc79a	-0.3745697
146	0xbe55884f	-0.20852779
147	0x3fe4c692	1.7873099
148	0xbf5749af	-0.8409681
149	0xbefb4799	-0.49078062
150	0xbf8ba226	-1.0908859
151	0xbebf6d51	-0.3738809
152	0xbe576ccc	-0.21037596
153	0x3fe7079a	1.8049195
154	0xbf34218c	-0.7036369
155	0xbee3640a	-0.4441226
156	0xbf89cdbe	-1.0765913
157	0xbebd7d62	-0.37009722
158	0xbe561af6	-0.20908722
159	0x3fe45a45	1.7840048
160	0xbf3711cc	-0.7151153
161	0xbefbd0cd	-0.4918274
162	0xbf882168	-1.0635195
163	0xbebc1080	-0.36731339
164	0xbe55b398	-0.20869291
165	0x3fe0debb	1.7567972
166	0xbf427d5b	-0.7597253
167	0xbed42bba	-0.4143961
168	0xbf86829b	-1.0508608
169	0xbeba81d8	-0.36427188
170	0xbe54e474	-0.20790273
171	0x3fdc9cba	1.7235329
172	0xbf278926	-0.65443647
173	0xbec5948a	-0.3858989
174	0xbf84cc02	-1.0374758
175	0xbeb81edd	-0.35961047
176	0xbe525194	-0.20538932
177	0x3fef66c8	1.8703241
178	0xbf1f3428	-0.6218896
179	0xbee867a8	-0.45391583
180	0xbf82e492	-1.0226004
181	0xbeb51e1c	-0.35374534
182	0xbe4ea497	-0.20179974
183	0x3ff3f417	1.9058865
184	0xbf3040a2	-0.6884862
185	0xbf0ab351	-0.54179865
186	0xbf812b6c	-1.0091376
187	0xbeb2fbde	-0.34957784
188	0xbe4cac23	-0.1998754
189	0x3ff23e8f	1.8925341
190	0xbf4733db	-0.778135
191	0xbf0a6792	-0.54064286
192	0xbf7f4396	-0.997125
193	0xbeb18315	-0.3467032
194	0xbe4bea61	-0.19913627
195	0x3ff0112e	1.8755243
196	0xbf535c2e	-0.8256253
197	0xbef791a0	-0.4835329
198	0xbf7c4e95	-0.98557407
199	0xbeb0085b	-0.34381375
200	0xbe4b084d	-0.19827385
201	0x4001fece	2.031177
202	0xbf530b66	-0.8243927
203	0xbee8e6e8	-0.45488667
204	0xbf78cfd0	-0.97192097
205	0xbead743c	-0.33877742
206	0xbe480bc3	-0.19535737
207	0x40025f2a	2.0370584
208	0xbf54d1e3	-0.8313276
209	0xbee2a366	-0.44265288
210	0xbf755c24	-0.9584372
211	0xbeaac97f	-0.33356854
212	0xbe44cf11	-0.19219615
213	0x4004a3a2	2.0724874
214	0xbf7f223a	-0.996616
215	0xbefcce52	-0.4937616
216	0xbf727064	-0.94702744
217	0xbea95670	-0.3307376
218	0xbe43f3fd	-0.19136043
219	0x4003c86e	2.0591083
220	0xbf733cfc	-0.9501493
221	0xbf0db0f4	-0.55348134
222	0xbf6fa6dd	-0.9361399
223	0xbea801bb	-0.3281382
224	0xbe4342c3	-0.19068436
225	0x400429bb	2.065047
226	0xbf6fd2cf	-0.93681043
227	0xbee40890	-0.44537783
228	0xbf6c9d72	-0.9242774
229	0xbea5d70b	-0.32390627
230	0xbe40d1dc	-0.18830055
231	0x40003d4b	2.003741
232	0xbf600c63	-0.875189
233	0xbebba0bd	-0.3664607
234	0xbf697cb3	-0.912059
235	0xbea319bf	-0.3185558
236	0xbe3d1b9f	-0.18467568
237	0x3fff9525	1.996739
238	0xbf5975d0	-0.8494539
239	0xbed14459	-0.40872458
240	0xbf667aeb	-0.9003131
241	0xbea08004	-0.31347668
242	0xbe399d1a	-0.18126336
243	0x3ff9782e	1.9489801
244	0xbf5e0817	-0.86731094
245	0xbeea5f04	-0.45775616
246	0xbf63d806	-0.890015
247	0xbe9e8d81	-0.30967334
248	0xbe375444	-0.17903239
249	0x3ffb0859	1.9611923
250	0xbf643dfc	-0.8915708
251	0xbebe060a	-0.37113982
252	0xbf6116f1	-0.8792563
253	0xbe9c2ba4	-0.30502045
254	0xbe341e21	-0.17589618
255	0x3ffc5b73	1.9715408

theta f4 [1851]
0	0x3e4ccccd	0.2
1	0x3e4ccccd	0.2
2	0x3e4c78a1	0.19967891
3	0x3e4c78a1	0.19967891
4	0x3e4c78a1	0.19967891
5	0x3e4c78a1	0.19967891
6	0x3e4c78a1	0.19967891
7	0x3e4c78a1	0.19967891
8	0x3e4c78a1	0.19967891
9	0x3ff15648	1.8854456
10	0x3ff15648	1.8854456
11	0x3ff15648	1.8854456
12	0x3f35e902	0.71058667
13	0x3f35e902	0.71058667
14	0x3f35e902	0.71058667
15	0x4009b720	2.151802
16	0x41a6497e	20.785885
17	0x41a6497e	20.785885
18	0x41a6497e	20.785885
19	0x41a6497e	20.785885
20	0x41a6497e	20.785885
21	0x41a6497e	20.785885
22	0x41a6497e	20.785885
23	0x41a6497e	20.785885
24	0x41a6497e	20.785885
25	0x41a6497e	20.785885
26	0x41a6497e	20.785885
27	0x41a6497e	20.785885
28	0x41a6497e	20.785885
29	0x41a6497e	20.785885
30	0x41a6497e	20.785885
31	0x41a6497e	20.785885
32	0x41a6497e	20.785885
33	0x41a6497e	20.785885
34	0x41a6497e	20.785885
35	0x41a6497e	20.785885
36	0x41a6497e	20.785885
37	0x41a6497e	20.785885
38	0x41a6497e	20.785885
39	0x41a6497e	20.785885
40	0x41a6497e	20.785885
41	0x41a6497e	20.785885
42	0x41a6497e	20.785885
43	0x41a6497e	20.785885
44	0x41a6497e	20.785885
45	0x41a6497e	20.785885
46	0x41a6497e	20.785885
47	0x41a6497e	20.785885
48	0x41a6497e	20.785885
49	0x41a6497e	20.785885
50	0x41a6497e	20.785885
51	0x41a6497e	20.785885
52	0x41a6497e	20.785885
53	0x41a6497e	20.785885
54	0x41a6497e	20.785885
55	0x41a6497e	20.785885
56	0x41a6497e	20.785885
57	0x41a6497e	20.785885
58	0x41a6497e	20.785885
59	0x41a6497e	20.785885
60	0x41a6497e	20.785885
61	0x41a6497e	20.785885
62	0x41a6497e	20.785885
63	0x41a6497e	20.785885
64	0x41a6497e	20.785885
65	0x41a6497e	20.785885
66	0x41a6497e	20.785885
67	0x41a6497e	20.785885
68	0x41a6497e	20.785885
69	0x41a6497e	20.785885
70	0x41a6497e	20.785885
71	0x41a6497e	20.785885
72	0x41a6497e	20.785885
73	0x41a6497e	20.785885
74	0x41a6497e	20.785885
75	0x41a6497e	20.785885
76	0x41a6497e	20.785885
77	0x41a6497e	20.785885
78	0x41a6497e	20.785885
79	0x41a6497e	20.785885
80	0x41a6497e	20.785885
81	0x41a6497e	20.785885
82	0x41a6497e	20.785885
83	0x41a6497e	20.785885
84	0x41a6497e	20.785885
85	0x41a6497e	20.785885
86	0x41a6497e	20.785885
87	0x41a6497e	20.785885
88	0x41a6497e	20.785885
89	0x41a6497e	20.785885
90	0x41a6497e	20.785885
91	0x41a6497e	20.785885
92	0x41a6497e	20.785885
93	0x41a6497e	20.785885
94	0x41a6497e	20.785885
95	0x41a6497e	20.785885
96	0x41a6497e	20.785885
97	0x41a6497e	20.785885
98	0x41a6497e	20.785885
99	0x41a6497e	20.785885
100	0x41a6497e	20.785885
101	0x41a6497e	20.785885
102	0x41a6497e	20.785885
103	0x41a6497e	20.785885
104	0x41a6497e	20.785885
105	0x41a6497e	20.785885
106	0x41a6497e	20.785885
107	0x41a6497e	20.785885
108	0x41a6497e	20.785885
109	0x41a6497e	20.785885
110	0x41a6497e	20.785885
111	0x41a6497e	20.785885
112	0x41a6497e	20.785885
113	0x41a6497e	20.785885
114	0x41a6497e	20.785885
115	0x41a6497e	20.785885
116	0x41a6497e	20.785885
117	0x41a6497e	20.785885
118	0x41a6497e	20.785885
119	0x41a6497e	20.785885
120	0x41a6497e	20.785885
121	0x41a6497e	20.785885
122	0x41a6497e	20.785885
123	0x41a6497e	20.785885
124	0x41a6497e	20.785885
125	0x41a6497e	20.785885
126	0x41a6497e	20.785885
127	0x41a6497e	20.785885
128	0x41a6497e	20.785885
129	0x41a6497e	20.785885
130	0x41a6497e	20.785885
131	0x41a6497e	20.785885
132	0x41a6497e	20.785885
133	0x41a6497e	20.785885
134	0x41a6497e	20.785885
135	0x41a6497e	20.785885
136	0x41a6497e	20.785885
137	0x41a6497e	20.785885
138	0x41a6497e	20.785885
139	0x41a6497e	20.785885
140	0x41a6497e	20.785885
141	0x41a6497e	20.785885
142	0x41a6497e	20.785885
143	0x41a6497e	20.785885
144	0x41a6497e	20.785885
145	0x41a6497e	20.785885
146	0x41a6497e	20.785885
147	0x41a6497e	20.785885
148	0x41a6497e	20.785885
149	0x41a6497e	20.785885
150	0x41a6497e	20.785885
151	0x41a6497e	20.785885
152	0x41a6497e	20.785885
153	0x41a6497e	20.785885
154	0x41a6497e	20.785885
155	0x41a6497e	20.785885
156	0x41a6497e	20.785885
157	0x41a6497e	20.785885
158	0x41a6497e	20.785885
159	0x41a6497e	20.785885
160	0x41a6497e	20.785885
161	0x41a6497e	20.785885
162	0x41a6497e	20.785885
163	0x41a6497e	20.785885
164	0x41a6497e	20.785885
165	0x41a6497e	20.785885
166	0x41a6497e	20.785885
167	0x41a6497e	20.785885
168	0x41a6497e	20.785885
169	0x41a6497e	20.785885
170	0x41a6497e	20.785885
171	0x41a6497e	20.785885
172	0x41a6497e	20.785885
173	0x41a6497e	20.785885
174	0x41a6497e	20.785885
175	0x41a6497e	20.785885
176	0x41a6497e	20.785885
177	0x41a6497e	20.785885
178	0x41a6497e	20.785885
179	0x41a6497e	20.785885
180	0x41a6497e	20.785885
181	0x41a6497e	20.785885
182	0x41a6497e	20.785885
183	0x41a6497e	20.785885
184	0x41a6497e	20.785885
185	0x41a6497e	20.785885
186	0x41a6497e	20.785885
187	0x41a6497e	20.785885
188	0x41a6497e	20.785885
189	0x41a6497e	20.785885
190	0x41a6497e	20.785885
191	0x41a6497e	20.785885
192	0x41a6497e	20.785885
193	0x41a6497e	20.785885
194	0x41a6497e	20.785885
195	0x41a6497e	20.785885
196	0x41a6497e	20.785885
197	0x41a6497e	20.785885
198	0x41a6497e	20.785885
199	0x41a6497e	20.785885
200	0x41a6497e	20.785885
201	0x41a6497e	20.785885
202	0x41a6497e	20.785885
203	0x41a6497e	20.785885
204	0x41a6497e	20.785885
205	0x41a6497e	20.785885
206	0x41a6497e	20.785885
207	0x41a6497e	20.785885
208	0x41a6497e	20.785885
209	0x41a6497e	20.785885
210	0x41a6497e	20.785885
211	0x41a6497e	20.785885
212	0x41a6497e	20.785885
213	0x41a6497e	20.785885
214	0x41a6497e	20.785885
215	0x41a6497e	20.785885
216	0x41a6497e	20.785885
217	0x41a6497e	20.785885
218	0x41a6497e	20.785885
219	0x41a6497e	20.785885
220	0x41a6497e	20.785885
221	0x41a6497e	20.785885
222	0x41a6497e	20.785885
223	0x41a6497e	20.785885
224	0x41a6497e	20.785885
225	0x41a6497e	20.785885
226	0x41a6497e	20.785885
227	0x41a6497e	20.785885
228	0x41a6497e	20.785885
229	0x41a6497e	20.785885
230	0x41a6497e	20.785885
231	0x41a6497e	20.785885
232	0x41a6497e	20.785885
233	0x41a6497e	20.785885
234	0x41a6497e	20.785885
235	0x41a6497e	20.785885
236	0x41a6497e	20.785885
237	0x41a6497e	20.785885
238	0x41a6497e	20.785885
239	0x41a6497e	20.785885
240	0x41a6497e	20.785885
241	0x41a6497e	20.785885
242	0x41a6497e	20.785885
243	0x41a6497e	20.785885
244	0x41a6497e	20.785885
245	0x41a6497e	20.785885
246	0x41a6497e	20.785885
247	0x41a6497e	20.785885
248	0x41a6497e	20.785885
249	0x41a6497e	20.785885
250	0x41a6497e	20.785885
251	0x41a6497e	20.785885
252	0x41a6497e	20.785885
253	0x41a6497e	20.785885
254	0x41a6497e	20.785885
255	0x41a6497e	20.785885
