main/template_estimation/simple_models/ms_theta_iter_10900.npz (npz, 62520 bytes, 3 tensors)

Wt f4 [5, 101, 3]
0.0 0.0 0.0 -0.043862585 -0.1254052 -0.12954973 -0.12862305 0.070741676
-0.2066378 -0.15217586 0.21298508 -0.15466247 -0.24088132 0.116796575 -0.18443546 -0.46534613
0.24457285 0.055085856 -0.6167427 0.25150692 0.32712173 -0.8832215 0.4315156 0.17316471
-1.164266 0.39701417 0.4982026 -1.1804106 0.35900694 0.78068066 -1.5059199 0.41246656
0.8842775 -1.6735281 0.58770317 1.0773596 -1.909654 0.5611993 1.1279485 -1.9756451
0.63542277 1.2417525 -2.1089423 0.7603675 1.1893549 -2.2075012 0.8852942 1.4217731
-2.5055318 1.0826187 1.4212482 -2.6842644 1.080538 1.4980037 -2.7271733 1.0955057
1.6285139 -2.9520113 0.9944895 1.5472891 -3.078387 1.0939083 1.7216991 -3.279289
1.3757161 1.9732634 -3.5316179 1.6330094 1.9156873 -3.7512257 1.8024957 1.9018754
-3.8777874 1.945894 2.1795137 -3.8730369 1.989694 2.2222166 -4.118636 1.9366013
2.2368343 -4.3292828 2.013361 2.3860774 -4.422819 1.8968612 2.3193293 -4.6044993
2.110098 2.348205 -4.8081827 2.2898755 2.5530803 -5.065492 2.350965 2.5710316
-5.2930417 2.2389865 2.9328282 -5.571191 2.2001526 3.0732086 -5.7654147 2.4572704
3.3493304 -6.0300903 2.4770741 3.5102742 -6.245206 2.5751245 3.6449013 -6.3897886
2.5551276 3.9686089 -6.5344787 2.5352867 3.9596777 -6.6100545 2.730532 3.8486454
-6.923774 2.6433892 3.9355385 -6.88781 2.6360161 4.0263953 -6.8715644 2.766378
4.098608 -6.9879584 2.8154986 4.047065 -7.2286477 2.9537227 3.9925513 -7.236219
3.0607812 4.1635475 -7.2736316 3.10355 4.4188566 -7.2997904 3.0068839 4.438899
-7.5189104 3.1652482 4.692001 -7.665475 3.439729 4.8164864 -7.573261 3.592329
4.9927244 -7.786207 3.527486 5.028935 -7.9599733 3.6544898 4.943568 -8.0842085
3.923466 5.0036955 -8.323276 3.938369 5.2026873 -8.3902445 3.9904428 5.0973454
-8.462653 3.9540386 5.115497 -8.590848 4.1293554 5.152907 -8.596831 4.260258
5.1559005 -8.651372 4.350833 5.226042 -8.778198 4.246443 5.332562 -8.945938
4.3805723 5.2939324 -8.968386 4.550727 5.400588 -8.982562 4.6071754 5.454903
-9.079059 4.595061 5.638257 -9.157211 4.730267 5.734578 -9.205923 4.7444916
5.84383 -9.043897 4.761106 5.771143 -9.117971 4.8640995 5.806692 -9.1763525
4.9158955 5.9300513 -9.173598 4.945719 5.999914 -9.160744 4.9905176 6.022272
-9.181012 5.1191826 6.032132 -9.234783 5.14973 5.9751453 -9.288369 5.1014314
5.848273 -9.3330145 5.204126 5.979626 -9.310102 5.1193495 6.069124 -9.402521
5.0778785 6.020562 -9.462558 5.081748 6.017367 -9.390173 5.1625905 5.9330716
-9.442215 5.186566 5.9483185 -9.442255 5.164787 5.8979197 -9.465292 5.1485744
5.855796 -9.436914 5.050601 5.9282484 -9.407343 5.1101336 5.9032464 -9.400247
00000000: 0000 0000 0000 0000 0000 0000 41a9 33bd
00000010: 396a 00be afa8 04be c3b5 03be 03e1 903d
00000020: dc98 53be fdd3 1bbe c318 5a3e d75f 1ebe
00000030: 98a9 76be 0b33 ef3d a6dc 3cbe d941 eebe
00000040: 4e71 7a3e b5a1 613d d9e2 1dbf 84c5 803e
00000050: 807c a73e ce1a 62bf 9def dc3e 1752 313e
00000060: ab06 95bf 7145 cb3e 6914 ff3e b217 97bf
00000070: c2cf b73e b0da 473f fcc1 c0bf d12e d33e
00000080: 0360 623f 2b36 d6bf b773 163f ebe6 893f
00000090: 8b6f f4bf c2aa 0f3f 9e60 903f f0e1 fcbf
000000a0: 11ab 223f bff1 9e3f e9f8 06c0 72a7 423f
000000b0: c83c 983f b347 0dc0 a4a2 623f a9fc b53f
000000c0: a25a 20c0 4093 8a3f 76eb b53f fdca 2bc0
000000d0: 124f 8a3f 96be bf3f 028a 2ec0 8839 8c3f
000000e0: 2573 d03f c1ed 3cc0 dd96 7e3f 920d c63f
000000f0: 4b04 45c0 3005 8c3f a360 dc3f dfdf 51c0
00000100: 7717 b03f e593 fc3f 0706 62c0 7406 d13f
00000110: 3e35 f53f 1514 70c0 2eb8 e63f a770 f33f
00000120: ab2d 78c0 0e13 f93f 277d 0b40 d6df 77c0
00000130: 4bae fe3f cc38 0e40 decb 83c0 8de2 f73f
00000140: 4b28 0f40 7c89 8ac0 e8da 0040 7eb5 1840
00000150: bc87 8dc0 59cc f23f e46f 1440 0f58 93c0
00000160: d80b 0740 fe48 1640 a2dc 99c0 528d 1240
00000170: ab65 2340 8318 a2c0 3676 1640 c88b 2440
00000180: 9960 a9c0 8e4b 0f40 75b3 3b40 3247 b2c0
00000190: 4dcf 0c40 73af 4440 477e b8c0 eb43 1d40
000001a0: 6e5b 5640 80f6 c0c0 6288 1e40 55a8 6040
000001b0: bad8 c7c0 d7ce 2440 1046 6940 2679 ccc0
000001c0: 3687 2340 b0fd 7d40 731a d1c0 2342 2240
000001d0: 5c6b 7d40 9185 d3c0 09c1 2e40 3550 7640
000001e0: 8e8f ddc0 4a2d 2940 dddf 7b40 f168 dcc0
000001f0: 7db4 2840 3bd8 8040 dbe3 dbc0 560c 3140
00000200: cc27 8340 5b9d dfc0 2131 3440 8e81 8140
00000210: 1551 e7c0 cb09 3d40 f685 7f40 1b8f e7c0
00000220: d7e3 4340 c83b 8540 97c1 e8c0 90a0 4640
00000230: 4667 8d40 e297 e9c0 c970 4040 760b 8e40
00000240: ea9a f0c0 6d93 4a40 df24 9640 924b f5c0
00000250: 8524 5c40 a820 9a40 2758 f2c0 b8e8 6540
00000260: 66c4 9f40 9c28 f9c0 55c2 6140 09ed a040
00000270: 1ab8 fec0 29e3 6940 b631 9e40 eb58 01c1
00000280: 111a 7b40 461e a040 232c 05c1 3d0e 7c40
00000290: 6a7c a640 713e 06c1 6a63 7f40 741d a340
000002a0: 0767 07c1 f80e 7d40 27b2 a340 1d74 09c1
000002b0: ae23 8440 9de4 a440 9f8c 09c1 0954 8840
000002c0: 23fd a440 056c 0ac1 063a 8b40 bc3b a740
000002d0: 8073 0cc1 dce2 8740 59a4 aa40 9022 0fc1
000002e0: a62d 8c40 e567 a940 827e 0fc1 8e9f 9140
000002f0: 9ed1 ac40 93b8 0fc1 fb6d 9340 918e ae40
00000300: d343 11c1 bd0a 9340 9a6c b440 f083 12c1
00000310: 595e 9740 aa81 b740 764b 13c1 e0d2 9740
00000320: a800 bb40 cdb3 10c1 fb5a 9840 34ad b840
00000330: 36e3 11c1 b4a6 9b40 6cd0 b940 57d2 12c1
00000340: 044f 9d40 fbc2 bd40 0fc7 12c1 5443 9e40
00000350: 4cff bf40 6892 12c1 52b2 9f40 74b6 c040
00000360: 6de5 12c1 58d0 a340 3a07 c140 acc1 13c1
00000370: 97ca a440 6434 bf40 299d 14c1 ed3e a340
00000380: 0d25 bb40 0754 15c1 3388 a640 1959 bf40
00000390: 2ef6 14c1 b6d1 a340 4436 c240 ba70 16c1
000003a0: fb7d a240 72a8 c040 a366 17c1 ae9d a240
000003b0: 458e c040 263e 16c1 f133 a540 b9db bd40
000003c0: 5013 17c1 59f8 a540 a058 be40 7a13 17c1
000003d0: ef45 a540 c2bb bc40 d671 17c1 1fc1 a440
000003e0: ae62 bb40 9afd 16c1 869e a140 36b4 bd40
000003f0: 7a84 16c1 3786 a340 65e7 bc40 6967 16c1

Xt f4 [5, 101, 6]
-1.31241 -0.35983023 -0.14727522 0.0 0.0 0.0 -1.31241 -0.35983023
-0.14727522 0.15622377 -0.10411649 -0.1797873 -1.3124319 -0.3633889 -0.15126123 0.28460076
-0.015595488 -0.31919223 -1.3102479 -0.36624134 -0.15495476 0.4431547 0.041664496 -0.38358155
-1.3049783 -0.36719918 -0.15718332 0.55687857 -0.040793538 -0.49659386 -1.2997525 -0.3704042
-0.16192594 0.58994716 0.010481685 -0.4477279 -1.2929033 -0.37124646 -0.16435775 0.6648763
-0.012520015 -0.38529074 -1.2844344 -0.37040228 -0.16521497 0.67155194 0.060625594 -0.57162446
-1.2769251 -0.37145394 -0.16805069 0.67197645 0.013960896 -0.47810084 -1.2691895 -0.37160707
-0.16990001 0.82856363 -0.038218327 -0.4118697 -1.258729 -0.36957914 -0.1698368 0.79965997
-0.041709416 -0.45076457 -1.2493778 -0.36859488 -0.17072527 0.86690986 0.025784649 -0.4372031
-1.2380491 -0.36531606 -0.16943996 0.8913959 -0.02752529 -0.5104478 -1.2278258 -0.36390188
-0.17003195 1.0167913 -0.019975107 -0.5431724 -1.2158437 -0.36135763 -0.16971473 1.097309
0.015494164 -0.6721264 -1.2035456 -0.35935196 -0.17009166 1.1946716 0.05332336 -0.63418084
-1.1890078 -0.35484037 -0.16808784 1.1705551 0.12844527 -0.7345417 -1.1752293 -0.35094598
-0.1666381 1.2177331 0.08986318 -0.79020476 -1.1619213 -0.34797674 -0.16613664 1.3429599
0.06284677 -0.8116707 -1.1473539 -0.34424794 -0.16502619 1.356363 -0.031768568 -0.9542082
-1.1353695 -0.3440596 -0.16741313 1.4300933 -0.00327494 -0.9396265 -1.122021 -0.34219435
-0.1681711 1.4550929 0.1281475 -0.8823097 -1.1064808 -0.33697122 -0.16554649 1.4449763
0.23912273 -1.0113716 -1.0913962 -0.33205494 -0.16318443 1.4535767 0.30163366 -1.1153303
-1.0767893 -0.32759342 -0.16124359 1.5152181 0.35128933 -1.0499699 -1.0603294 -0.32064465
-0.1568201 1.6464797 0.33796915 -1.1253563 -1.0431148 -0.31349224 -0.15230836 1.6245354
0.27025986 -1.2143805 -1.0281947 -0.30884054 -0.1501787 1.6267282 0.2826172 -1.2186304
-1.0134615 -0.30398145 -0.14775929 1.695605 0.18278298 -1.3475095 -1.0004295 -0.30155134
-0.14777711 1.7116365 0.28065386 -1.4111661 -0.987029 -0.29835302 -0.14698504 1.7107576
0.3595617 -1.3744185 -0.9727312 -0.29348263 -0.14443879 1.6754799 0.3660976 -1.4499356
-0.9598907 -0.2898866 -0.14305423 1.6599051 0.2761442 -1.3231179 -0.9472987 -0.2859257
-0.14117625 1.6166879 0.22480738 -1.3241748 -0.93612003 -0.2830857 -0.14029196 1.6263818
0.34606105 -1.2434596 -0.9230195 -0.27746207 -0.13657124 1.5909345 0.3223958 -1.2386767
-0.9108483 -0.2724615 -0.13336848 1.5879695 0.34402832 -1.2481366 -0.8988341 -0.26734167
-0.12998585 1.6261066 0.29658598 -1.1494176 -0.8861618 -0.26121524 -0.12555599 1.6618923
0.24453309 -1.2456489 -0.8747193 -0.25657353 -0.12259049 1.7369322 0.3219129 -1.3942299
-0.86319864 -0.252036 -0.1197613 1.6671184 0.23988512 -1.4258753 -0.8538626 -0.24954244
-0.11885084 1.8076605 0.20871897 -1.4487602 -0.8436166 -0.24628703 -0.11723686 1.924673
00000000: 0dfd a7bf ab3b b8be 51cf 16be 0000 0000
00000010: 0000 0000 0000 0000 0dfd a7bf ab3b b8be
00000020: 51cf 16be 20f9 1f3e 073b d5bd 291a 38be
00000030: c5fd a7bf 1c0e babe 39e4 1abe 31b7 913e
00000040: 3884 7fbc 2a6d a3be 34b6 a7bf fc83 bbbe
00000050: 76ac 1ebe 2ce5 e23e 64a8 2a3d cd64 c4be
00000060: 8709 a7bf 8801 bcbe aaf4 20be 988f 0e3f
00000070: 2017 27bd 8d41 febe 4a5e a6bf 9fa5 bdbe
00000080: eacf 25be c706 173f 60bb 2b3c 973c e5be
00000090: db7d a5bf 0414 bebe 664d 28be 5535 2a3f
000000a0: c020 4dbc d444 c5be 5968 a4bf 5ea5 bdbe
000000b0: 1d2e 29be d4ea 2b3f 8b52 783d fb55 12bf
000000c0: 4872 a3bf 362f bebe 7b15 2cbe a606 2c3f
000000d0: 3ebc 643c a2c9 f4be cd74 a2bf 4843 bebe
000000e0: 45fa 2dbe bf1c 543f d28a 1cbd 96e0 d2be
000000f0: 081e a1bf 7a39 bdbe b3e9 2dbe 84b6 4c3f
00000100: 7ed7 2abd 9dca e6be 9deb 9fbf 78b8 bcbe
00000110: 9bd2 2ebe ceed 5d3f 543a d33c 16d9 dfbe
00000120: 6578 9ebf b50a bbbe ab81 2dbe 8632 643f
00000130: b87c e1bc b5ac 02bf 6529 9dbf 5951 babe
00000140: db1c 2ebe 3826 823f d6a2 a3bc 590d 0bbf
00000150: c4a0 9bbf de03 b9be b3c9 2dbe 9f74 8c3f
00000160: 3cdb 7d3c 7a10 2cbf c80d 9abf fbfc b7be
00000170: 822c 2ebe 00eb 983f 9869 5a3d ad59 22bf
00000180: 6831 98bf a3ad b5be 381f 2cbe c0d4 953f
00000190: 2887 033e ed0a 3cbf ea6d 96bf 31af b3be
000001a0: 2ea3 2abe aede 9b3f 300a b83d dc4a 4abf
000001b0: d6b9 94bf 022a b2be b91f 2abe 1ce6 ab3f
000001c0: cfb5 803d a7c9 4fbf 7edc 92bf 4441 b0be
000001d0: a0fc 28be 4e9d ad3f c21f 02bd fd46 74bf
000001e0: ca53 91bf 9428 b0be 596e 2bbe 4c0d b73f
000001f0: 60a0 56bb 5d8b 70bf 629e 8fbf 1934 afbe
00000200: 0b35 2cbe 7c40 ba3f 1939 033e 0cdf 61bf
00000210: 2aa1 8dbf 7e87 acbe 0585 29be fcf4 b83f
00000220: 97dc 743e a074 81bf dfb2 8bbf 1b03 aabe
00000230: d219 27be cd0e ba3f ba6f 9a3e 25c3 8ebf
00000240: 3bd4 89bf 53ba a7be 0a1d 25be abf2 c13f
00000250: 32dc b33e 6a65 86bf e0b8 87bf 892b a4be
00000260: 7395 20be d9bf d23f 4b0a ad3e ad0b 90bf
00000270: c984 85bf 0e82 a0be b9f6 1bbe c7f0 cf3f
00000280: 805f 8a3e d270 9bbf e29b 83bf 5920 9ebe
00000290: 72c8 19be a138 d03f 34b3 903e 15fc 9bbf
000002a0: 1bb9 81bf 75a3 9bbe 364e 17be 9609 d93f
000002b0: 762b 3b3e 317b acbf 130e 80bf f064 9abe
000002c0: e252 17be e816 db3f ddb1 8f3e 17a1 b4bf
000002d0: efad 7cbf bac1 98be 3f83 16be 1bfa da3f
000002e0: 7918 b83e f2ec afbf e904 79bf 5b43 96be
000002f0: c3e7 13be 2076 d63f 2571 bb3e 7d97 b9bf
00000300: 66bb 75bf 046c 94be cf7c 12be c577 d43f
00000310: c662 8d3e ed5b a9bf 2b82 72bf da64 92be
00000320: 8290 10be a1ef ce3f e833 663e 8f7e a9bf
00000330: 90a5 6fbf 9cf0 90be b2a8 0fbe 472d d03f
00000340: ea2e b13e af29 9fbf 024b 6cbf 820f 8ebe
00000350: 55d9 0bbe bea3 cb3f 1011 a53e f58c 9ebf
00000360: 5b2d 69bf 1380 8bbe bf91 08be 9642 cb3f
00000370: 7b24 b03e f1c2 9fbf fe19 66bf 02e1 88be
00000380: 031b 05be 4324 d03f 1eda 973e 1e20 93bf
00000390: 80db 62bf 01be 85be c091 00be e3b8 d43f
000003a0: e266 7a3e 6c71 9fbf 9bed 5fbf 9b5d 83be
000003b0: b910 fbbd cb53 de3f c5d1 a43e 2076 b2bf
000003c0: 96fa 5cbf dd0a 81be 6a45 f5bd 2364 d53f
000003d0: 72a4 753e 1583 b6bf bd96 5abf 0e88 7fbe
000003e0: 1268 f3bd 6b61 e73f 6dba 553e f970 b9bf
000003f0: 42f7 57bf ab32 7cbe e119 f0bd af5b f63f

theta f4 [10901]
0.2 0.2 0.19967891 0.19967891 0.19967891 0.19967891 0.19967891 0.19967891
0.19967891 1.8854456 1.8854456 1.8854456 0.71058667 0.71058667 0.71058667 2.151802
20.785885 20.785885 20.785885 20.785885 20.785885 20.785885 20.785885 20.785885
20.785885 20.785885 20.785885 20.785885 20.785885 20.785885 20.785885 20.785885
20.785885 20.785885 20.785885 20.785885 20.785885 20.785885 20.785885 20.785885
20.785885 20.785885 20.785885 20.785885 20.785885 20.785885 20.785885 20.785885
20.785885 20.785885 20.785885 20.785885 20.785885 20.785885 20.785885 20.785885
20.785885 20.785885 20.785885 20.785885 20.785885 20.785885 20.785885 20.785885
20.785885 20.785885 20.785885 20.785885 20.785885 20.785885 20.785885 20.785885
20.785885 20.785885 20.785885 20.785885 20.785885 20.785885 20.785885 20.785885
20.785885 20.785885 20.785885 20.785885 20.785885 20.785885 20.785885 20.785885
20.785885 20.785885 20.785885 20.785885 20.785885 20.785885 20.785885 20.785885
20.785885 20.785885 20.785885 20.785885 20.785885 20.785885 20.785885 20.785885
20.785885 20.785885 20.785885 20.785885 20.785885 20.785885 20.785885 20.785885
20.785885 20.785885 20.785885 20.785885 20.785885 20.785885 20.785885 20.785885
20.785885 20.785885 20.785885 20.785885 20.785885 20.785885 20.785885 20.785885
20.785885 20.785885 20.785885 20.785885 20.785885 20.785885 20.785885 20.785885
20.785885 20.785885 20.785885 20.785885 20.785885 20.785885 20.785885 20.785885
20.785885 20.785885 20.785885 20.785885 20.785885 20.785885 20.785885 20.785885
20.785885 20.785885 20.785885 20.785885 20.785885 20.785885 20.785885 20.785885
20.785885 20.785885 20.785885 20.785885 20.785885 20.785885 20.785885 20.785885
20.785885 20.785885 20.785885 20.785885 20.785885 20.785885 20.785885 20.785885
20.785885 20.785885 20.785885 20.785885 20.785885 20.785885 20.785885 20.785885
20.785885 20.785885 20.785885 20.785885 20.785885 20.785885 20.785885 20.785885
20.785885 20.785885 20.785885 20.785885 20.785885 20.785885 20.785885 20.785885
20.785885 20.785885 20.785885 20.785885 20.785885 20.785885 20.785885 20.785885
20.785885 20.785885 20.785885 20.785885 20.785885 20.785885 20.785885 20.785885
20.785885 20.785885 20.785885 20.785885 20.785885 20.785885 20.785885 20.785885
20.785885 20.785885 20.785885 20.785885 20.785885 20.785885 20.785885 20.785885
20.785885 20.785885 20.785885 20.785885 20.785885 20.785885 20.785885 20.785885
20.785885 20.785885 20.785885 20.785885 20.785885 20.785885 20.785885 20.785885
20.785885 20.785885 20.785885 20.785885 20.785885 20.785885 20.785885 20.785885
00000000: cdcc 4c3e cdcc 4c3e a178 4c3e a178 4c3e
00000010: a178 4c3e a178 4c3e a178 4c3e a178 4c3e
00000020: a178 4c3e 4856 f13f 4856 f13f 4856 f13f
00000030: 02e9 353f 02e9 353f 02e9 353f 20b7 0940
00000040: 7e49 a641 7e49 a641 7e49 a641 7e49 a641
00000050: 7e49 a641 7e49 a641 7e49 a641 7e49 a641
00000060: 7e49 a641 7e49 a641 7e49 a641 7e49 a641
00000070: 7e49 a641 7e49 a641 7e49 a641 7e49 a641
00000080: 7e49 a641 7e49 a641 7e49 a641 7e49 a641
00000090: 7e49 a641 7e49 a641 7e49 a641 7e49 a641
000000a0: 7e49 a641 7e49 a641 7e49 a641 7e49 a641
000000b0: 7e49 a641 7e49 a641 7e49 a641 7e49 a641
000000c0: 7e49 a641 7e49 a641 7e49 a641 7e49 a641
000000d0: 7e49 a641 7e49 a641 7e49 a641 7e49 a641
000000e0: 7e49 a641 7e49 a641 7e49 a641 7e49 a641
000000f0: 7e49 a641 7e49 a641 7e49 a641 7e49 a641
00000100: 7e49 a641 7e49 a641 7e49 a641 7e49 a641
00000110: 7e49 a641 7e49 a641 7e49 a641 7e49 a641
00000120: 7e49 a641 7e49 a641 7e49 a641 7e49 a641
00000130: 7e49 a641 7e49 a641 7e49 a641 7e49 a641
00000140: 7e49 a641 7e49 a641 7e49 a641 7e49 a641
00000150: 7e49 a641 7e49 a641 7e49 a641 7e49 a641
00000160: 7e49 a641 7e49 a641 7e49 a641 7e49 a641
00000170: 7e49 a641 7e49 a641 7e49 a641 7e49 a641
00000180: 7e49 a641 7e49 a641 7e49 a641 7e49 a641
00000190: 7e49 a641 7e49 a641 7e49 a641 7e49 a641
000001a0: 7e49 a641 7e49 a641 7e49 a641 7e49 a641
000001b0: 7e49 a641 7e49 a641 7e49 a641 7e49 a641
000001c0: 7e49 a641 7e49 a641 7e49 a641 7e49 a641
000001d0: 7e49 a641 7e49 a641 7e49 a641 7e49 a641
000001e0: 7e49 a641 7e49 a641 7e49 a641 7e49 a641
000001f0: 7e49 a641 7e49 a641 7e49 a641 7e49 a641
00000200: 7e49 a641 7e49 a641 7e49 a641 7e49 a641
00000210: 7e49 a641 7e49 a641 7e49 a641 7e49 a641
00000220: 7e49 a641 7e49 a641 7e49 a641 7e49 a641
00000230: 7e49 a641 7e49 a641 7e49 a641 7e49 a641
00000240: 7e49 a641 7e49 a641 7e49 a641 7e49 a641
00000250: 7e49 a641 7e49 a641 7e49 a641 7e49 a641
00000260: 7e49 a641 7e49 a641 7e49 a641 7e49 a641
00000270: 7e49 a641 7e49 a641 7e49 a641 7e49 a641
00000280: 7e49 a641 7e49 a641 7e49 a641 7e49 a641
00000290: 7e49 a641 7e49 a641 7e49 a641 7e49 a641
000002a0: 7e49 a641 7e49 a641 7e49 a641 7e49 a641
000002b0: 7e49 a641 7e49 a641 7e49 a641 7e49 a641
000002c0: 7e49 a641 7e49 a641 7e49 a641 7e49 a641
000002d0: 7e49 a641 7e49 a641 7e49 a641 7e49 a641
000002e0: 7e49 a641 7e49 a641 7e49 a641 7e49 a641
000002f0: 7e49 a641 7e49 a641 7e49 a641 7e49 a641
00000300: 7e49 a641 7e49 a641 7e49 a641 7e49 a641
00000310: 7e49 a641 7e49 a641 7e49 a641 7e49 a641
00000320: 7e49 a641 7e49 a641 7e49 a641 7e49 a641
00000330: 7e49 a641 7e49 a641 7e49 a641 7e49 a641
00000340: 7e49 a641 7e49 a641 7e49 a641 7e49 a641
00000350: 7e49 a641 7e49 a641 7e49 a641 7e49 a641
00000360: 7e49 a641 7e49 a641 7e49 a641 7e49 a641
00000370: 7e49 a641 7e49 a641 7e49 a641 7e49 a641
00000380: 7e49 a641 7e49 a641 7e49 a641 7e49 a641
00000390: 7e49 a641 7e49 a641 7e49 a641 7e49 a641
000003a0: 7e49 a641 7e49 a641 7e49 a641 7e49 a641
000003b0: 7e49 a641 7e49 a641 7e49 a641 7e49 a641
000003c0: 7e49 a641 7e49 a641 7e49 a641 7e49 a641
000003d0: 7e49 a641 7e49 a641 7e49 a641 7e49 a641
000003e0: 7e49 a641 7e49 a641 7e49 a641 7e49 a641
000003f0: 7e49 a641 7e49 a641 7e49 a641 7e49 a641
