main/template_estimation/simple_models/ms_theta_iter_16400.npz (npz, 84520 bytes, 3 tensors)

Wt f4 [5, 101, 3]
000000 00 00 00 00 00 00 00 00 00 00 00 00 5c 9a 12 be
       0.0 0.0 0.0 -0.14316696
000010 cf e9 90 bd 73 35 bf bd 99 78 b0 be f0 8d 8b 3d
       -0.070758455 -0.093363665 -0.3446701 0.06814182
000020 96 4a 62 3d 08 f6 de be 2a 8e c8 3d ff 3f 02 3e
       0.055246912 -0.43547082 0.09792741 0.12719725
000030 b3 f4 3f bf c2 ab 20 3e 78 78 84 3c f6 57 38 bf
       -0.74982756 0.1569052 0.016170725 -0.7200922
000040 2a ec bc 3d 00 ba a9 3e c6 ea 46 bf e5 6a 0d 3e
       0.09224732 0.3314972 -0.77701986 0.13810308
000050 04 29 1b 3f c7 26 8f bf 7e 5e 34 3e bc 52 3b 3f
       0.6060946 -1.1183709 0.17614171 0.7317312
000060 60 95 b3 bf 0b 1d 47 3e 10 8e 5b 3f a9 16 ba bf
       -1.4029961 0.19444673 0.85763645 -1.4538165
000070 46 7e d4 3e 2a 27 50 3f 0c 47 b1 bf 0f 5a 2f 3f
       0.4150259 0.8130976 -1.3849807 0.68496794
000080 2a 89 95 3f 6b 2d dc bf e7 a4 1d 3f 7f 3a c1 3f
       1.1682484 -1.720136 0.61579746 1.5095977
000090 da 32 e9 bf be 01 f1 3e ef a3 cf 3f cd 61 04 c0
       -1.8218644 0.47071642 1.6221904 -2.0684693
0000a0 13 66 05 3f 62 59 da 3f f7 8c 11 c0 65 11 15 3f
       0.5210888 1.7058527 -2.2742288 0.58229667
0000b0 52 6a eb 3f ce c3 24 c0 ec 32 05 3f df 4c fd 3f
       1.8391821 -2.574451 0.52030826 1.9789084
0000c0 b5 54 33 c0 29 f2 16 3f 53 0b 08 40 14 b4 3e c0
       -2.802045 0.5896326 2.1256912 -2.979741
0000d0 0a a2 35 3f b8 b8 14 40 39 c8 48 c0 65 1f 59 3f
       0.70950377 2.3237743 -3.1372206 0.8481353
0000e0 bf 30 08 40 cb 8e 56 c0 d2 b3 70 3f 0e 2b 11 40
       2.1279752 -3.3524654 0.94024384 2.2682528
0000f0 c9 b9 61 c0 f1 2f 88 3f 2f 7f 17 40 d9 7c 77 c0
       -3.5269644 1.063963 2.3671377 -3.866995
000100 7b ae 63 3f 16 38 2f 40 e4 50 83 c0 3c 84 87 3f
       0.8893811 2.7377982 -4.1036243 1.058723
000110 1c ec 36 40 70 fa 88 c0 fb 82 93 3f 50 97 34 40
       2.858161 -4.280571 1.1524347 2.8217354
000120 78 97 89 c0 2a 5f 8f 3f c7 e5 30 40 80 17 91 c0
       -4.29974 1.1200917 2.7640245 -4.5341187
000130 cc d1 98 3f e2 50 37 40 d8 a4 93 c0 2f 00 9f 3f
       1.1939025 2.8643117 -4.6138725 1.2421931
000140 f6 90 3b 40 ac b3 90 c0 e5 ae b7 3f e6 5f 3d 40
       2.9307227 -4.5219326 1.4350249 2.9589782
000150 3f 90 94 c0 e0 0f d1 3f 83 b5 3c 40 ad 43 9b c0
       -4.642608 1.633297 2.9485786 -4.852011
000160 74 65 fa 3f 08 7a 4a 40 40 46 a3 c0 1b 38 ed 3f
       1.9562211 3.1636982 -5.1023254 1.8532747
000170 00 b8 5d 40 7d 34 ab c0 9b a6 09 40 bf 5d 68 40
       3.4643555 -5.3501573 2.1507938 3.6307218
000180 72 1c af c0 ae 12 03 40 41 94 74 40 a9 62 b3 c0
       -5.4722223 2.048015 3.8215487 -5.6057935
000190 b5 af 05 40 0b e2 69 40 da 7d bb c0 2d 85 11 40
       2.0888493 3.6544216 -5.8591127 2.2737534
0001a0 31 0f 66 40 ff 23 c2 c0 73 77 1a 40 6f 23 72 40
       3.5946772 -6.066894 2.4135406 3.7834127
0001b0 77 e6 c7 c0 91 f5 27 40 18 8d 83 40 b3 a3 d1 c0
       -6.246883 2.6243632 4.1109734 -6.551233
0001c0 3a f9 27 40 bc 90 8a 40 e2 2a da c0 dc cb 2f 40
       2.6245866 4.330168 -6.8177347 2.7468176
0001d0 18 4f 91 40 59 36 df c0 0a a2 2f 40 7d 65 94 40
       4.540905 -6.975384 2.744265 4.6373887
0001e0 46 e5 e2 c0 8b 5d 2e 40 cd a3 95 40 d8 07 eb c0
       -7.0904875 2.7244594 4.676245 -7.3447075
0001f0 68 eb 28 40 d4 c9 9b 40 25 c4 f2 c0 6c 0c 2a 40
       2.639368 4.868387 -7.5864434 2.6570082
000200 3e 84 9d 40 f8 6a fb c0 81 2f 26 40 ec e0 9a 40
       4.922393 -7.8568077 2.5966494 4.8399563
000210 d8 6a fe c0 2d cd 32 40 29 3a a0 40 28 3c 01 c1
       -7.9505424 2.793773 5.0070996 -8.077187
000220 1d 6e 37 40 59 c5 a6 40 86 a0 02 c1 52 08 41 40
       2.8660958 5.2115903 -8.16419 3.0161328
000230 3a ae ab 40 28 5b 04 c1 d1 9b 45 40 6e 46 b0 40
       5.365018 -8.272255 3.0876353 5.5085974
000240 ee 3e 08 c1 0c fa 4e 40 66 4c b6 40 ee 78 0a c1
       -8.515364 3.2340117 5.696826 -8.654524
000250 3c 90 52 40 b2 e5 bb 40 40 7a 0f c1 e8 25 66 40
       3.2900534 5.871789 -8.967346 3.5960636
000260 f5 ef c2 40 2b be 11 c1 24 fa 67 40 f6 e2 c8 40
       6.0917916 -9.108928 3.6246424 6.277705
000270 04 d9 12 c1 4b ed 6b 40 ef 51 cd 40 72 66 14 c1
       -9.177982 3.6863582 6.4162517 -9.275011
000280 61 70 70 40 50 7a d4 40 00 74 18 c1 02 77 74 40
       3.756859 6.6399307 -9.52832 3.8197637
000290 03 89 d2 40 b1 ba 1a c1 8c 95 76 40 63 ed d2 40
       6.579225 -9.670579 3.8528776 6.591478
0002a0 6a ef 1d c1 5f 9e 7f 40 c7 8b d8 40 91 f7 1d c1
       -9.870951 3.9940412 6.7670627 -9.872941
0002b0 c6 6d 81 40 28 8e da 40 05 14 22 c1 a2 79 82 40
       4.04465 6.829853 -10.129888 4.0773478
0002c0 aa 2c dd 40 6a ea 20 c1 41 98 80 40 22 19 de 40
       6.911702 -10.05723 4.0185857 6.940568
0002d0 e3 54 23 c1 41 90 82 40 9e 7a df 40 d0 70 26 c1
       -10.208224 4.080109 6.983718 -10.402542
0002e0 e4 71 77 40 8c e0 de 40 4a 55 2a c1 30 2d 73 40
       3.8663263 6.9649105 -10.645823 3.799633
0002f0 03 c6 e2 40 ca ee 2b c1 50 69 68 40 3d 65 e2 40
       7.0866714 -10.745798 3.6314278 7.074858
000300 1d 06 2b c1 11 ee 62 40 bb 50 e7 40 a0 4a 2c c1
       -10.6889925 3.5457804 7.228605 -10.768219
000310 52 95 68 40 12 1c e5 40 9a 8d 2c c1 ce 0f 70 40
       3.6341138 7.1596766 -10.784571 3.7509646
000320 86 cc e9 40 cc b4 2e c1 e4 6b 81 40 95 55 eb 40
       7.3062162 -10.91914 4.0444202 7.354197
000330 2f ec 2f c1 62 0a 86 40 5d 95 ec 40 13 34 30 c1
       -10.995162 4.1887674 7.393233 -11.012713
000340 23 14 84 40 70 10 f0 40 69 7a 31 c1 b1 6b 82 40
       4.127458 7.5020065 -11.092385 4.075646
000350 73 40 f0 40 7e 39 34 c1 f7 c6 80 40 94 24 ec 40
       7.5078673 -11.264036 4.0242877 7.379465
000360 d1 e5 33 c1 76 d3 83 40 24 e6 ed 40 0c 57 37 c1
       -11.2436075 4.119563 7.4343433 -11.458752
000370 a8 9f 84 40 5f 5b ed 40 ee 29 38 c1 29 59 85 40
       4.1444893 7.4174037 -11.510237 4.167134
000380 2a 7a ed 40 8f f6 38 c1 8b ce 86 40 50 88 ed 40
       7.4211626 -11.560195 4.212713 7.4228897
000390 64 33 39 c1 15 ff 85 40 7f fb ee 40 b9 4c 3a c1
       -11.575047 4.187388 7.4682 -11.643731
0003a0 bc bd 87 40 6c 74 ed 40 06 55 3a c1 dd 10 89 40
       4.241911 7.4204617 -11.645758 4.2833085
0003b0 40 84 ef 40 34 bc 3b c1 b0 49 89 40 ee 8c f2 40
       7.484894 -11.733448 4.290245 7.5797033
0003c0 7a 49 3b c1 01 4c 8a 40 44 d2 f3 40 03 73 3a c1
       -11.705439 4.321778 7.619417 -11.653079
0003d0 e7 9b 8d 40 78 5b f5 40 81 46 3a c1 5e 44 8d 40
       4.425281 7.6674156 -11.642213 4.4145956
0003e0 6c e1 f4 40 db 27 3a c1 65 b3 8a 40 ac 0c f3 40
       7.6525173 -11.63473 4.3343987 7.595297
0003f0 a7 6c 3a c1 cc 0b 89 40 62 7b f3 40 68 03 3a c1
       -11.651526 4.28269 7.6088114 -11.625832

Xt f4 [5, 101, 6]
000000 10 61 9d bf 61 df 9d be d2 92 d0 bd 00 00 00 00
       -1.2295246 -0.30834487 -0.10184254 0.0
000010 00 00 00 00 00 00 00 00 10 61 9d bf 61 df 9d be
       0.0 0.0 -1.2295246 -0.30834487
000020 d2 92 d0 bd e9 07 b0 3d 11 8e 8d bd 1e 0e 20 be
       -0.10184254 0.08595259 -0.06911863 -0.15630385
000030 32 7c 9d bf bb 8b 9f be f8 c5 d7 bd bb 56 0d 3e
       -1.2303526 -0.31161293 -0.105358064 0.13802616
000040 40 45 3d bc 88 19 29 be e1 60 9d bf 20 5f a0 be
       -0.011552155 -0.16513646 -1.229519 -0.31322575
000050 6e e4 db bd af 38 82 3e 99 83 a8 bc f1 89 63 be
       -0.10736929 0.2543387 -0.020570563 -0.22220589
000060 74 13 9d bf a9 12 a1 be 74 1d e0 bd ff 29 74 3e
       -1.2271562 -0.3145955 -0.10943118 0.23844145
000070 c0 86 55 bc 82 98 c4 be 47 04 9d bf e8 56 a3 be
       -0.013032615 -0.38397604 -1.226693 -0.31902242
000080 d7 a3 ea bd 8c 59 da 3e 25 9e 93 bd 41 ce 96 be
       -0.11457031 0.42646444 -0.07207898 -0.29454234
000090 04 7c 9c bf 43 18 a4 be 0a e1 ef bd 02 86 0e 3f
       -1.2225347 -0.3204976 -0.11712845 0.5567323
0000a0 b0 a8 93 bd 4a a2 6d be 7a 91 9b bf ab 69 a3 be
       -0.07209909 -0.2320644 -1.2153771 -0.31916556
0000b0 b9 e5 ef bd 37 77 04 3f e4 cc a7 bd fb 00 85 be
       -0.11713738 0.5174441 -0.08193377 -0.2597731
0000c0 33 cf 9a bf cf 51 a3 be 04 0e f2 bd 97 74 04 3f
       -1.2094482 -0.31898353 -0.118190795 0.517404
0000d0 c4 a8 d2 bd c3 0a 93 be 60 21 9a bf cc a8 a3 be
       -0.10286096 -0.28719148 -1.2041435 -0.3196472
0000e0 be e7 f5 bd 67 11 28 3f c0 59 dd bb 4d 35 d3 be
       -0.12007092 0.65651554 -0.006755084 -0.41251603
0000f0 a7 26 99 bf e1 5a a3 be 6c eb f7 bd a8 98 5b 3f
       -1.1964921 -0.31905273 -0.1210545 0.8577981
000100 7e 8f ef 3d 56 6f 9d be fb 65 97 bf 5a b2 9f be
       0.11697291 -0.30749005 -1.1827997 -0.3119076
000110 a1 59 ed bd 4e df 4f 3f f5 ce 09 3d 1c 8a 62 be
       -0.11589361 0.8120011 0.033644635 -0.22122997
000120 4c ca 95 bf 83 52 9c be 4d 83 e3 bd 81 91 68 3f
       -1.1702361 -0.305317 -0.11109028 0.9084702
000130 2b 4c c5 bd ed 60 89 be 28 3f 94 bf e3 f1 99 be
       -0.096336685 -0.2683176 -1.1581774 -0.30067357
000140 97 ef dd bd 69 b0 6b 3f f4 84 e3 bd c2 1c a7 be
       -0.10836714 0.92066056 -0.11109343 -0.32639128
000150 7d cb 92 bf f5 1e 98 be 67 90 da bd 3b 8a 75 3f
       -1.146835 -0.29711118 -0.10672074 0.9591405
000160 2a ee f2 bd 32 5a b5 be ee 53 91 bf 24 5a 96 be
       -0.118618324 -0.35420376 -1.1353738 -0.29365647
000170 da 7d d7 bd 65 88 71 3f e2 b1 4a be 18 9d c1 be
       -0.10522051 0.94348747 -0.1979442 -0.37815166
000180 8d 11 90 bf 01 8d 95 be df 19 d8 bd aa b3 79 3f
       -1.1255356 -0.2920914 -0.105518095 0.9753977
000190 a0 57 4c be 1e 2c ca be 62 c9 8e bf a1 ae 94 be
       -0.19955301 -0.39486784 -1.1155207 -0.2903948
0001a0 06 7c d8 bd 89 b3 84 3f fe 0d 31 be 40 cd c3 be
       -0.105705306 1.036729 -0.17290494 -0.3824253
0001b0 8b 57 8d bf 70 16 93 be 7c 1c d6 bd 9f bf 8d 3f
       -1.1042341 -0.28728056 -0.10454652 1.1074103
0001c0 10 0c 0e be 95 a9 19 bf a4 ff 8b bf 55 8d 92 be
       -0.13871789 -0.60024387 -1.093739 -0.28623453
0001d0 0f 46 d8 bd 26 52 92 3f ea 73 00 be 79 38 1e bf
       -0.105602376 1.143132 -0.12544218 -0.6180492
0001e0 72 9c 8a bf 07 cc 91 be ca 96 d9 bd bb cf 99 3f
       -1.0828993 -0.28475973 -0.10624464 1.2016519
0001f0 f7 60 c2 bd 38 12 29 bf e8 23 89 bf 3f bf 90 be
       -0.09491151 -0.66043425 -1.0714083 -0.2827091
000200 6f d9 d9 bd ee ba 94 3f ec fa 72 be 5c e3 0b bf
       -0.10637175 1.1619546 -0.23728532 -0.546438
000210 0a d8 87 bf b6 22 90 be 85 7a db bd 6a 2f 98 3f
       -1.0612805 -0.28151482 -0.10716728 1.188947
000220 16 f6 3a be 0f 68 13 bf 1c 7a 86 bf 8e 1f 8f be
       -0.18257937 -0.57580656 -1.0506015 -0.27953762
000230 28 86 db bd ef f2 9f 3f bd 3b 31 be b9 a5 32 bf
       -0.10718948 1.2496012 -0.17307945 -0.6978412
000240 47 28 85 bf f0 97 8e be 75 a4 dd bd 3b 2a b3 3f
       -1.0402917 -0.27850294 -0.10822383 1.3997263
000250 6a b6 6e be 94 1e 54 bf 87 d3 83 bf 0f 9d 8e be
       -0.23311773 -0.8285916 -1.0298928 -0.278542
000260 2d 56 e2 bd 29 96 b5 3f a0 c1 68 be 4d 6a 5c bf
       -0.11051593 1.418645 -0.22730112 -0.860997
000270 0d 86 82 bf af a9 8e be 77 14 e7 bd 69 60 c3 3f
       -1.0197159 -0.27863833 -0.112832 1.5263797
000280 89 24 71 be 55 71 69 bf 28 20 81 bf a4 79 8e be
       -0.23549093 -0.91188556 -1.0087938 -0.2782718
000290 fb 10 eb bd e1 fe dc 3f 80 50 23 be 20 8a 7b bf
       -0.11477848 1.7265283 -0.15948677 -0.9825764
0002a0 d1 bd 7e bf 87 0a 8d be 9c 89 ea bd 65 d2 e4 3f
       -0.99508387 -0.27547094 -0.11452028 1.7876707
0002b0 c9 d7 a7 bd 10 d3 89 bf 8d 1a 7b bf 05 52 8b be
       -0.081954546 -1.0767536 -0.9808739 -0.27211013
0002c0 8f e9 e8 bd 59 41 e5 3f 9a 28 8d 3d 61 26 85 bf
       -0.11372673 1.7910568 0.0689251 -1.0402337
0002d0 f9 05 77 bf 47 2e 88 be 30 79 e1 bd 9f ec e1 3f
       -0.9649349 -0.26597807 -0.11009443 1.7650336
0002e0 8e 57 02 bd 70 57 76 bf 1c 35 73 bf 73 55 85 be
       -0.03182178 -0.9622717 -0.95002913 -0.26041755
0002f0 f1 e4 da bd b9 29 df 3f ba 49 c7 3d 23 b0 75 bf
       -0.10688198 1.7434608 0.09730859 -0.9597189
000300 cb 2e 6f bf b5 a9 81 be df d6 d0 bd 0a 6e e5 3f
       -0.93430775 -0.2532479 -0.101972334 1.7924206
000310 30 16 0f bc 9e 04 73 bf 16 55 6b bf 4e c5 7c be
       -0.008733317 -0.9492892 -0.91926706 -0.24684641
000320 8e 46 c8 bd f0 9f ea 3f be e7 fd bc e6 12 92 bf
       -0.09779082 1.8330059 -0.030994292 -1.1412017
000330 c5 f2 67 bf 8d a6 78 be c7 90 c4 bd eb c7 e6 3f
       -0.9060481 -0.24282284 -0.095979266 1.802976
000340 34 90 1d 3d e1 85 a1 bf b5 d8 64 bf 44 78 75 be
       0.0384676 -1.2618982 -0.8939317 -0.23971659
000350 ec 8e c2 bd e8 66 e6 3f 79 de af 3d 87 47 9e bf
       -0.094999164 1.8000154 0.08587355 -1.2365578
000360 1a a4 61 bf 90 4d 71 be ad 6b be bd e4 ca e7 3f
       -0.88141024 -0.23564744 -0.09297881 1.8108792
000370 e3 a6 2f 3e 6f 23 91 bf 9f 00 5e bf 0f 8d 6a be
       0.17153506 -1.1338938 -0.867197 -0.22905372
000380 96 fa b4 bd f2 60 df 3f 0d 66 02 3e 40 22 8d bf
       -0.08836858 1.745146 0.12734242 -1.1026077
000390 da b0 5a bf 36 ac 64 be 61 fd ac bd 6b 90 da 3f
       -0.85426104 -0.22331318 -0.08446766 1.7075323
0003a0 84 e6 1c 3e ae a9 89 bf d6 6f 57 bf ae 88 5e be
       0.1532231 -1.0754907 -0.84155023 -0.21731827
0003b0 89 46 a4 bd d1 22 de 3f d5 95 d5 3d 2e 09 8f bf
       -0.08021266 1.7354375 0.10428969 -1.1174676
0003c0 c9 62 54 bf 0b 43 59 be c3 38 9d bd a1 c4 e4 3f
       -0.82963234 -0.21216981 -0.07676842 1.7872506
0003d0 bc 41 43 3d da 30 98 bf a8 8c 51 bf e1 09 55 be
       0.04767011 -1.1889908 -0.8185525 -0.2080455
0003e0 4e 3d 98 bd 78 c4 e0 3f ca 94 2e bd b8 43 95 bf
       -0.07433568 1.7559958 -0.042622365 -1.1661291
0003f0 33 0b 4f bf 53 ef 51 be a6 4b 95 bd 3a 4f de 3f
       -0.80876464 -0.20501451 -0.072898194 1.7367928

theta f4 [16401]
000000 cd cc 4c 3e cd cc 4c 3e a1 78 4c 3e a1 78 4c 3e
       0.2 0.2 0.19967891 0.19967891
000010 a1 78 4c 3e a1 78 4c 3e a1 78 4c 3e a1 78 4c 3e
       0.19967891 0.19967891 0.19967891 0.19967891
000020 a1 78 4c 3e 48 56 f1 3f 48 56 f1 3f 48 56 f1 3f
       0.19967891 1.8854456 1.8854456 1.8854456
000030 02 e9 35 3f 02 e9 35 3f 02 e9 35 3f 20 b7 09 40
       0.71058667 0.71058667 0.71058667 2.151802
000040 7e 49 a6 41 7e 49 a6 41 7e 49 a6 41 7e 49 a6 41
       20.785885 20.785885 20.785885 20.785885
000050 7e 49 a6 41 7e 49 a6 41 7e 49 a6 41 7e 49 a6 41
       20.785885 20.785885 20.785885 20.785885
000060 7e 49 a6 41 7e 49 a6 41 7e 49 a6 41 7e 49 a6 41
       20.785885 20.785885 20.785885 20.785885
000070 7e 49 a6 41 7e 49 a6 41 7e 49 a6 41 7e 49 a6 41
       20.785885 20.785885 20.785885 20.785885
000080 7e 49 a6 41 7e 49 a6 41 7e 49 a6 41 7e 49 a6 41
       20.785885 20.785885 20.785885 20.785885
000090 7e 49 a6 41 7e 49 a6 41 7e 49 a6 41 7e 49 a6 41
       20.785885 20.785885 20.785885 20.785885
0000a0 7e 49 a6 41 7e 49 a6 41 7e 49 a6 41 7e 49 a6 41
       20.785885 20.785885 20.785885 20.785885
0000b0 7e 49 a6 41 7e 49 a6 41 7e 49 a6 41 7e 49 a6 41
       20.785885 20.785885 20.785885 20.785885
0000c0 7e 49 a6 41 7e 49 a6 41 7e 49 a6 41 7e 49 a6 41
       20.785885 20.785885 20.785885 20.785885
0000d0 7e 49 a6 41 7e 49 a6 41 7e 49 a6 41 7e 49 a6 41
       20.785885 20.785885 20.785885 20.785885
0000e0 7e 49 a6 41 7e 49 a6 41 7e 49 a6 41 7e 49 a6 41
       20.785885 20.785885 20.785885 20.785885
0000f0 7e 49 a6 41 7e 49 a6 41 7e 49 a6 41 7e 49 a6 41
       20.785885 20.785885 20.785885 20.785885
000100 7e 49 a6 41 7e 49 a6 41 7e 49 a6 41 7e 49 a6 41
       20.785885 20.785885 20.785885 20.785885
000110 7e 49 a6 41 7e 49 a6 41 7e 49 a6 41 7e 49 a6 41
       20.785885 20.785885 20.785885 20.785885
000120 7e 49 a6 41 7e 49 a6 41 7e 49 a6 41 7e 49 a6 41
       20.785885 20.785885 20.785885 20.785885
000130 7e 49 a6 41 7e 49 a6 41 7e 49 a6 41 7e 49 a6 41
       20.785885 20.785885 20.785885 20.785885
000140 7e 49 a6 41 7e 49 a6 41 7e 49 a6 41 7e 49 a6 41
       20.785885 20.785885 20.785885 20.785885
000150 7e 49 a6 41 7e 49 a6 41 7e 49 a6 41 7e 49 a6 41
       20.785885 20.785885 20.785885 20.785885
000160 7e 49 a6 41 7e 49 a6 41 7e 49 a6 41 7e 49 a6 41
       20.785885 20.785885 20.785885 20.785885
000170 7e 49 a6 41 7e 49 a6 41 7e 49 a6 41 7e 49 a6 41
       20.785885 20.785885 20.785885 20.785885
000180 7e 49 a6 41 7e 49 a6 41 7e 49 a6 41 7e 49 a6 41
       20.785885 20.785885 20.785885 20.785885
000190 7e 49 a6 41 7e 49 a6 41 7e 49 a6 41 7e 49 a6 41
       20.785885 20.785885 20.785885 20.785885
0001a0 7e 49 a6 41 7e 49 a6 41 7e 49 a6 41 7e 49 a6 41
       20.785885 20.785885 20.785885 20.785885
0001b0 7e 49 a6 41 7e 49 a6 41 7e 49 a6 41 7e 49 a6 41
       20.785885 20.785885 20.785885 20.785885
0001c0 7e 49 a6 41 7e 49 a6 41 7e 49 a6 41 7e 49 a6 41
       20.785885 20.785885 20.785885 20.785885
0001d0 7e 49 a6 41 7e 49 a6 41 7e 49 a6 41 7e 49 a6 41
       20.785885 20.785885 20.785885 20.785885
0001e0 7e 49 a6 41 7e 49 a6 41 7e 49 a6 41 7e 49 a6 41
       20.785885 20.785885 20.785885 20.785885
0001f0 7e 49 a6 41 7e 49 a6 41 7e 49 a6 41 7e 49 a6 41
       20.785885 20.785885 20.785885 20.785885
000200 7e 49 a6 41 7e 49 a6 41 7e 49 a6 41 7e 49 a6 41
       20.785885 20.785885 20.785885 20.785885
000210 7e 49 a6 41 7e 49 a6 41 7e 49 a6 41 7e 49 a6 41
       20.785885 20.785885 20.785885 20.785885
000220 7e 49 a6 41 7e 49 a6 41 7e 49 a6 41 7e 49 a6 41
       20.785885 20.785885 20.785885 20.785885
000230 7e 49 a6 41 7e 49 a6 41 7e 49 a6 41 7e 49 a6 41
       20.785885 20.785885 20.785885 20.785885
000240 7e 49 a6 41 7e 49 a6 41 7e 49 a6 41 7e 49 a6 41
       20.785885 20.785885 20.785885 20.785885
000250 7e 49 a6 41 7e 49 a6 41 7e 49 a6 41 7e 49 a6 41
       20.785885 20.785885 20.785885 20.785885
000260 7e 49 a6 41 7e 49 a6 41 7e 49 a6 41 7e 49 a6 41
       20.785885 20.785885 20.785885 20.785885
000270 7e 49 a6 41 7e 49 a6 41 7e 49 a6 41 7e 49 a6 41
       20.785885 20.785885 20.785885 20.785885
000280 7e 49 a6 41 7e 49 a6 41 7e 49 a6 41 7e 49 a6 41
       20.785885 20.785885 20.785885 20.785885
000290 7e 49 a6 41 7e 49 a6 41 7e 49 a6 41 7e 49 a6 41
       20.785885 20.785885 20.785885 20.785885
0002a0 7e 49 a6 41 7e 49 a6 41 7e 49 a6 41 7e 49 a6 41
       20.785885 20.785885 20.785885 20.785885
0002b0 7e 49 a6 41 7e 49 a6 41 7e 49 a6 41 7e 49 a6 41
       20.785885 20.785885 20.785885 20.785885
0002c0 7e 49 a6 41 7e 49 a6 41 7e 49 a6 41 7e 49 a6 41
       20.785885 20.785885 20.785885 20.785885
0002d0 7e 49 a6 41 7e 49 a6 41 7e 49 a6 41 7e 49 a6 41
       20.785885 20.785885 20.785885 20.785885
0002e0 7e 49 a6 41 7e 49 a6 41 7e 49 a6 41 7e 49 a6 41
       20.785885 20.785885 20.785885 20.785885
0002f0 7e 49 a6 41 7e 49 a6 41 7e 49 a6 41 7e 49 a6 41
       20.785885 20.785885 20.785885 20.785885
000300 7e 49 a6 41 7e 49 a6 41 7e 49 a6 41 7e 49 a6 41
       20.785885 20.785885 20.785885 20.785885
000310 7e 49 a6 41 7e 49 a6 41 7e 49 a6 41 7e 49 a6 41
       20.785885 20.785885 20.785885 20.785885
000320 7e 49 a6 41 7e 49 a6 41 7e 49 a6 41 7e 49 a6 41
       20.785885 20.785885 20.785885 20.785885
000330 7e 49 a6 41 7e 49 a6 41 7e 49 a6 41 7e 49 a6 41
       20.785885 20.785885 20.785885 20.785885
000340 7e 49 a6 41 7e 49 a6 41 7e 49 a6 41 7e 49 a6 41
       20.785885 20.785885 20.785885 20.785885
000350 7e 49 a6 41 7e 49 a6 41 7e 49 a6 41 7e 49 a6 41
       20.785885 20.785885 20.785885 20.785885
000360 7e 49 a6 41 7e 49 a6 41 7e 49 a6 41 7e 49 a6 41
       20.785885 20.785885 20.785885 20.785885
000370 7e 49 a6 41 7e 49 a6 41 7e 49 a6 41 7e 49 a6 41
       20.785885 20.785885 20.785885 20.785885
000380 7e 49 a6 41 7e 49 a6 41 7e 49 a6 41 7e 49 a6 41
       20.785885 20.785885 20.785885 20.785885
000390 7e 49 a6 41 7e 49 a6 41 7e 49 a6 41 7e 49 a6 41
       20.785885 20.785885 20.785885 20.785885
0003a0 7e 49 a6 41 7e 49 a6 41 7e 49 a6 41 7e 49 a6 41
       20.785885 20.785885 20.785885 20.785885
0003b0 7e 49 a6 41 7e 49 a6 41 7e 49 a6 41 7e 49 a6 41
       20.785885 20.785885 20.785885 20.785885
0003c0 7e 49 a6 41 7e 49 a6 41 7e 49 a6 41 7e 49 a6 41
       20.785885 20.785885 20.785885 20.785885
0003d0 7e 49 a6 41 7e 49 a6 41 7e 49 a6 41 7e 49 a6 41
       20.785885 20.785885 20.785885 20.785885
0003e0 7e 49 a6 41 7e 49 a6 41 7e 49 a6 41 7e 49 a6 41
       20.785885 20.785885 20.785885 20.785885
0003f0 7e 49 a6 41 7e 49 a6 41 7e 49 a6 41 7e 49 a6 41
       20.785885 20.785885 20.785885 20.785885
