main/template_estimation/simple_models/ms_theta_iter_14350.npz (npz, 76320 bytes, 3 tensors)

Wt f4 [5, 101, 3]
0.0 0.0 0.0 -0.13734408 0.08530385 0.39587155 -0.3208102 -0.23617478
0.2242005 -0.3591401 -0.035402335 0.50323653 -0.56107664 0.07118111 0.4966352 -0.6430733
0.22104649 0.69691896 -0.8521757 0.3079198 0.6842663 -1.0281262 0.4284703 1.0951014
-1.1002777 0.48342118 1.1724907 -1.2371477 0.5437352 1.1233613 -1.3256162 0.5970638
1.320538 -1.4795147 0.6247917 1.5201973 -1.6275907 0.63896114 1.6020055 -1.9461246
0.52131975 1.9291228 -2.087435 0.58986175 1.9468638 -2.0327382 0.7345408 2.1263354
-2.0257168 0.83250195 2.3415055 -2.0594409 1.0855331 2.3282704 -2.1500955 1.2716442
2.39335 -2.5235598 1.312575 2.4712932 -2.6751246 1.2421211 2.6416795 -2.9774628
1.3900499 2.6796145 -2.9547796 1.4178002 2.7889352 -3.093678 1.3868321 2.9827414
-3.3132038 1.3268563 3.0740402 -3.5507495 1.3918933 3.1879208 -3.6989505 1.5244012
3.434247 -3.946397 1.5468082 3.5890296 -4.1750774 1.7033205 3.6766458 -4.482852
1.8393933 3.5675693 -4.6713367 1.9028217 3.5916445 -4.7686133 2.1060045 3.6895406
-4.8677206 2.3007703 3.8556843 -4.959695 2.4352255 3.8975115 -5.2059746 2.4547322
3.9622972 -5.3725963 2.5543714 4.257519 -5.5364084 2.699985 4.369171 -5.6679683
2.837067 4.419354 -5.792961 2.9199026 4.604744 -5.9639406 3.110396 4.7556553
-6.0473733 3.2100165 4.857166 -6.2233553 3.4356287 4.90285 -6.5764775 3.4361005
4.90839 -6.858649 3.429033 4.9114304 -7.0122004 3.5960927 4.881632 -6.9788265
3.5285609 4.8679624 -7.155908 3.6840267 4.969033 -7.2000365 3.7489023 5.0691557
-7.3468122 3.836241 5.2524214 -7.4356914 3.768605 5.4711585 -7.4931245 3.8188767
5.6191754 -7.7154517 3.8979073 5.6606174 -7.7622013 3.9935596 5.607414 -7.808027
4.113164 5.463156 -7.904577 4.196982 5.637479 -8.14241 4.3203163 5.771722
-8.074586 4.4512978 5.8175573 -8.217322 4.4418497 5.8633695 -8.414842 4.586128
5.8667846 -8.456607 4.679821 5.9491534 -8.571769 4.625585 5.838667 -8.59305
4.800479 5.9102507 -8.777488 4.8681993 5.8009443 -8.9542465 4.941417 5.913789
-9.090723 4.959001 5.9944215 -9.097836 4.9886665 5.9166236 -9.0507555 4.9105277
5.9245872 -9.195107 4.8823476 6.06688 -9.305658 4.931249 6.0241394 -9.455556
4.9018555 6.058279 -9.546071 4.9524164 6.0320787 -9.595242 4.950993 6.0767
-9.751473 5.126113 6.2607555 -9.775798 5.067438 6.326701 -9.809024 4.9158387
6.450867 -9.714393 4.969275 6.453755 -9.720985 5.0407176 6.4247265 -9.726786
5.230374 6.416096 -9.768976 5.149717 6.474136 -9.880375 5.1637597 6.416231
-9.94072 5.114482 6.372323 -9.991856 5.068373 6.2207155 -9.818589 5.0135965
6.1583796 -9.850312 5.038073 6.1980405 -9.84263 5.0397105 6.1924872 -9.83371
00000000: 0000 0000 0000 0000 0000 0000 eda3 0cbe
00000010: c9b3 ae3d adaf ca3e 3c41 a4be cdd7 71be
00000020: d194 653e 36e1 b7be 0a02 11bd 1cd4 003f
00000030: b8a2 0fbf 67c7 913d f846 fe3e 74a0 24bf
00000040: 035a 623e 4869 323f 3028 5abf aaa7 9d3e
00000050: 142c 2f3f a499 83bf 7660 db3e 482c 8c3f
00000060: e6d5 8cbf fb82 f73e 2d14 963f db5a 9ebf
00000070: 3b32 0b3f 4eca 8f3f cbad a9bf 2cd9 183f
00000080: 6407 a93f bd60 bdbf 59f2 1f3f d395 c23f
00000090: e454 d0bf f592 233f 840e cd3f 9c1a f9bf
000000a0: 3675 053f 7fed f63f 8998 05c0 2e01 173f
000000b0: d532 f93f 6218 02c0 de0a 3c3f e115 0840
000000c0: 58a5 01c0 d91e 553f 3adb 1540 e1cd 03c0
000000d0: c0f2 8a3f 6202 1540 2a9b 09c0 3dc5 a23f
000000e0: a52c 1940 0182 21c0 7502 a83f ab29 1e40
000000f0: 3e35 2bc0 d3fd 9e3f 4711 2940 c08e 3ec0
00000100: 28ed b13f ce7e 2b40 1c1b 3dc0 7a7a b53f
00000110: ea7d 3240 d2fe 45c0 b783 b13f 3ce5 3e40
00000120: 880b 54c0 6dd6 a93f 13bd 4440 7b3f 63c0
00000130: 8f29 b23f e506 4c40 9bbb 6cc0 941f c33f
00000140: b4ca 5b40 c591 7cc0 d0fd c53f a9b2 6540
00000150: 3c9a 85c0 6806 da3f 2a4e 6b40 8673 8fc0
00000160: 3d71 eb3f 0e53 6440 977b 95c0 a98f f33f
00000170: 81dd 6540 7b98 98c0 c7c8 0640 6f21 6c40
00000180: 5ec4 9bc0 d23f 1340 88c3 7640 d2b5 9ec0
00000190: bcda 1b40 d470 7940 5897 a6c0 551a 1d40
000001a0: 4796 7d40 4fec abc0 d27a 2340 983d 8840
000001b0: 422a b1c0 8ecc 2c40 40d0 8b40 ff5f b5c0
000001c0: 8192 3540 596b 8d40 f05f b9c0 afdf 3a40
000001d0: 105a 9340 9ad8 bec0 ba10 4740 542e 9840
000001e0: 1584 c1c0 e970 4d40 e76d 9b40 ba25 c7c0
000001f0: 57e1 5b40 26e4 9c40 8172 d2c0 12e9 5b40
00000200: 8811 9d40 0d7a dbc0 4775 5b40 702a 9d40
00000210: f263 e0c0 6226 6640 5436 9c40 8c52 dfc0
00000220: f1d3 6140 59c6 9b40 33fd e4c0 18c7 6b40
00000230: 5102 9f40 b366 e6c0 04ee 6f40 8636 a240
00000240: 1619 ebc0 f984 7540 d613 a840 2ff1 edc0
00000250: d330 7140 bb13 af40 adc7 efc0 7a68 7440
00000260: 49d0 b340 fbe4 f6c0 5077 7940 c723 b540
00000270: f463 f8c0 7b96 7f40 ef6f b340 5bdb f9c0
00000280: 0a9f 8340 2dd2 ae40 4bf2 fcc0 ad4d 8640
00000290: 3a66 b440 5047 02c1 0840 8a40 f2b1 b840
000002a0: 8131 01c1 0871 8e40 6e29 ba40 277a 03c1
000002b0: a223 8e40 b9a0 bb40 31a3 06c1 90c1 9240
000002c0: b3bc bb40 434e 07c1 18c1 9540 775f be40
000002d0: f725 09c1 cb04 9440 5cd6 ba40 227d 09c1
000002e0: 869d 9940 c620 bd40 9770 0cc1 4ac8 9b40
000002f0: 56a1 b940 9844 0fc1 1720 9e40 c23d bd40
00000300: 9a73 11c1 23b0 9e40 4dd2 bf40 bc90 11c1
00000310: 28a3 9f40 fb54 bd40 e5cf 10c1 0b23 9d40
00000320: 3896 bd40 291f 13c1 313c 9c40 e223 c240
00000330: fae3 14c1 cbcc 9d40 c0c5 c040 f549 17c1
00000340: 00dc 9c40 6cdd c140 b5bc 18c1 327a 9e40
00000350: ca06 c140 1c86 19c1 896e 9e40 5474 c240
00000360: 0906 1cc1 1e09 a440 1c58 c840 ab69 1cc1
00000370: 7428 a240 5674 ca40 c3f1 1cc1 8d4e 9d40
00000380: 816d ce40 276e 1bc1 4d04 9f40 2985 ce40
00000390: 2889 1bc1 8f4d a140 5c97 cd40 eaa0 1bc1
000003a0: 395f a740 a950 cd40 ba4d 1cc1 7bca a440
000003b0: 1f2c cf40 0416 1ec1 853d a540 c451 cd40
000003c0: 300d 1fc1 d6a9 a340 12ea cb40 a4de 1fc1
000003d0: 1d30 a240 1a10 c740 f118 1dc1 626f a040
000003e0: 7211 c540 e19a 1dc1 e537 a140 5956 c640
000003f0: 6a7b 1dc1 4f45 a140 db28 c640 e056 1dc1

Xt f4 [5, 101, 6]
-1.272001 -0.33082572 -0.12059996 0.0 0.0 0.0 -1.272001 -0.33082572
-0.12059996 0.09704095 0.018578056 0.12410655 -1.2685943 -0.32684064 -0.11681183 0.16595232
-0.2062192 -0.0880012 -1.2688231 -0.33046353 -0.12079435 0.32192862 -0.11650133 -0.023872197
-1.264296 -0.3291622 -0.1202401 0.37629145 -0.089825764 -0.13286056 -1.2595358 -0.32871914
-0.12072093 0.50043446 -0.03721766 -0.12069664 -1.2517264 -0.32552198 -0.11874518 0.54606634
-0.026103258 -0.23584828 -1.2441541 -0.32367742 -0.11825874 0.61192566 0.00624986 -0.10392101
-1.2337778 -0.31803304 -0.11406179 0.73593235 -0.007867809 -0.1728718 -1.222095 -0.31242037
-0.11017124 0.8184012 -0.019197114 -0.3132099 -1.2105669 -0.3085283 -0.10819771 0.9275916
-0.031526245 -0.30690387 -1.1973307 -0.303423 -0.10520106 0.9945774 -0.061411418 -0.30025253
-1.1833829 -0.29791525 -0.101884976 1.063507 -0.10102653 -0.36190543 -1.1694951 -0.2933206
-0.099582255 1.0330142 -0.21567681 -0.27913702 -1.1568904 -0.28961655 -0.097990364 1.1109997
-0.22421598 -0.37440437 -1.1441793 -0.28669342 -0.09731202 1.3000152 -0.18709643 -0.3734125
-1.1280466 -0.2808424 -0.09402687 1.4492363 -0.18149874 -0.35443875 -1.1094295 -0.27278587
-0.08874439 1.5652096 -0.09048581 -0.469063 -1.0892528 -0.26368895 -0.082611606 1.6396993
-0.038266465 -0.53906715 -1.0682634 -0.25394785 -0.075908855 1.5451477 -0.07032053 -0.60207254
-1.0501236 -0.2467642 -0.07151265 1.5871134 -0.16352317 -0.6081748 -1.0327619 -0.24061166
-0.068109825 1.5415814 -0.12984942 -0.68685156 -1.0168204 -0.23558958 -0.06570348 1.6869584
-0.16330644 -0.72301525 -0.99966735 -0.22989592 -0.0627711 1.7296225 -0.23097731 -0.70818555
-0.98281795 -0.2244372 -0.06002902 1.7234575 -0.3156809 -0.7500427 -0.9677679 -0.22085726
-0.059056703 1.7091743 -0.32483524 -0.77320164 -0.9535869 -0.21780042 -0.0585021 1.7470131
-0.29384395 -0.7181594 -0.9382733 -0.2129529 -0.05611967 1.7222772 -0.33037832 -0.7193204
-0.9240509 -0.20884909 -0.05435832 1.7103546 -0.2886021 -0.7573379 -0.91020817 -0.20473894
-0.05250995 1.6522892 -0.25823185 -0.9092411 -0.89862454 -0.20288768 -0.052802075 1.6678028
-0.26329762 -0.97918624 -0.8878328 -0.2018067 -0.053820644 1.734976 -0.18467562 -1.0030397
-0.87576824 -0.19914347 -0.05327785 1.7932417 -0.1129198 -0.99008703 -0.8623023 -0.19463697
-0.050890964 1.8479385 -0.07957749 -1.0528368 -0.84864664 -0.18988708 -0.048257545 1.8076236
-0.11169387 -1.1012698 -0.83661723 -0.18657196 -0.046943013 1.8165032 -0.09412822 -1.0124081
-0.82372904 -0.18174954 -0.044049554 1.823694 -0.055248104 -1.0340908 -0.8108299 -0.17661239
-0.040787145 1.8470095 -0.022084415 -1.0923033 -0.79811865 -0.17153542 -0.037550468 1.8706322
-0.019335452 -1.0716367 -0.78517586 -0.16592883 -0.03373744 1.8640683 0.04345335 -1.0721653
-0.7719687 -0.15964344 -0.029182233 1.9058263 0.051011607 -1.1047829 -0.7587635 -0.15326954
-0.024515573 1.8891187 0.13116032 -1.1690727 -0.7458295 -0.14689954 -0.01979166 1.768772
00000000: eed0 a2bf fd61 a9be 1dfd f6bd 0000 0000
00000010: 0000 0000 0000 0000 eed0 a2bf fd61 a9be
00000020: 1dfd f6bd 68bd c63d 0231 983c 932b fe3d
00000030: 4c61 a2bf a857 a7be 0a3b efbd 68ef 293e
00000040: 202b 53be f939 b4bd cc68 a2bf 8432 a9be
00000050: 0763 f7bd d4d3 a43e 4098 eebd a08f c3bc
00000060: 74d4 a1bf f387 a8be 7140 f6bd 46a9 c03e
00000070: 92f6 b7bd 990c 08be 7838 a1bf e04d a8be
00000080: 893c f7bd 791c 003f 8c71 18bd cd2f f7bd
00000090: 9238 a0bf d1aa a6be ac30 f3bd 01cb 0b3f
000000a0: 80d6 d5bc 3682 71be 7140 9fbf 0cb9 a5be
000000b0: a331 f2bd 29a7 1c3f a0cb cc3b 8ad4 d4bd
000000c0: 6eec 9dbf 3ad5 a2be 3a99 e9bd 1066 3c3f
000000d0: fce7 00bc 4e05 31be 9c6d 9cbf 90f5 9fbe
000000e0: 76a1 e1bd be82 513f 4443 9dbc 0c5d a0be
000000f0: dbf3 9abf 6cf7 9dbe c396 ddbd a576 6d3f
00000100: aa21 01bd 8122 9dbe 2242 99bf 425a 9bbe
00000110: a773 d7bd a09c 7e3f 8a8a 7bbd b3ba 99be
00000120: 1779 97bf 5988 98be 12a9 d0bd ff20 883f
00000130: ffe6 cebd ab4b b9be 04b2 95bf 1e2e 96be
00000140: c8f1 cbbd cf39 843f 62da 5cbe 0ceb 8ebe
00000150: fc14 94bf 9f48 94be 2caf c8bd 3d35 8e3f
00000160: e098 65be eeb1 bfbe 7874 92bf 7bc9 92be
00000170: 864b c7bd e666 a63f 3596 3fbe ec2f bfbe
00000180: d563 90bf 93ca 8fbe 2991 c0bd 9380 b93f
00000190: ceda 39be ff78 b5be c901 8ebf 97aa 8bbe
000001a0: 9ebf b5bd ca58 c83f a050 b9bd 0729 f0be
000001b0: a36c 8bbf 3d02 87be 4630 a9bd abe1 d13f
000001c0: 4cbd 1cbd 4e00 0abf dbbc 88bf 7405 82be
000001d0: 1a76 9bbd 66c7 c53f 3604 90bd 6d21 1abf
000001e0: 736a 86bf c1af 7cbe 3975 92bd 8826 cb3f
000001f0: 9e72 27be 58b1 1bbf 8b31 84bf e762 76be
00000200: 2a7d 8bbd 8a52 c53f 3ff7 04be 81d5 2fbf
00000210: 2c27 82bf 653e 71be 8c8f 86bd 41ee d73f
00000220: ce39 27be 8717 39bf 33ea 7fbf d669 6bbe
00000230: 228e 80bd 4564 dd3f 5185 6cbe a64b 35bf
00000240: f599 7bbf ded2 65be fde0 75bd 419a dc3f
00000250: eda0 a1be cc02 40bf a3bf 77bf 6828 62be
00000260: 71e5 71bd 39c6 da3f ce50 a6be 8bf0 45bf
00000270: 451e 74bf 1307 5fbe e69f 6fbd 209e df3f
00000280: b772 96be 4bd9 37bf ae32 70bf 5310 5abe
00000290: bddd 65bd 9473 dc3f 5927 a9be 6225 38bf
000002a0: 9a8e 6cbf 89dc 55be d4a6 5ebd e6ec da3f
000002b0: a8c3 93be e6e0 41bf 6703 69bf 16a7 51be
000002c0: ac14 57bd 367e d33f f736 84be 06c4 68bf
000002d0: 420c 66bf cac1 4fbe fd46 58bd 907a d53f
000002e0: f2ce 86be f3ab 7abf 0349 63bf 6aa6 4ebe
000002f0: 0973 5cbd b213 de3f 9b1b 3dbe 9b63 80bf
00000300: 5932 60bf 44ec 4bbe e039 5abd f288 e53f
00000310: 7f42 e7bd 5876 7dbf d8bf 5cbf ea4e 47be
00000320: 0b73 50bd 4089 ec3f 86f9 a2bd 5bc3 86bf
00000330: e840 59bf c271 42be b4a9 45bd 3660 e73f
00000340: c1bf e4bd 69f6 8cbf 8c2c 56bf b80c 3fbe
00000350: 5147 40bd 2d83 e83f 4cc6 c0bd 9796 81bf
00000360: e8df 52bf 8d1c 3abe 4e6d 34bd ce6e e93f
00000370: d64b 62bd 165d 84bf 8c92 4fbf e1d9 34be
00000380: 6c10 27bd cf6a ec3f 60ea b4bc 98d0 8bbf
00000390: 8151 4cbf fba6 2fbe 85ce 19bd e070 ef3f
000003a0: 6265 9ebc 642b 89bf 4901 49bf 3fe9 29be
000003b0: 4530 0abd ca99 ee3f 24fc 313d b63c 89bf
000003c0: be9f 45bf 9279 23be 940f efbc 1ef2 f33f
000003d0: 8cf1 503d 8769 8dbf 533e 42bf b1f2 1cbe
000003e0: e2d4 c8bc a4ce f13f e44e 063e 2da4 95bf
000003f0: afee 3ebf d56c 16be 1f22 a2bc 1f67 e23f

theta f4 [14351]
0.2 0.2 0.19967891 0.19967891 0.19967891 0.19967891 0.19967891 0.19967891
0.19967891 1.8854456 1.8854456 1.8854456 0.71058667 0.71058667 0.71058667 2.151802
20.785885 20.785885 20.785885 20.785885 20.785885 20.785885 20.785885 20.785885
20.785885 20.785885 20.785885 20.785885 20.785885 20.785885 20.785885 20.785885
20.785885 20.785885 20.785885 20.785885 20.785885 20.785885 20.785885 20.785885
20.785885 20.785885 20.785885 20.785885 20.785885 20.785885 20.785885 20.785885
20.785885 20.785885 20.785885 20.785885 20.785885 20.785885 20.785885 20.785885
20.785885 20.785885 20.785885 20.785885 20.785885 20.785885 20.785885 20.785885
20.785885 20.785885 20.785885 20.785885 20.785885 20.785885 20.785885 20.785885
20.785885 20.785885 20.785885 20.785885 20.785885 20.785885 20.785885 20.785885
20.785885 20.785885 20.785885 20.785885 20.785885 20.785885 20.785885 20.785885
20.785885 20.785885 20.785885 20.785885 20.785885 20.785885 20.785885 20.785885
20.785885 20.785885 20.785885 20.785885 20.785885 20.785885 20.785885 20.785885
20.785885 20.785885 20.785885 20.785885 20.785885 20.785885 20.785885 20.785885
20.785885 20.785885 20.785885 20.785885 20.785885 20.785885 20.785885 20.785885
20.785885 20.785885 20.785885 20.785885 20.785885 20.785885 20.785885 20.785885
20.785885 20.785885 20.785885 20.785885 20.785885 20.785885 20.785885 20.785885
20.785885 20.785885 20.785885 20.785885 20.785885 20.785885 20.785885 20.785885
20.785885 20.785885 20.785885 20.785885 20.785885 20.785885 20.785885 20.785885
20.785885 20.785885 20.785885 20.785885 20.785885 20.785885 20.785885 20.785885
20.785885 20.785885 20.785885 20.785885 20.785885 20.785885 20.785885 20.785885
20.785885 20.785885 20.785885 20.785885 20.785885 20.785885 20.785885 20.785885
20.785885 20.785885 20.785885 20.785885 20.785885 20.785885 20.785885 20.785885
20.785885 20.785885 20.785885 20.785885 20.785885 20.785885 20.785885 20.785885
20.785885 20.785885 20.785885 20.785885 20.785885 20.785885 20.785885 20.785885
20.785885 20.785885 20.785885 20.785885 20.785885 20.785885 20.785885 20.785885
20.785885 20.785885 20.785885 20.785885 20.785885 20.785885 20.785885 20.785885
20.785885 20.785885 20.785885 20.785885 20.785885 20.785885 20.785885 20.785885
20.785885 20.785885 20.785885 20.785885 20.785885 20.785885 20.785885 20.785885
20.785885 20.785885 20.785885 20.785885 20.785885 20.785885 20.785885 20.785885
20.785885 20.785885 20.785885 20.785885 20.785885 20.785885 20.785885 20.785885
20.785885 20.785885 20.785885 20.785885 20.785885 20.785885 20.785885 20.785885
00000000: cdcc 4c3e cdcc 4c3e a178 4c3e a178 4c3e
00000010: a178 4c3e a178 4c3e a178 4c3e a178 4c3e
00000020: a178 4c3e 4856 f13f 4856 f13f 4856 f13f
00000030: 02e9 353f 02e9 353f 02e9 353f 20b7 0940
00000040: 7e49 a641 7e49 a641 7e49 a641 7e49 a641
00000050: 7e49 a641 7e49 a641 7e49 a641 7e49 a641
00000060: 7e49 a641 7e49 a641 7e49 a641 7e49 a641
00000070: 7e49 a641 7e49 a641 7e49 a641 7e49 a641
00000080: 7e49 a641 7e49 a641 7e49 a641 7e49 a641
00000090: 7e49 a641 7e49 a641 7e49 a641 7e49 a641
000000a0: 7e49 a641 7e49 a641 7e49 a641 7e49 a641
000000b0: 7e49 a641 7e49 a641 7e49 a641 7e49 a641
000000c0: 7e49 a641 7e49 a641 7e49 a641 7e49 a641
000000d0: 7e49 a641 7e49 a641 7e49 a641 7e49 a641
000000e0: 7e49 a641 7e49 a641 7e49 a641 7e49 a641
000000f0: 7e49 a641 7e49 a641 7e49 a641 7e49 a641
00000100: 7e49 a641 7e49 a641 7e49 a641 7e49 a641
00000110: 7e49 a641 7e49 a641 7e49 a641 7e49 a641
00000120: 7e49 a641 7e49 a641 7e49 a641 7e49 a641
00000130: 7e49 a641 7e49 a641 7e49 a641 7e49 a641
00000140: 7e49 a641 7e49 a641 7e49 a641 7e49 a641
00000150: 7e49 a641 7e49 a641 7e49 a641 7e49 a641
00000160: 7e49 a641 7e49 a641 7e49 a641 7e49 a641
00000170: 7e49 a641 7e49 a641 7e49 a641 7e49 a641
00000180: 7e49 a641 7e49 a641 7e49 a641 7e49 a641
00000190: 7e49 a641 7e49 a641 7e49 a641 7e49 a641
000001a0: 7e49 a641 7e49 a641 7e49 a641 7e49 a641
000001b0: 7e49 a641 7e49 a641 7e49 a641 7e49 a641
000001c0: 7e49 a641 7e49 a641 7e49 a641 7e49 a641
000001d0: 7e49 a641 7e49 a641 7e49 a641 7e49 a641
000001e0: 7e49 a641 7e49 a641 7e49 a641 7e49 a641
000001f0: 7e49 a641 7e49 a641 7e49 a641 7e49 a641
00000200: 7e49 a641 7e49 a641 7e49 a641 7e49 a641
00000210: 7e49 a641 7e49 a641 7e49 a641 7e49 a641
00000220: 7e49 a641 7e49 a641 7e49 a641 7e49 a641
00000230: 7e49 a641 7e49 a641 7e49 a641 7e49 a641
00000240: 7e49 a641 7e49 a641 7e49 a641 7e49 a641
00000250: 7e49 a641 7e49 a641 7e49 a641 7e49 a641
00000260: 7e49 a641 7e49 a641 7e49 a641 7e49 a641
00000270: 7e49 a641 7e49 a641 7e49 a641 7e49 a641
00000280: 7e49 a641 7e49 a641 7e49 a641 7e49 a641
00000290: 7e49 a641 7e49 a641 7e49 a641 7e49 a641
000002a0: 7e49 a641 7e49 a641 7e49 a641 7e49 a641
000002b0: 7e49 a641 7e49 a641 7e49 a641 7e49 a641
000002c0: 7e49 a641 7e49 a641 7e49 a641 7e49 a641
000002d0: 7e49 a641 7e49 a641 7e49 a641 7e49 a641
000002e0: 7e49 a641 7e49 a641 7e49 a641 7e49 a641
000002f0: 7e49 a641 7e49 a641 7e49 a641 7e49 a641
00000300: 7e49 a641 7e49 a641 7e49 a641 7e49 a641
00000310: 7e49 a641 7e49 a641 7e49 a641 7e49 a641
00000320: 7e49 a641 7e49 a641 7e49 a641 7e49 a641
00000330: 7e49 a641 7e49 a641 7e49 a641 7e49 a641
00000340: 7e49 a641 7e49 a641 7e49 a641 7e49 a641
00000350: 7e49 a641 7e49 a641 7e49 a641 7e49 a641
00000360: 7e49 a641 7e49 a641 7e49 a641 7e49 a641
00000370: 7e49 a641 7e49 a641 7e49 a641 7e49 a641
00000380: 7e49 a641 7e49 a641 7e49 a641 7e49 a641
00000390: 7e49 a641 7e49 a641 7e49 a641 7e49 a641
000003a0: 7e49 a641 7e49 a641 7e49 a641 7e49 a641
000003b0: 7e49 a641 7e49 a641 7e49 a641 7e49 a641
000003c0: 7e49 a641 7e49 a641 7e49 a641 7e49 a641
000003d0: 7e49 a641 7e49 a641 7e49 a641 7e49 a641
000003e0: 7e49 a641 7e49 a641 7e49 a641 7e49 a641
000003f0: 7e49 a641 7e49 a641 7e49 a641 7e49 a641
