main/template_estimation/corpus_callosum_models/ahs_theta_iter_850.npz (npz, 646500 bytes, 3 tensors)

Wt f4 [5, 101, 6]
0	0x00000000	0.0
1	0x00000000	0.0
2	0x00000000	0.0
3	0x00000000	0.0
4	0x00000000	0.0
5	0x00000000	0.0
6	0xbec5c5d4	-0.38627493
7	0x3daa0065	0.083008565
8	0xbcc36b72	-0.023854945
9	0xbca8b0b5	-0.020592073
10	0x3e4c0246	0.19922742
11	0xbd9bedd8	-0.076137245
12	0xbf470d92	-0.7775508
13	0x3e415831	0.18881299
14	0x3e173f08	0.14770138
15	0x3d31a146	0.043366693
16	0x3e98a5dc	0.2981404
17	0xbd73cfd1	-0.05952436
18	0xbf3cee54	-0.7380116
19	0x3e78e100	0.2430458
20	0x3dd539e1	0.1041143
21	0x39875d80	0.0002581887
22	0x3e9d4545	0.3071691
23	0xbe7289c9	-0.23685373
24	0xbf2dfbe8	-0.67962503
25	0x3e9bb091	0.30408147
26	0xbd484a63	-0.048899066
27	0x3de7690b	0.11299332
28	0x3e84c024	0.25927842
29	0xbe70801c	-0.2348637
30	0xbf15edbd	-0.58565885
31	0x3e265f8b	0.16247384
32	0xbe3e0ac1	-0.1855879
33	0x3d62bb00	0.05535412
34	0x3cdb8808	0.026798263
35	0xbefa4252	-0.48878723
36	0xbf0b7b25	-0.5448478
37	0xbd7b0e8f	-0.06129318
38	0xbddcc7f9	-0.10780329
39	0x3e623804	0.22091681
40	0x3d8431c3	0.06454804
41	0xbf2b010b	-0.66798466
42	0xbf224240	-0.6338234
43	0xbd55cbb1	-0.05219621
44	0xbc1d8d4e	-0.009616209
45	0x3e44f4e1	0.19234039
46	0xbd975aa4	-0.07390335
47	0xbf141329	-0.57841736
48	0xbf5fb652	-0.87387574
49	0xbe0e4648	-0.13893998
50	0x3e3177b3	0.17330818
51	0x3ed03551	0.40665677
52	0x3e010c2e	0.12602302
53	0xbf33eed4	-0.702863
54	0xbf47df4c	-0.780751
55	0xbebcc93f	-0.3687229
56	0x3ed6a6a2	0.41924006
57	0x3eff5f06	0.49877185
58	0xbd6d5c00	-0.057949066
59	0xbf6e0190	-0.92971134
60	0xbf282d9b	-0.6569459
61	0xbeb1022e	-0.34571975
62	0x3eca4887	0.3950846
63	0x3e947264	0.28993523
64	0xbc5d5f68	-0.013511516
65	0xbf67eda5	-0.9059699
66	0xbf19f8b6	-0.6014513
67	0xbd056f2e	-0.032576732
68	0x3e780bf1	0.24223305
69	0x3ee8a8a9	0.45441177
70	0xbe150442	-0.14552405
71	0xbf7f9977	-0.99843544
72	0xbf13d501	-0.57746893
73	0xbbd17e08	-0.006393198
74	0x3da58eae	0.080838546
75	0x3eb4dd5d	0.35325137
76	0xbece8b3c	-0.40340602
77	0xbf7c1b9a	-0.98479617
78	0xbf397b78	-0.72454023
79	0xbdab195f	-0.083544485
80	0x3e42502a	0.18975893
81	0x3f135448	0.5755048
82	0xbe3d9014	-0.18511993
83	0xbf828bea	-1.0198948
84	0xbf336342	-0.7007333
85	0x3da63d5c	0.08117172
86	0x3e312799	0.17300262
87	0x3f4c306e	0.797614
88	0x3d7f8f28	0.062392384
89	0xbf5e4b42	-0.86833584
90	0xbf3560b0	-0.7085066
91	0x3d2aef5c	0.041732177
92	0x3ec3af72	0.38219792
93	0x3f26bce9	0.65132004
94	0x3e2d1272	0.16901568
95	0xbf47ceeb	-0.78050107
96	0xbf3b9fcd	-0.7329071
97	0xbdb8cde0	-0.090236425
98	0x3eb2f1f1	0.34950212
99	0x3f61b141	0.88161093
100	0x3e37fa92	0.17966679
101	0xbf709178	-0.9397197
102	0xbf527035	-0.82202464
103	0x3e370d16	0.17876086
104	0x3e62d34c	0.22150916
105	0x3f437382	0.76348126
106	0x3e180345	0.14844997
107	0xbf61fb48	-0.8827405
108	0xbf32a4ff	-0.69783014
109	0x3c597d5a	0.013274515
110	0x3e4787b4	0.1948536
111	0x3f4916a8	0.78550196
112	0x3e5e5f12	0.21715954
113	0xbf492b47	-0.7858166
114	0xbf08108a	-0.53150237
115	0x3d9b8acd	0.075948335
116	0x3ec8afac	0.39196527
117	0x3f4fae9e	0.8112582
118	0x3d721750	0.059104264
119	0xbf3e4b10	-0.74333286
120	0xbeb5c3f0	-0.3550105
121	0x3deb0ee6	0.11477451
122	0x3ed45a94	0.41475356
123	0x3f64f4e6	0.89436185
124	0x3d239a40	0.039942026
125	0xbf220fe4	-0.633055
126	0xbea1cf0a	-0.3160327
127	0x3e53761a	0.20650521
128	0x3f287fdd	0.65820104
129	0x3f4773b7	0.7791094
130	0x3d99dcf4	0.075128466
131	0xbf07c20f	-0.53030485
132	0xbe9900f4	-0.2988354
133	0x3e62889f	0.2212243
134	0x3f254979	0.64565235
135	0x3f8b8d2c	1.0902457
136	0x3e4da898	0.20083845
137	0xbf3cfdc2	-0.73824704
138	0xbe58b12a	-0.21161333
139	0x3e09c960	0.13455725
140	0x3f48fb40	0.7850838
141	0x3f5c592d	0.8607357
142	0x3ca13b40	0.019681573
143	0xbf414602	-0.7549745
144	0xbd1c29b4	-0.03812571
145	0x3dae6f08	0.08517271
146	0x3f6b27dc	0.91857696
147	0x3f6df75e	0.9295558
148	0x3d03dba8	0.032191902
149	0xbf05e662	-0.5230466
150	0xbd46d315	-0.048541147
151	0x3d9c3467	0.076271825
152	0x3f3d53a8	0.73955774
153	0x3f5aba7c	0.854408
154	0xbe5c80e4	-0.21533543
155	0xbf04ceaa	-0.51877844
156	0xbdcd2325	-0.10016469
157	0xbd8c77f0	-0.06858814
158	0x3f341480	0.7034378
159	0x3f3e67f6	0.7437738
160	0xbee73585	-0.4515802
161	0xbedadbc6	-0.427458
162	0xbc695bc0	-0.014243066
163	0x3b585080	0.0033006966
164	0x3f3ccad4	0.7374699
165	0x3f312679	0.6919933
166	0xbe9b0eca	-0.3028472
167	0xbec40629	-0.3828595
168	0x3da5449f	0.08069729
169	0xbe891bae	-0.2677893
170	0x3f50d8d6	0.81580865
171	0x3f0c22f7	0.5474085
172	0xbe2b1d10	-0.16710305
173	0xbe7cc09d	-0.24682851
174	0x3dc1ab69	0.09456522
175	0xbe4a9fd5	-0.19787534
176	0x3f640117	0.8906416
177	0x3ee3fdc8	0.44529557
178	0xbe89ac7b	-0.26889405
179	0xbd98fe30	-0.074703574
180	0x3db1c9c6	0.08681063
181	0xbe9c3f07	-0.30516836
182	0x3f55a595	0.83455783
183	0x3ef8de56	0.4860713
184	0xbe812505	-0.25223556
185	0xbe1b9f52	-0.15197495
186	0x3e7a89f4	0.24466687
187	0xbeaafd89	-0.33396557
188	0x3f5da410	0.86578465
189	0x3f1b2741	0.6060677
190	0xbe57b9dc	-0.21066993
191	0xbe411635	-0.18856128
192	0x3e1aebd0	0.15129018
193	0xbe7e1348	-0.24812043
194	0x3f632cb7	0.88740104
195	0x3ef667eb	0.48126158
196	0xbeacdd85	-0.33762756
197	0xbe5d829e	-0.21631858
198	0x3df94a66	0.121723935
199	0xbe62b09c	-0.22137684
200	0x3f624e6f	0.8840093
201	0x3f07aa60	0.52994347
202	0xbe2cf407	-0.16889964
203	0xbeb4d317	-0.353173
204	0xbd949a76	-0.072560236
205	0xbd480f7e	-0.0488429
206	0x3f63d879	0.89002186
207	0x3f1bca4f	0.60855573
208	0xbda12e38	-0.07870144
209	0xbedc0561	-0.42972854
210	0xbd8ef9db	-0.0698125
211	0xbd86033a	-0.06543584
212	0x3f46cc88	0.7765584
213	0x3f3ed31c	0.7454088
214	0xbe8533f2	-0.26016194
215	0xbef51787	-0.47869512
216	0xbd987711	-0.07444585
217	0x3b022740	0.001985982
218	0x3f32ca15	0.698396
219	0x3f44b308	0.7683568
220	0xbe8888d6	-0.26666898
221	0xbeb86420	-0.3601389
222	0xbe00f425	-0.12593134
223	0xbd384c30	-0.044994533
224	0x3f4824dc	0.7818124
225	0x3f33c7fe	0.7022704
226	0xbe773c33	-0.24144058
227	0xbe9329c5	-0.28742805
228	0xbdb5c5b0	-0.088755965
229	0xbe7965cc	-0.24355239
230	0x3f7d6f05	0.9899753
231	0x3f43d545	0.764973
232	0xbe68d748	-0.22738373
233	0xbdfa028c	-0.12207517
234	0xbe4358c3	-0.19076829
235	0xbe5dc9de	-0.21659037
236	0x3f6199d7	0.88125366
237	0x3f6e31e4	0.9304488
238	0xbdf6f96c	-0.12059292
239	0xbc9bcf80	-0.019019842
240	0xbe466e78	-0.19378078
241	0xbe6f6ede	-0.23382136
242	0x3f709414	0.9397595
243	0x3f9b47ba	1.2131264
244	0xbe34719a	-0.1762146
245	0x3d54b988	0.05193475
246	0xbda747cc	-0.08167991
247	0xbe993492	-0.2992292
248	0x3f496887	0.7867512
249	0x3f955afc	1.1668391
250	0xbe68c2db	-0.22730581
251	0x3d417ed8	0.04724011
252	0xbde728dd	-0.11287091
253	0xbed11a22	-0.4084025
254	0x3f2b4920	0.66908455
255	0x3f8d8b62	1.1058161

Xt f4 [5, 101, 312]
0	0xc185d7ad	-16.73031
1	0xc176a9a8	-15.41642
2	0xc196f4ca	-18.869526
3	0xc18783fb	-16.939444
4	0xc1abff1f	-21.49957
5	0xc18e9cb5	-17.826517
6	0xc1c1cb62	-24.224308
7	0xc18ef02e	-17.867275
8	0xc1d7b49f	-26.963194
9	0xc18a40a4	-17.281563
10	0xc1ed929a	-29.696583
11	0xc183d8c3	-16.48084
12	0xc200ba36	-32.181847
13	0xc175c09f	-15.359527
14	0xc208a93d	-34.16527
15	0xc158f402	-13.559572
16	0xc20d559f	-35.333614
17	0xc1314dfb	-11.081538
18	0xc20dc170	-35.438904
19	0xc102dfd4	-8.179646
20	0xc209abc8	-34.417755
21	0xc0b165a2	-5.5436563
22	0xc203339b	-32.800396
23	0xc053a03f	-3.3066556
24	0xc1f773b7	-30.931501
25	0xbfa89647	-1.3170861
26	0xc1e70dcd	-28.881739
27	0x3ece3267	0.4027283
28	0xc1d557c8	-26.667862
29	0x3ff41ce3	1.9071316
30	0xc1c3c2cb	-24.470114
31	0x405ebb0f	3.4801672
32	0xc1b21c9f	-22.263975
33	0x409f3206	4.9748564
34	0xc19f4783	-19.909918
35	0x40c7aea6	6.2400694
36	0xc18ae655	-17.362467
37	0x40efe0d2	7.496194
38	0xc16d5413	-14.833026
39	0x410b90ef	8.722884
40	0xc142b077	-12.168082
41	0x411c3898	9.763817
42	0xc115dcfd	-9.366452
43	0x4129259d	10.571683
44	0xc0d46078	-6.636776
45	0x4138358f	11.513076
46	0xc079c28a	-3.9024987
47	0x41435efc	12.21069
48	0xbf855742	-1.0417254
49	0x4149b943	12.60773
50	0x3fede15b	1.8584398
51	0x41474a0a	12.455576
52	0x4099d7d8	4.807598
53	0x4141064f	12.06404
54	0x40f71db3	7.7223754
55	0x41388172	11.531603
56	0x4129c9d7	10.611777
57	0x41308d4d	11.034497
58	0x41573d87	13.452521
59	0x41276005	10.460942
60	0x417f4233	15.953662
61	0x411c95b8	9.786552
62	0x41928695	18.315714
63	0x411309a4	9.189854
64	0x41a65352	20.790684
65	0x4111a2d7	9.102256
66	0x41ba7318	23.306198
67	0x410aea1f	8.682158
68	0x41ce0dc8	25.75673
69	0x41008d0e	8.034437
70	0x41e0bf7d	28.0935
71	0x40e6e733	7.2157226
72	0x41f329d3	30.395422
73	0x40c9158f	6.2838817
74	0x42027275	32.611774
75	0x40a4029a	5.1253176
76	0x420ab3fb	34.675762
77	0x4069e582	3.654633
78	0x42127070	36.609802
79	0x3ff44eb5	1.908652
80	0x4218f373	38.237743
81	0x3c3d2b4d	0.011545968
82	0x421e12a8	39.51822
83	0xc0042b77	-2.065153
84	0x4220853f	40.130123
85	0xc08c33e7	-4.3813357
86	0x421ecc63	39.699596
87	0xc0d9dc12	-6.808114
88	0x421861a3	38.09535
89	0xc10b6564	-8.712254
90	0x420ecf83	35.70265
91	0xc1177472	-9.465929
92	0x4204fdd8	33.247894
93	0xc1155866	-9.334082
94	0x41f977cb	31.183493
95	0xc0fda938	-7.9269066
96	0x41f0285d	30.019709
97	0xc0b43db5	-5.6325326
98	0x41e5165d	28.63592
99	0xc049caa6	-3.1529937
100	0x41d71b65	26.888376
101	0xbf94324b	-1.1577848
102	0x41c80039	25.000109
103	0x3edfc3f0	0.43704176
104	0x41b7279f	22.894346
105	0x3fe31347	1.7740258
106	0x41a5420c	20.65725
107	0x403c877d	2.9457695
108	0x4192e234	18.36045
109	0x407792cb	3.8683345
110	0x41805053	16.03922
111	0x4092afab	4.583944
112	0x415af81d	13.685575
113	0x40a7f805	5.249026
114	0x41346709	11.275155
115	0x40b940fd	5.789183
116	0x410d04e9	8.813699
117	0x40c0f4ab	6.0298667
118	0x40c5d193	6.181833
119	0x40c9c3e8	6.3051643
120	0x405e240b	3.47095
121	0x40cbe8d4	6.3721714
122	0x3f3c271d	0.7349718
123	0x40c7b2cf	6.240577
124	0xbffdd258	-1.9829817
125	0x40bfe728	5.9969673
126	0xc0977b7f	-4.733825
127	0x40b3f90b	5.6241508
128	0xc0ee6f8d	-7.451117
129	0x40a005cf	5.000709
130	0xc1219497	-10.098777
131	0x4083be20	4.1169586
132	0xc14c33ed	-12.762677
133	0x40507c03	3.257569
134	0xc1748df7	-15.284659
135	0x400bcab1	2.1842463
136	0xc18d776d	-17.683313
137	0x3f637bab	0.8886058
138	0xc19f7312	-19.931187
139	0xbf2485cb	-0.6426665
140	0xc1b1738a	-22.181416
141	0xc00a6e0e	-2.1629672
142	0xc1c1a1fe	-24.204098
143	0xc07cdb2a	-3.9508767
144	0xc1cd1ce3	-25.639105
145	0xc0c93f68	-6.28899
146	0xc1d078f3	-26.059057
147	0xc10dd877	-8.865348
148	0xc1c5d334	-24.728127
149	0xc1329c16	-11.163107
150	0xc1b411f3	-22.508764
151	0xc14c8d1f	-12.784453
152	0xc19ff1a3	-19.992987
153	0xc15c2867	-13.759864
154	0xc18b7b07	-17.435072
155	0xc16ae917	-14.681907
156	0x00000000	0.0
157	0x00000000	0.0
158	0x00000000	0.0
159	0x00000000	0.0
160	0x00000000	0.0
161	0x00000000	0.0
162	0x00000000	0.0
163	0x00000000	0.0
164	0x00000000	0.0
165	0x00000000	0.0
166	0x00000000	0.0
167	0x00000000	0.0
168	0x00000000	0.0
169	0x00000000	0.0
170	0x00000000	0.0
171	0x00000000	0.0
172	0x00000000	0.0
173	0x00000000	0.0
174	0x00000000	0.0
175	0x00000000	0.0
176	0x00000000	0.0
177	0x00000000	0.0
178	0x00000000	0.0
179	0x00000000	0.0
180	0x00000000	0.0
181	0x00000000	0.0
182	0x00000000	0.0
183	0x00000000	0.0
184	0x00000000	0.0
185	0x00000000	0.0
186	0x00000000	0.0
187	0x00000000	0.0
188	0x00000000	0.0
189	0x00000000	0.0
190	0x00000000	0.0
191	0x00000000	0.0
192	0x00000000	0.0
193	0x00000000	0.0
194	0x00000000	0.0
195	0x00000000	0.0
196	0x00000000	0.0
197	0x00000000	0.0
198	0x00000000	0.0
199	0x00000000	0.0
200	0x00000000	0.0
201	0x00000000	0.0
202	0x00000000	0.0
203	0x00000000	0.0
204	0x00000000	0.0
205	0x00000000	0.0
206	0x00000000	0.0
207	0x00000000	0.0
208	0x00000000	0.0
209	0x00000000	0.0
210	0x00000000	0.0
211	0x00000000	0.0
212	0x00000000	0.0
213	0x00000000	0.0
214	0x00000000	0.0
215	0x00000000	0.0
216	0x00000000	0.0
217	0x00000000	0.0
218	0x00000000	0.0
219	0x00000000	0.0
220	0x00000000	0.0
221	0x00000000	0.0
222	0x00000000	0.0
223	0x00000000	0.0
224	0x00000000	0.0
225	0x00000000	0.0
226	0x00000000	0.0
227	0x00000000	0.0
228	0x00000000	0.0
229	0x00000000	0.0
230	0x00000000	0.0
231	0x00000000	0.0
232	0x00000000	0.0
233	0x00000000	0.0
234	0x00000000	0.0
235	0x00000000	0.0
236	0x00000000	0.0
237	0x00000000	0.0
238	0x00000000	0.0
239	0x00000000	0.0
240	0x00000000	0.0
241	0x00000000	0.0
242	0x00000000	0.0
243	0x00000000	0.0
244	0x00000000	0.0
245	0x00000000	0.0
246	0x00000000	0.0
247	0x00000000	0.0
248	0x00000000	0.0
249	0x00000000	0.0
250	0x00000000	0.0
251	0x00000000	0.0
252	0x00000000	0.0
253	0x00000000	0.0
254	0x00000000	0.0
255	0x00000000	0.0

theta f4 [851]
0	0x3e4ccccd	0.2
1	0x3e4ccccd	0.2
2	0x3e4ccccd	0.2
3	0x3e4ccccd	0.2
4	0x3e4ccccd	0.2
5	0x3e4ccccd	0.2
6	0x3e4ccccd	0.2
7	0x3e4ccccd	0.2
8	0x3e4ccccd	0.2
9	0x3e4ccccd	0.2
10	0x3e4ccccd	0.2
11	0x3e4ccccd	0.2
12	0x3e4ccccd	0.2
13	0x3e4ccccd	0.2
14	0x3e4ccccd	0.2
15	0x3e4ccccd	0.2
16	0x3e4ccccd	0.2
17	0x3e4ccccd	0.2
18	0x3e4ccccd	0.2
19	0x3e4ccccd	0.2
20	0x3e4ccccd	0.2
21	0x3e4ccccd	0.2
22	0x3e4ccccd	0.2
23	0x3e4ccccd	0.2
24	0x3e4ccccd	0.2
25	0x3e4ccccd	0.2
26	0x3e4ccccd	0.2
27	0x3e4ccccd	0.2
28	0x3e4ccccd	0.2
29	0x3e4ccccd	0.2
30	0x3e4ccccd	0.2
31	0x3e4ccccd	0.2
32	0x3e4ccccd	0.2
33	0x3e4ccccd	0.2
34	0x3e4ccccd	0.2
35	0x3e4ccccd	0.2
36	0x3e4ccccd	0.2
37	0x3e4ccccd	0.2
38	0x3e4ccccd	0.2
39	0x3e4ccccd	0.2
40	0x3e4ccccd	0.2
41	0x3e4ccccd	0.2
42	0x3e4ccccd	0.2
43	0x3e4ccccd	0.2
44	0x3e4ccccd	0.2
45	0x3e4ccccd	0.2
46	0x3e4ccccd	0.2
47	0x3e4ccccd	0.2
48	0x3e4ccccd	0.2
49	0x3e4ccccd	0.2
50	0x3e4ccccd	0.2
51	0x3e4ccccd	0.2
52	0x3e4ccccd	0.2
53	0x3e4ccccd	0.2
54	0x3e4ccccd	0.2
55	0x3e4ccccd	0.2
56	0x3e4ccccd	0.2
57	0x3e4ccccd	0.2
58	0x3e4ccccd	0.2
59	0x3e4ccccd	0.2
60	0x3e4ccccd	0.2
61	0x3e4ccccd	0.2
62	0x3e4ccccd	0.2
63	0x3e4ccccd	0.2
64	0x3e4ccccd	0.2
65	0x3e4ccccd	0.2
66	0x3e4ccccd	0.2
67	0x3e4ccccd	0.2
68	0x3e4ccccd	0.2
69	0x3e4ccccd	0.2
70	0x3e4ccccd	0.2
71	0x3e4ccccd	0.2
72	0x3e4ccccd	0.2
73	0x3e4ccccd	0.2
74	0x3e4ccccd	0.2
75	0x3e4ccccd	0.2
76	0x3e4ccccd	0.2
77	0x3e4ccccd	0.2
78	0x3e4ccccd	0.2
79	0x3e4ccccd	0.2
80	0x3e4ccccd	0.2
81	0x3e4ccccd	0.2
82	0x3e4ccccd	0.2
83	0x3e4ccccd	0.2
84	0x3e4ccccd	0.2
85	0x3e4ccccd	0.2
86	0x3e4ccccd	0.2
87	0x3e4ccccd	0.2
88	0x3e4ccccd	0.2
89	0x3e4ccccd	0.2
90	0x3e4ccccd	0.2
91	0x3e4ccccd	0.2
92	0x3e4ccccd	0.2
93	0x3e4ccccd	0.2
94	0x3e4ccccd	0.2
95	0x3e4ccccd	0.2
96	0x3e4ccccd	0.2
97	0x3e4ccccd	0.2
98	0x3e4ccccd	0.2
99	0x3e4ccccd	0.2
100	0x3e4ccccd	0.2
101	0x3e4ccccd	0.2
102	0x3e4ccccd	0.2
103	0x3e4ccccd	0.2
104	0x3e4ccccd	0.2
105	0x3e4ccccd	0.2
106	0x3e4ccccd	0.2
107	0x3e4ccccd	0.2
108	0x3e4ccccd	0.2
109	0x3e4ccccd	0.2
110	0x3e4ccccd	0.2
111	0x3e4ccccd	0.2
112	0x3e4ccccd	0.2
113	0x3e4ccccd	0.2
114	0x3e4ccccd	0.2
115	0x3e4ccccd	0.2
116	0x3e4ccccd	0.2
117	0x3e4ccccd	0.2
118	0x3e4ccccd	0.2
119	0x3e4ccccd	0.2
120	0x3e4ccccd	0.2
121	0x3e4ccccd	0.2
122	0x3e4ccccd	0.2
123	0x3e4ccccd	0.2
124	0x3e4ccccd	0.2
125	0x3e4ccccd	0.2
126	0x3e4ccccd	0.2
127	0x3e4ccccd	0.2
128	0x3e4ccccd	0.2
129	0x3e4ccccd	0.2
130	0x3e4ccccd	0.2
131	0x3e4ccccd	0.2
132	0x3e4ccccd	0.2
133	0x3e4ccccd	0.2
134	0x3e4ccccd	0.2
135	0x3e4ccccd	0.2
136	0x3e4ccccd	0.2
137	0x3e4ccccd	0.2
138	0x3e4ccccd	0.2
139	0x3e4ccccd	0.2
140	0x3e4ccccd	0.2
141	0x3e4ccccd	0.2
142	0x3e4ccccd	0.2
143	0x3e4ccccd	0.2
144	0x3e4ccccd	0.2
145	0x3e4ccccd	0.2
146	0x3e4ccccd	0.2
147	0x3e4ccccd	0.2
148	0x3e4ccccd	0.2
149	0x3e4ccccd	0.2
150	0x3e4ccccd	0.2
151	0x3e4ccccd	0.2
152	0x3e4ccccd	0.2
153	0x3e4ccccd	0.2
154	0x3e4ccccd	0.2
155	0x3e4ccccd	0.2
156	0x3e4ccccd	0.2
157	0x3e4ccccd	0.2
158	0x3e4ccccd	0.2
159	0x3e4ccccd	0.2
160	0x3e4ccccd	0.2
161	0x3e4ccccd	0.2
162	0x3e4ccccd	0.2
163	0x3e4ccccd	0.2
164	0x3e4ccccd	0.2
165	0x3e4ccccd	0.2
166	0x3e4ccccd	0.2
167	0x3e4ccccd	0.2
168	0x3e4ccccd	0.2
169	0x3e4ccccd	0.2
170	0x3e4ccccd	0.2
171	0x3e4ccccd	0.2
172	0x3e4ccccd	0.2
173	0x3e4ccccd	0.2
174	0x3e4ccccd	0.2
175	0x3e4ccccd	0.2
176	0x3e4ccccd	0.2
177	0x3e4ccccd	0.2
178	0x3e4ccccd	0.2
179	0x3e4ccccd	0.2
180	0x3e4ccccd	0.2
181	0x3e4ccccd	0.2
182	0x3e4ccccd	0.2
183	0x3e4ccccd	0.2
184	0x3e4ccccd	0.2
185	0x3e4ccccd	0.2
186	0x3e4ccccd	0.2
187	0x3e4ccccd	0.2
188	0x3e4ccccd	0.2
189	0x3e4ccccd	0.2
190	0x3e4ccccd	0.2
191	0x3e4ccccd	0.2
192	0x3e4ccccd	0.2
193	0x3e4ccccd	0.2
194	0x3e4ccccd	0.2
195	0x3e4ccccd	0.2
196	0x3e4ccccd	0.2
197	0x3e4ccccd	0.2
198	0x3e4ccccd	0.2
199	0x3e4ccccd	0.2
200	0x3e4ccccd	0.2
201	0x3e4ccccd	0.2
202	0x3e4ccccd	0.2
203	0x3e4ccccd	0.2
204	0x3e4ccccd	0.2
205	0x3e4ccccd	0.2
206	0x3e4ccccd	0.2
207	0x3e4ccccd	0.2
208	0x3e4ccccd	0.2
209	0x3e4ccccd	0.2
210	0x3e4ccccd	0.2
211	0x3e4ccccd	0.2
212	0x3e4ccccd	0.2
213	0x3e4ccccd	0.2
214	0x3e4ccccd	0.2
215	0x3e4ccccd	0.2
216	0x3e4ccccd	0.2
217	0x3e4ccccd	0.2
218	0x3e4ccccd	0.2
219	0x3e4ccccd	0.2
220	0x3e4ccccd	0.2
221	0x3e4ccccd	0.2
222	0x3e4ccccd	0.2
223	0x3e4ccccd	0.2
224	0x3e4ccccd	0.2
225	0x3e4ccccd	0.2
226	0x3e4ccccd	0.2
227	0x3e4ccccd	0.2
228	0x3e4ccccd	0.2
229	0x3e4ccccd	0.2
230	0x3e4ccccd	0.2
231	0x3e4ccccd	0.2
232	0x3e4ccccd	0.2
233	0x3e4ccccd	0.2
234	0x3e4ccccd	0.2
235	0x3e4ccccd	0.2
236	0x3e4ccccd	0.2
237	0x3e4ccccd	0.2
238	0x3e4ccccd	0.2
239	0x3e4ccccd	0.2
240	0x3e4ccccd	0.2
241	0x3e4ccccd	0.2
242	0x3e4ccccd	0.2
243	0x3e4ccccd	0.2
244	0x3e4ccccd	0.2
245	0x3e4ccccd	0.2
246	0x3e4ccccd	0.2
247	0x3e4ccccd	0.2
248	0x3e4ccccd	0.2
249	0x3e4ccccd	0.2
250	0x3e4ccccd	0.2
251	0x3e4ccccd	0.2
252	0x3e4ccccd	0.2
253	0x3e4ccccd	0.2
254	0x3e4ccccd	0.2
255	0x3e4ccccd	0.2
