main/ms_models/simple_saved/Wt_Xt_theta_12000.npz (npz, 28652 bytes, 2 tensors)

Wt f4 [101, 3]
000000 00 00 00 00 00 00 00 00 00 00 00 00 c6 9c 92 be
       0.0 0.0 0.0 -0.28635234
000010 04 b5 11 bf 1a 16 68 3f 2b b6 01 bf 3e 8b 4e bf
       -0.5691683 0.90658724 -0.5066859 -0.80681217
000020 51 02 c4 3f e9 d2 5c bf a8 42 95 bf 7a 2b 0c 40
       1.5313207 -0.86259323 -1.1660967 2.1901536
000030 30 24 91 bf 52 a7 c3 bf 2a c7 33 40 d9 6a b1 bf
       -1.1339169 -1.5285437 2.809031 -1.3860732
000040 e8 b6 f0 bf 3c b0 4c 40 12 88 d0 bf 47 ba 13 c0
       -1.8805819 3.1982565 -1.6291525 -2.3082445
000050 d2 71 71 40 df 71 c6 bf cd bc 23 c0 b5 ce 8c 40
       3.772572 -1.5503501 -2.5583985 4.400233
000060 9e 0e a0 bf 22 b8 38 c0 d3 da 9a 40 4e 26 a7 bf
       -1.2504461 -2.8862386 4.839212 -1.3058565
000070 df 9f 48 c0 be 6d a4 40 df c1 ac bf 8a 61 64 c0
       -3.1347578 5.1383963 -1.3496665 -3.5684533
000080 55 b9 ad 40 f4 ee b1 bf 86 9d 7d c0 51 b0 bb 40
       5.4288735 -1.3901048 -3.9627395 5.865273
000090 57 3c ae bf 6a 90 85 c0 54 05 c7 40 44 c7 a4 bf
       -1.3612164 -4.1738787 6.2194004 -1.2873311
0000a0 63 25 8e c0 16 6e d1 40 d5 dc a0 bf db e6 90 c0
       -4.442064 6.544688 -1.2567393 -4.5281806
0000b0 ae cc db 40 cb 1a b5 bf 7a 51 8f c0 d1 1f e8 40
       6.8687353 -1.4148802 -4.478696 7.253884
0000c0 6e 40 d0 bf c0 67 90 c0 6b ee ec 40 46 2a cf bf
       -1.6269662 -4.512665 7.4041038 -1.6184776
0000d0 02 c7 9b c0 3f ad f4 40 95 83 c8 bf ec b7 9c c0
       -4.868043 7.646148 -1.5665156 -4.8974514
0000e0 01 ce fd 40 10 08 ce bf 00 04 a5 c0 40 b0 04 41
       7.931397 -1.609621 -5.1567383 8.29303
0000f0 0b 16 d7 bf 78 62 a6 c0 e4 9e 0b 41 71 ca d7 bf
       -1.6803602 -5.19952 8.726292 -1.6858655
000100 2e cb a2 c0 e4 aa 0f 41 3a cd e6 bf ed 15 a9 c0
       -5.087302 8.979221 -1.803138 -5.2839265
000110 cd 98 11 41 26 46 f6 bf ae 26 af c0 f0 d3 14 41
       9.099805 -1.9240158 -5.4734716 9.301743
000120 0f fe f5 bf 92 31 b7 c0 48 aa 1d 41 37 55 f2 bf
       -1.9218158 -5.724801 9.854073 -1.8932256
000130 05 ad be c0 6e 15 22 41 06 b8 fe bf 85 6c c5 c0
       -5.9586205 10.130232 -1.989991 -6.169497
000140 d2 dc 24 41 53 d8 03 c0 fd e6 cc c0 55 0c 2a 41
       10.303911 -2.0600784 -6.403197 10.628011
000150 49 40 fa bf 2b 92 cd c0 3c 3d 2d 41 e2 32 01 c0
       -1.9550868 -6.424093 10.82745 -2.0187306
000160 73 f0 ce c0 fd b8 2f 41 2f e8 13 c0 9a cd cc c0
       -6.4668517 10.982663 -2.3110464 -6.400098
000170 8c ba 34 41 21 8f 17 c0 7e 46 cd c0 26 b6 36 41
       11.295544 -2.368111 -6.414855 11.41947
000180 e8 59 1e c0 8a f6 c9 c0 41 1c 3b 41 4c ed 20 c0
       -2.4742374 -6.311345 11.694398 -2.5144835
000190 18 6b ca c0 47 01 40 41 8b 38 37 c0 49 c5 d1 c0
       -6.325573 12.000312 -2.862826 -6.5553327
0001a0 c3 79 42 41 b8 fc 42 c0 d2 b3 d1 c0 82 4d 42 41
       12.154727 -3.0466747 -6.5532007 12.143923
0001b0 27 f1 4c c0 e0 9b d4 c0 0d a8 46 41 bb 09 4e c0
       -3.2022188 -6.6440277 12.416028 -3.219344
0001c0 8e 5d d8 c0 52 23 4c 41 66 0b 59 c0 bd 28 df c0
       -6.7614202 12.758623 -3.3913207 -6.973723
0001d0 ba 08 50 41 7b 7f 5d c0 1f e2 de c0 3c d8 52 41
       13.0021305 -3.4609058 -6.9651027 13.177792
0001e0 86 1f 5e c0 1f c8 df c0 d6 39 53 41 72 07 60 c0
       -3.470674 -6.993179 13.20162 -3.5004544
0001f0 39 a3 dd c0 51 07 57 41 90 db 67 c0 83 9b e1 c0
       -6.9261746 13.439286 -3.622776 -7.0502334
000200 2f 50 57 41 e7 e4 7d c0 a5 6c e2 c0 9e 5f 58 41
       13.457076 -3.967096 -7.0757623 13.523344
000210 c1 bf 84 c0 18 90 ec c0 34 fc 58 41 a5 c1 8a c0
       -4.1484075 -7.3925896 13.561573 -4.3361382
000220 8f 74 ea c0 fd 41 5a 41 f7 ff 8b c0 02 32 ec c0
       -7.3267283 13.64111 -4.3749957 -7.3811045
000230 28 9d 5c 41 82 47 90 c0 4a 1d ec c0 94 bd 5d 41
       13.788368 -4.508729 -7.3785753 13.858784
000240 38 62 98 c0 ac 59 e8 c0 54 ce 60 41 1d 6b 93 c0
       -4.7619896 -7.2609463 14.050373 -4.6068254
000250 a9 8c e8 c0 43 74 62 41 0f ce 97 c0 42 0d e9 c0
       -7.2671704 14.153384 -4.7439036 -7.2828684
000260 ff f4 63 41 d6 8f a0 c0 2e 30 ee c0 f8 58 67 41
       14.2473135 -5.017558 -7.4433813 14.459221
000270 5c 39 a5 c0 4d 88 ee c0 f9 06 6a 41 f3 96 ae c0
       -5.163252 -7.4541383 14.626702 -5.4559264
000280 2c 85 ec c0 76 fe 6a 41 c3 b1 ac c0 5b cb ed c0
       -7.3912563 14.687124 -5.3966994 -7.4310737
000290 3d 4c 6e 41 84 5c b4 c0 60 60 f4 c0 b6 88 6f 41
       14.893613 -5.6362934 -7.6367645 14.970877
0002a0 00 f4 b7 c0 87 60 f4 c0 35 a7 72 41 10 c6 b8 c0
       -5.748535 -7.636783 15.165822 -5.7741776
0002b0 26 b1 ef c0 14 45 74 41 9d a4 bc c0 1d dd eb c0
       -7.4903746 15.266865 -5.8950944 -7.3707414
0002c0 51 5a 76 41 72 9a c5 c0 b7 cb ee c0 69 8d 77 41
       15.39705 -6.175103 -7.4623675 15.472024
0002d0 f5 0b c8 c0 78 47 ed c0 d5 2d 79 41 65 6f c8 c0
       -6.2514596 -7.414974 15.573689 -6.263598
0002e0 f1 31 e8 c0 32 65 7a 41 c9 0c d1 c0 d0 19 e8 c0
       -7.2560964 15.649706 -6.5328107 -7.253151
0002f0 60 c0 7b 41 04 d4 d5 c0 fa 17 e9 c0 71 4d 7d 41
       15.734467 -6.682131 -7.284177 15.831407
000300 aa 52 de c0 74 17 e9 c0 be 04 7d 41 92 46 db c0
       -6.947591 -7.284113 15.813658 -6.8523645
000310 ba eb ea c0 81 86 80 41 92 2c db c0 0c 4e ea c0
       -7.341275 16.065676 -6.8491907 -7.322027
000320 9a fd 80 41 9b 38 dc c0 da 21 ee c0 b1 0b 82 41
       16.123829 -6.88191 -7.4416323 16.255709
000330 b4 0e de c0 56 5d ee c0 6a e3 82 41 42 a4 e3 c0
       -6.939295 -7.4488935 16.361042 -7.113801
000340 1f d3 f3 c0 b8 f1 82 41 98 bc e9 c0 91 7a f7 c0
       -7.6195216 16.368027 -7.3042717 -7.7337117
000350 12 4c 84 41 d9 ce e7 c0 d2 4a fb c0 73 c4 84 41
       16.537144 -7.244 -7.8528833 16.595922
000360 7d 63 ec c0 e4 c9 f5 c0 3d 9d 85 41 16 49 f6 c0
       -7.3871446 -7.680895 16.701777 -7.6964216
000370 f9 3b f4 c0 1d 84 86 41 a5 db f7 c0 65 bb f5 c0
       -7.632321 16.814508 -7.745562 -7.6791253
000380 20 82 86 41 49 4d fa c0 3e 18 f7 c0 98 38 87 41
       16.813538 -7.821934 -7.7217093 16.902634
000390 4a 56 f9 c0 24 04 f9 c0 6e 50 88 41 4f 0c fd c0
       -7.7917833 -7.7817554 17.039272 -7.9077525
0003a0 11 7d f9 c0 5f ad 88 41 e0 8d ff c0 f6 e8 f7 c0
       -7.796517 17.084654 -7.9860687 -7.7471876
0003b0 a3 ec 88 41 f7 2b 00 c1 d6 87 f4 c0 4e f9 89 41
       17.115545 -8.010734 -7.6415815 17.24673
0003c0 e4 33 00 c1 68 37 f7 c0 9e 92 89 41 28 c8 01 c1
       -8.012669 -7.7255135 17.19659 -8.111366
0003d0 9a 17 f7 c0 32 0b 8a 41 fc 05 03 c1 3b ee f7 c0
       -7.721631 17.255466 -8.188961 -7.747831
0003e0 93 51 8a 41 57 d1 03 c1 4d 6e f9 c0 4d 80 8a 41
       17.289831 -8.238608 -7.7947145 17.312647
0003f0 9a 6c 03 c1 6c 31 f8 c0 20 28 8a 41 7a 6f 04 c1
       -8.214014 -7.756033 17.269592 -8.277216

Xt f4 [101, 6]
000000 00 00 00 bf 00 00 00 00 cd cc cc 3d d0 6b 1f c0
       -0.5 0.0 0.1 -2.4909554
000010 7e 5d f3 c0 45 dd 24 41 c8 9f 06 bf 56 8d 5e 3c
       -7.6051626 10.304021 -0.52587557 0.013583502
000020 f5 00 f9 3d 3b e9 19 c0 76 ae dd c0 ae 41 19 41
       0.12158386 -2.4048603 -6.9275465 9.578535
000030 93 7d 0d bf c7 9d eb 3c 27 b9 14 3e 70 6c 12 c0
       -0.55269736 0.028761758 0.14523755 -2.2878685
000040 fd 0f c5 c0 75 c4 0c 41 e1 3c 14 bf 00 3b 3f 3d
       -6.1582017 8.797963 -0.57905394 0.046687126
000050 20 11 30 3e 48 93 10 c0 9f 97 b2 c0 90 9d 02 41
       0.17194033 -2.2589893 -5.5810084 8.163467
000060 ea 78 1b bf 81 93 85 3d f2 82 4c 3e 33 b3 0b c0
       -0.60731375 0.06522275 0.19971827 -2.1828125
000070 d7 e2 a2 c0 25 20 f3 40 d1 f9 22 bf d6 52 ad 3d
       -5.0901904 7.597674 -0.6366244 0.08463065
000080 ef 2e 6a 3e b0 99 06 c0 0c 81 95 c0 a6 a0 df 40
       0.22869466 -2.1031303 -4.672003 6.9883604
000090 cf ed 2a bf be 5e d2 3d 11 5c 83 3e 17 d7 01 c0
       -0.6676912 0.10271977 0.2565618 -2.028753
0000a0 be ca 8b c0 b4 92 d2 40 11 17 33 bf e0 97 f7 3d
       -4.368499 6.580408 -0.6995707 0.12089515
0000b0 3b ca 91 3e 03 4a e3 bf a3 7d 80 c0 bc 97 c8 40
       0.28474602 -1.7756962 -4.0153365 6.2685223
0000c0 f0 38 3a bf 27 be 12 3e 3a 3d a2 3e 18 0b b5 bf
       -0.7274313 0.1433035 0.31687337 -1.414401
0000d0 a7 d8 71 c0 1f 56 bd 40 ed 14 40 bf fe 81 2b 3e
       -3.7788484 5.916763 -0.7503193 0.16748807
0000e0 71 43 b3 3e b1 fc a4 bf 35 ab 63 c0 57 e0 b1 40
       0.3501239 -1.2889615 -3.5573246 5.558635
0000f0 f6 b1 45 bf e2 48 43 3e 48 b1 c3 3e ad 03 95 bf
       -0.7722467 0.19070771 0.38221192 -1.1641747
000100 68 12 5f c0 a5 f7 a7 40 d2 2b 4b bf d1 fd 57 3e
       -3.4854984 5.24898 -0.7936374 0.21092917
000110 48 84 d2 3e 9f c2 85 bf 16 72 5a c0 d1 19 a2 40
       0.41116548 -1.0450019 -3.4132133 5.0656514
000120 39 4d 50 bf 70 a6 6b 3e a3 c8 e0 3e 40 ed 63 bf
       -0.8136783 0.2301271 0.43903074 -0.8903389
000130 b3 53 50 c0 a0 8d 9b 40 a5 c5 54 bf e8 7a 7f 3e
       -3.2551086 4.861038 -0.8311408 0.24949229
000140 35 03 ef 3e 54 12 37 bf 06 56 4a c0 e3 73 95 40
       0.46682134 -0.7151234 -3.1615005 4.6703963
000150 b0 8a 58 bf 28 40 89 3e 09 b6 fc 3e 96 68 12 bf
       -0.8458662 0.2680676 0.49357632 -0.57190835
000160 19 1c 3f c0 22 2e 90 40 03 9e 5b bf 62 23 93 3e
       -2.98609 4.5056314 -0.8578798 0.28737932
000170 e2 54 05 3f e6 88 0a bf 6a d3 30 c0 53 c8 8c 40
       0.52082646 -0.5411514 -2.7629037 4.3994536
000180 be 67 5e bf 06 fe 9d 3e 24 c8 0c 3f 29 3a 09 bf
       -0.8687705 0.30857867 0.5499289 -0.5360437
000190 17 a6 27 c0 fe 80 85 40 de 2a 61 bf 4f 12 a8 3e
       -2.6195123 4.171996 -0.87956035 0.32826468
0001a0 2a d4 13 3f 7b 0b cb be 16 d9 2b c0 58 b0 80 40
       0.5774561 -0.39657196 -2.6851249 4.0215263
0001b0 9b 78 63 bf 93 79 b0 3e 7a 07 1a 3f 99 be 71 be
       -0.88855904 0.34467754 0.6016766 -0.23607863
0001c0 fd 19 24 c0 0d 42 7a 40 cf 0a 65 bf dd 18 b9 3e
       -2.5640862 3.9102814 -0.8946962 0.36151782
0001d0 d2 48 20 3f 83 5a 0a be 76 45 26 c0 c2 e1 76 40
       0.62611115 -0.1351109 -2.5979896 3.8575292
0001e0 47 3d 66 bf f7 fa c0 3e 78 33 26 3f 37 63 51 bd
       -0.8993725 0.3769147 0.64922285 -0.05112001
0001f0 ed 9a 20 c0 3e 60 76 40 f0 07 67 bf c3 6d c9 3e
       -2.509456 3.8496242 -0.90246487 0.39341554
000200 2b 6b 2c 3f 92 99 91 3d 46 32 16 c0 47 48 6f 40
       0.67351025 0.07109369 -2.3468184 3.7387865
000210 73 41 67 bf 72 4b d2 3e d0 ca 32 3f d0 9b 01 3e
       -0.9033424 0.41073185 0.6984072 0.12657094
000220 c0 d8 18 c0 95 2a 64 40 a6 56 67 bf a1 65 d9 3e
       -2.3882294 3.565099 -0.9036659 0.4246035
000230 ff 4b 38 3f 9b b5 3a 3e 68 66 1b c0 86 f9 5c 40
       0.7199096 0.1823334 -2.4281254 3.4527297
000240 47 42 67 bf 65 3b df 3e 09 33 3d 3f ae 63 9f 3e
       -0.90335506 0.43600002 0.73906 0.31130737
000250 66 5b 20 c0 4d 47 63 40 00 b6 66 bf 0a 1a e5 3e
       -2.5055785 3.5512269 -0.9012146 0.4474643
000260 f0 36 42 3f 2e 32 e7 3e 15 65 24 c0 a0 86 5e 40
       0.7586508 0.45155472 -2.5686696 3.4769669
000270 55 b1 65 bf 26 ea e9 3e c3 bb 46 3f 8a ba 03 3f
       -0.8972371 0.45686454 0.7763025 0.5145651
000280 4a 8e 27 c0 e3 49 56 40 3e 83 64 bf d8 59 ed 3e
       -2.6180596 3.3482597 -0.8926276 0.46357608
000290 bb 98 4a 3f ba 03 18 3f 50 99 2b c0 2b 44 54 40
       0.791393 0.59380686 -2.6812325 3.3166606
0002a0 8f 1b 63 bf 3a 03 f0 3e 54 24 4e 3f 8a f5 45 3f
       -0.88713926 0.46877462 0.8052418 0.7732779
0002b0 43 9f 27 c0 b9 a2 4d 40 c8 11 61 bf ec 78 f2 3e
       -2.6190956 3.2130568 -0.8791776 0.4735788
0002c0 b2 8a 51 3f 34 a6 58 3f c0 57 25 c0 e4 18 46 40
       0.8185226 0.84628606 -2.5834808 3.0952692
0002d0 f3 d1 5e bf 78 5c f4 3e af a4 54 3f 06 37 49 3f
       -0.8703911 0.47726798 0.8306379 0.78599584
0002e0 bb a3 1f c0 7c 20 45 40 ac cc 5c bf ad 97 f6 3e
       -2.4943683 3.0801077 -0.86249804 0.48162594
0002f0 b7 f6 57 3f ce dd 5e 3f 68 c2 1d c0 08 37 3d 40
       0.8436083 0.870572 -2.4649906 2.9564838
000300 9b 89 5a bf bf 36 f8 3e 1a f4 5a 3f d6 ba 6c 3f
       -0.8536622 0.48479268 0.8552872 0.9247259
000310 93 23 18 c0 10 ae 3b 40 f3 1a 58 bf 11 3a fa 3e
       -2.3771713 2.932499 -0.8441612 0.48872426
000320 8b 22 5e 3f d6 20 82 3f 09 ce 17 c0 2d 73 3b 40
       0.8677146 1.0166271 -2.3719504 2.9289048
000330 f7 6a 55 bf 4f 37 fc 3e f0 54 61 3f 02 5b 6d 3f
       -0.8336634 0.49260947 0.8802023 0.9271699
000340 2f cd 1f c0 a1 89 35 40 7e 2c 53 bf 80 9e fc 3e
       -2.4968984 2.8365252 -0.82489765 0.49339676
000350 09 d9 63 3f 18 f1 71 3f ab 99 1e c0 e6 d7 29 40
       0.89003044 0.94508505 -2.4781291 2.6538024
000360 93 f3 50 bf 10 0a fc 3e 55 d4 65 3f d7 8c 7b 3f
       -0.81621665 0.49226427 0.8977712 0.9826178
000370 53 6b 21 c0 67 db 29 40 c4 b2 4e bf 79 23 fb 3e
       -2.5221756 2.6540163 -0.80741525 0.490505
000380 e0 b7 67 3f cb f7 8c 3f 7c 28 25 c0 09 55 2c 40
       0.90514946 1.101312 -2.580596 2.6926901
000390 bc 29 4c bf 3b 20 fa 3e e7 9d 69 3f e9 ef 8f 3f
       -0.7975118 0.48852715 0.91256565 1.124509
0003a0 16 3f 2c c0 54 b6 2a 40 1d b3 49 bf c5 3e f8 3e
       -2.6913505 2.6673784 -0.7878893 0.4848539
0003b0 c8 2d 6b 3f 80 c2 9a 3f 82 98 2a c0 ae 87 26 40
       0.9186673 1.2090607 -2.6655583 2.6020312
0003c0 ac 0e 47 bf 24 3d f6 3e 43 a7 6c 3f 2a 7f a9 3f
       -0.7775676 0.48093522 0.9244272 1.3241932
0003d0 90 d3 2a c0 9a 2f 1d 40 39 2e 44 bf fb 95 f3 3e
       -2.6691628 2.4560304 -0.7663303 0.47575364
0003e0 7c ba 6d 3f 5a dd b5 3f 6d f7 27 c0 67 d1 1c 40
       0.9286268 1.4208176 -2.6244767 2.450281
0003f0 5f 18 41 bf 98 49 f1 3e a8 f3 6e 3f 8a 85 ba 3f
       -0.7542781 0.4712646 0.9334054 1.4572003
