main/ms_models/simple_saved/Wt_Xt_theta_17500.npz (npz, 39662 bytes, 2 tensors)

Wt f4 [101, 3]
0.0 0.0 0.0 -0.30749968 -0.5135478 0.72856855 -0.5539293 -1.0434003
1.5181699 -0.8819382 -1.7329274 2.206141 -1.3668888 -2.2627308 2.8676782 -1.4478744
-2.5186698 3.3358414 -1.5920253 -3.0677314 3.7953994 -1.8488784 -3.1236842 4.750585
-1.8881791 -3.3864615 5.1234756 -1.9791805 -3.4452267 5.2987666 -1.9800466 -3.6056936
5.388846 -2.102729 -4.050043 6.00876 -2.0195613 -4.3500447 6.4415812 -2.1596746
-4.5158424 6.8298306 -2.0680344 -4.6775346 7.1632085 -2.163287 -4.857695 7.6872025
-2.3474605 -5.1526995 7.842637 -2.3822181 -5.306067 7.9786596 -2.5609405 -5.5075817
8.312057 -2.6803946 -5.5400114 8.681021 -2.7834105 -5.6298184 8.973049 -2.7310166
-5.6121254 9.216506 -2.8092713 -5.675517 9.208658 -3.0047917 -5.7093515 9.539897
-3.0293725 -5.892598 9.7333145 -3.0508707 -5.8611054 10.006104 -3.289621 -5.4968905
10.260516 -3.3911953 -5.613154 10.438236 -3.2470648 -5.7053943 10.556311 -3.310182
-5.7427454 10.642003 -3.7336888 -5.929456 10.858032 -3.741834 -6.023473 10.939508
-3.8284667 -6.1982 11.105441 -4.0502553 -6.3236103 11.523267 -4.2676244 -6.3516827
11.743302 -4.2852373 -6.38119 11.980115 -4.405278 -6.4055557 12.264253 -4.572501
-6.436549 12.470792 -4.6692142 -6.710919 12.8171425 -4.9031196 -6.5351152 12.8390045
-4.8427653 -6.4876523 12.959447 -4.98472 -6.4448466 13.0238 -5.028002 -6.351801
13.072473 -5.3277583 -6.417135 13.072904 -5.3903017 -6.448013 13.195396 -5.359808
-6.4257565 13.226996 -5.340525 -6.213884 13.306156 -5.407131 -6.1181517 13.484966
-5.513914 -6.2369356 13.676889 -5.632811 -6.2789254 13.89977 -5.801598 -6.2061467
14.044697 -5.9533052 -6.273227 14.076055 -6.141894 -6.1907573 14.275222 -6.378009
-6.161112 14.366165 -6.3991704 -5.9993176 14.472604 -6.7334747 -6.0584702 14.464937
-6.7991734 -5.974445 14.489448 -7.0591936 -5.846457 14.672974 -7.195399 -5.7644362
14.978194 -7.394731 -5.812628 14.94065 -7.6283383 -5.652452 15.167747 -7.6444187
-5.709726 15.205711 -7.774597 -5.678964 15.386721 -7.7114496 -5.620083 15.514168
-7.9616914 -5.5835567 15.532727 -8.015348 -5.5656037 15.671406 -7.9523435 -5.740605
15.790532 -8.035285 -5.85991 15.818547 -8.199099 -5.7162194 16.006056 -8.253578
-5.6445684 16.202906 -8.284916 -5.841912 16.32235 -8.430854 -5.741368 16.451706
-8.689428 -5.678664 16.451595 -8.782072 -5.7633224 16.506374 -9.002673 -5.574498
16.60227 -8.968792 -5.6507196 16.643757 -9.054601 -5.5413284 16.787195 -9.151201
-5.553235 16.777397 -9.175727 -5.565301 16.866856 -9.195068 -5.6168613 16.913563
-9.316359 -5.748144 16.836626 -9.438641 -5.7349396 16.919926 -9.511345 -5.7120824
17.122206 -9.590375 -5.7117662 17.160778 -9.621912 -5.672443 17.240274 -9.639713
00000000: 0000 0000 0000 0000 0000 0000 9970 9dbe
00000010: de77 03bf 7883 3a3f 50ce 0dbf 248e 85bf
00000020: 6453 c23f b4c6 61bf 91d0 ddbf 6a31 0d40
00000030: 36f6 aebf 95d0 10c0 0a88 3740 f353 b9bf
00000040: e331 21c0 6d7e 5540 7cc7 cbbf b655 44c0
00000050: d3e7 7240 0ca8 ecbf 71ea 47c0 cb04 9840
00000060: daaf f1bf c9bb 58c0 83f3 a340 c955 fdbf
00000070: 987e 5cc0 7f8f a940 2b72 fdbf afc3 66c0
00000080: 6d71 ac40 1d93 06c0 f499 81c0 c347 c040
00000090: 7e40 01c0 9133 8bc0 6f21 ce40 1c38 0ac0
000000a0: c881 90c0 f98d da40 ad5a 04c0 5dae 95c0
000000b0: 0139 e540 4b73 0ac0 3d72 9bc0 90fd f540
000000c0: cb3c 16c0 eae2 a4c0 e2f6 fa40 4376 18c0
000000d0: 4dcb a9c0 2e51 ff40 73e6 23c0 1c3e b0c0
000000e0: 2ffe 0441 968b 2bc0 c647 b1c0 76e5 0a41
000000f0: 6623 32c0 7927 b4c0 9c91 0f41 fac8 2ec0
00000100: 8896 b3c0 cf76 1341 1acb 33c0 d69d b5c0
00000110: aa56 1341 824e 40c0 02b3 b6c0 6ba3 1841
00000120: 3de1 41c0 2a90 bcc0 a8bb 1b41 7741 43c0
00000130: 2d8e bbc0 0119 2041 2789 52c0 87e6 afc0
00000140: 132b 2441 5809 59c0 f59e b3c0 0403 2741
00000150: e9cf 4fc0 9792 b6c0 a6e6 2841 06da 53c0
00000160: 92c4 b7c0 a545 2a41 c2f4 6ec0 1bbe bdc0
00000170: 80ba 2d41 357a 6fc0 4ac0 c0c0 3a08 2f41
00000180: 9905 75c0 a857 c6c0 e3af 3141 b19b 81c0
00000190: 045b cac0 4d5f 3841 6190 88c0 fc40 cbc0
000001a0: 91e4 3b41 aa20 89c0 b532 ccc0 8dae 3f41
000001b0: 0af8 8cc0 50fa ccc0 613a 4441 ee51 92c0
000001c0: 36f8 cdc0 5d88 4741 346a 95c0 d9bf d6c0
000001d0: 0413 4d41 5be6 9cc0 aa1f d1c0 906c 4d41
000001e0: eff7 9ac0 d99a cfc0 e559 4f41 d482 9fc0
000001f0: 2f3c cec0 7c61 5041 64e5 a0c0 f441 cbc0
00000200: d928 5141 ff7c aac0 2b59 cdc0 9d2a 5141
00000210: 5a7d acc0 1f56 cec0 5820 5341 8c83 abc0
00000220: cc9f cdc0 c7a1 5341 95e5 aac0 23d8 c6c0
00000230: 04e6 5441 3807 adc0 e6c7 c3c0 6cc2 5741
00000240: fc71 b0c0 fa94 c7c0 8ad4 5a41 fd3f b4c0
00000250: f5ec c8c0 7565 5e41 b1a6 b9c0 c198 c6c0
00000260: 14b7 6041 7a81 bec0 47be c8c0 8537 6141
00000270: 658a c4c0 af1a c6c0 4f67 6441 a618 ccc0
00000280: d427 c5c0 d0db 6541 01c6 ccc0 69fa bfc0
00000290: c98f 6741 a078 d7c0 fdde c1c0 6270 6741
000002a0: d492 d9c0 a72e bfc0 c7d4 6741 eae4 e1c0
000002b0: 2d16 bbc0 80c4 6a41 b540 e6c0 4376 b8c0
000002c0: afa6 6f41 a3a1 ecc0 0c01 bac0 e70c 6f41
000002d0: 591b f4c0 e3e0 b4c0 17af 7241 149f f4c0
000002e0: 13b6 b6c0 984a 7341 80c9 f8c0 13ba b5c0
000002f0: 0230 7641 32c4 f6c0 b8d7 b3c0 083a 7841
00000300: 2dc6 fec0 7fac b2c0 0d86 7841 de3e 00c1
00000310: 6d19 b2c0 14be 7a41 9979 fec0 09b3 b7c0
00000320: 05a6 7c41 8790 00c1 6284 bbc0 c518 7d41
00000330: 822f 03c1 45eb b6c0 670c 8041 a80e 04c1
00000340: 4ea0 b4c0 8d9f 8141 048f 04c1 f1f0 bac0
00000350: 2c94 8241 c7e4 06c1 49b9 b7c0 189d 8341
00000360: e607 0bc1 9eb7 b5c0 de9c 8341 5e83 0cc1
00000370: 236d b8c0 0e0d 8441 f30a 10c1 4a62 b2c0
00000380: 73d1 8441 2c80 0fc1 b2d2 b4c0 6a26 8541
00000390: a5df 10c1 9052 b1c0 2d4c 8641 526b 12c1
000003a0: 1ab4 b1c0 1c38 8641 c7cf 12c1 f216 b2c0
000003b0: 52ef 8641 001f 13c1 54bd b3c0 fa4e 8741
000003c0: ce0f 15c1 ccf0 b7c0 69b1 8641 ac04 17c1
000003d0: a084 b7c0 025c 8741 782e 18c1 61c9 b6c0
000003e0: 47fa 8841 2d72 19c1 cac6 b6c0 4649 8941
000003f0: 5af3 19c1 a784 b5c0 15ec 8941 443c 1ac1

Xt f4 [101, 6]
-0.5 0.0 0.1 -2.4136038 -6.997365 9.978782 -0.51948255 0.020453485
0.12812565 -2.3403194 -6.3946147 9.226059 -0.5417501 0.040236432 0.15601303 -2.240473
-5.8883247 8.614776 -0.5655603 0.06059623 0.18485317 -2.1988125 -5.5516157 8.036835
-0.59350437 0.07811597 0.21133074 -2.25637 -5.171797 7.522064 -0.62570935 0.09369914
0.23651695 -2.075605 -4.6823745 6.958629 -0.65642685 0.11132605 0.26373005 -1.9486461
-4.4516716 6.491339 -0.6880995 0.1270874 0.2891764 -1.902086 -3.9831405 6.3852553
-0.71695095 0.15096301 0.32298252 -1.7220145 -3.7047617 5.9717913 -0.7443769 0.17496282
0.35666505 -1.5873872 -3.3658922 5.516076 -0.7704732 0.19877955 0.38983616 -1.4090366
-3.1477149 5.08264 -0.79476386 0.22069506 0.42064917 -1.3130895 -3.1395369 5.0196667
-0.81814617 0.24253818 0.45146304 -1.1014729 -3.0586905 4.8607864 -0.83831763 0.26440722
0.48200068 -1.0297282 -2.925246 4.703724 -0.857303 0.28630373 0.512504 -0.8225506
-2.8148868 4.5364413 -0.87282485 0.30813816 0.5426133 -0.73184454 -2.741488 4.5042543
-0.8866852 0.3307991 0.573597 -0.6917018 -2.7506943 4.264782 -0.90036774 0.34936598
0.6005068 -0.5615506 -2.6856976 4.0370646 -0.9119843 0.36557525 0.6248607 -0.5165048
-2.6662514 3.9484744 -0.9228418 0.38054138 0.64810145 -0.432934 -2.5578778 3.8884082
-0.93203527 0.39621642 0.67205936 -0.337682 -2.5019398 3.7914739 -0.93958694 0.41119573
0.69532835 -0.1517012 -2.3978963 3.6765106 -0.94400764 0.42615804 0.71837926 -0.04698746
-2.3613994 3.4302382 -0.946884 0.43798777 0.7381021 -0.010273211 -2.321068 3.4042892
-0.94910777 0.44975892 0.75792825 0.12978768 -2.3771245 3.3003836 -0.94936746 0.4591301
0.77542216 0.26803276 -2.3106072 3.2508142 -0.9474887 0.4687045 0.7930896 0.2771796
-2.0661612 3.1960385 -0.94513065 0.4807917 0.8130904 0.37219596 -2.1325371 3.105539
-0.9415983 0.49049944 0.83084047 0.6085791 -2.1852708 2.9870138 -0.93489784 0.49796
0.8462481 0.7128684 -2.2091973 2.860528 -0.9269578 0.50335675 0.859559 0.60655975
-2.3241386 2.8209095 -0.92085934 0.5062337 0.8708403 0.7545788 -2.3772533 2.7034414
-0.9130156 0.50696665 0.87995833 0.851101 -2.478596 2.6459634 -0.904252 0.5056195
0.8872121 0.86700016 -2.5459893 2.7377224 -0.8955864 0.5042967 0.8950171 0.88905936
-2.5519392 2.7023582 -0.8869042 0.50236875 0.90240014 1.0298059 -2.5626307 2.6791954
-0.87669075 0.5001243 0.90953577 1.1044168 -2.5746772 2.6849527 -0.86584777 0.49777803
0.9167641 1.1498674 -2.5934236 2.6436458 -0.8548085 0.494719 0.9234205 1.2365113
-2.7552915 2.6860244 -0.84331053 0.49014282 0.92913187 1.2408379 -2.6417212 2.5313923
-0.8320069 0.4853475 0.934271 1.4183102 -2.621473 2.4528544 -0.81896824 0.4803221
0.9389122 1.4664053 -2.612865 2.351131 -0.805829 0.47454247 0.9426362 1.5699047
00000000: 0000 00bf 0000 0000 cdcc cc3d 7c78 1ac0
00000010: 6aea dfc0 17a9 1f41 cffc 04bf 118e a73c
00000020: 5f33 033e cbc7 15c0 afa0 ccc0 f09d 1341
00000030: 22b0 0abf f5ce 243d e1c1 1f3e e963 0fc0
00000040: 286d bcc0 1fd6 0941 8fc8 10bf c133 783d
00000050: 264a 3d3e 58b9 0cc0 d6a6 b1c0 e096 0041
00000060: e7ef 17bf 44fb 9f3d 1667 583e 5e68 10c0
00000070: 5c7f a5c0 c0b4 f040 7d2e 20bf 56e5 bf3d
00000080: 8031 723e b6d6 04c0 03d6 95c0 17ad de40
00000090: 970b 28bf e9fe e33d a007 873e 3c6d f9bf
000000a0: 1874 8ec0 0db9 cf40 4a27 30bf 3323 023e
000000b0: ee0e 943e 8e77 f3bf c6eb 7ec0 0354 cc40
000000c0: 198a 37bf 0c96 1a3e f75d a53e f96a dcbf
000000d0: d11a 6dc0 ea18 bf40 7c8f 3ebf 7429 333e
000000e0: cd9c b63e 812f cbbf c76a 57c0 b283 b040
000000f0: bb3d 45bf de8c 4b3e 9b98 c73e 505b b4bf
00000100: 2974 49c0 fda4 a240 a575 4bbf e3fd 613e
00000110: 545f d73e 5113 a8bf 2cee 48c0 1ca1 a040
00000120: 0772 51bf ee5b 783e 2a26 e73e 10fd 8cbf
00000130: 96c1 43c0 908b 9b40 fc9b 56bf 6260 873e
00000140: cbc8 f63e 22ce 83bf 3b37 3bc0 e884 9640
00000150: 3678 5bbf 6796 923e 7633 033f ad92 52bf
00000160: 1b27 34c0 872a 9140 7371 5fbf 49c4 9d3e
00000170: b5e8 0a3f 2a5a 3bbf 8a74 2fc0 da22 9040
00000180: cdfd 62bf 805e a93e 41d7 123f 5f13 31bf
00000190: 600b 30c0 1879 8840 807e 66bf 19e0 b23e
000001a0: d0ba 193f c8c1 0fbf 78e2 2bc0 a22f 8140
000001b0: ce77 69bf ae2c bb3e dff6 1f3f a939 04bf
000001c0: dda3 2ac0 ceb3 7c40 5c3f 6cbf 52d6 c23e
000001d0: fae9 253f 86a9 ddbe 45b4 23c0 aedb 7840
000001e0: dd99 6ebf e1dc ca3e 150c 2c3f a8e4 acbe
000001f0: c81f 20c0 82a7 7240 c588 70bf 3f88 d23e
00000200: 0a01 323f 8f57 1bbe 2277 19c0 f34b 6b40
00000210: 7caa 71bf 6331 da3e b4e7 373f ec75 40bd
00000220: 2b21 17c0 0689 5b40 fd66 72bf ef3f e03e
00000230: 42f4 3c3f f850 28bc 618c 14c0 e0df 5940
00000240: baf8 72bf cd46 e63e 9607 423f 10e7 043e
00000250: cf22 18c0 7c39 5340 bf09 73bf 1a13 eb3e
00000260: 1182 463f 973b 893e fde0 13c0 570d 5040
00000270: 9f8e 72bf 09fa ef3e ec07 4b3f 7cea 8d3e
00000280: fc3b 04c0 e58b 4c40 15f4 71bf 542a f63e
00000290: b126 503f 7890 be3e 7d7b 08c0 27c1 4640
000002a0: 960c 71bf be22 fb3e f6b1 543f d7cb 1b3f
000002b0: 7adb 0bc0 3c2b 3f40 7755 6fbf 9df4 fe3e
000002c0: b7a3 583f 8b7e 363f 7d63 0dc0 e412 3740
000002d0: 1b4d 6dbf fddb 003f 0f0c 5c3f 8047 1b3f
000002e0: b0be 14c0 c889 3440 70bd 6bbf 8898 013f
000002f0: 64ef 5e3f 142c 413f eb24 18c0 2f05 2d40
00000300: 64bb 69bf 91c8 013f f344 613f c1e1 593f
00000310: 51a1 1ec0 7757 2940 0f7d 67bf 4870 013f
00000320: 5520 633f b9f3 5d3f 7df1 22c0 d836 2f40
00000330: 2645 65bf 9719 013f d71f 653f 6599 633f
00000340: f952 23c0 70f3 2c40 270c 63bf 3d9b 003f
00000350: b203 673f aed0 833f 2402 24c0 f077 2b40
00000360: ce6e 60bf 2508 003f 56d7 683f 885d 8d3f
00000370: 83c7 24c0 44d6 2b40 33a8 5dbf c3dc fe3e
00000380: 0db1 6a3f db2e 933f a7fa 25c0 7e31 2940
00000390: bbd4 5abf cf4b fd3e 4965 6c3f 0146 9e3f
000003a0: b256 30c0 d3e7 2b40 33e3 57bf 00f4 fa3e
000003b0: 96db 6d3f c7d3 9e3f f611 29c0 5502 2240
000003c0: 67fe 54bf 787f f83e 622c 6f3f 308b b53f
000003d0: 37c6 27c0 91fb 1c40 e7a7 51bf c7ec f53e
000003e0: 8d5c 703f 2bb3 bb3f 2e39 27c0 ee78 1640
000003f0: cf4a 4ebf 3bf7 f23e 9b50 713f a3f2 c83f
