main/tv_models/simple_template/Wt_Xt_theta11500.npz (npz, 110924 bytes, 3 tensors)

Wt f4 [5, 101, 3]
000000 00 00 00 00 00 00 00 00 00 00 00 00 eb 5a b2 bd
       0.0 0.0 0.0 -0.087087475
000010 33 8d 7f 3d 19 4e 02 3e 09 e6 83 3d f3 d3 ba 3c
       0.062390517 0.12725104 0.0644036 0.022806143
000020 b2 06 74 3e 68 5a ba 3d e7 19 51 bd cc 8e ac 3e
       0.23830679 0.09099275 -0.051050093 0.33702695
000030 dc 3e 5e 3e a6 84 aa be 07 04 e6 3e 04 c4 5d 3e
       0.21703666 -0.33304328 0.44924948 0.21656805
000040 ea 37 9e be cd f0 fa 3e c0 8c 62 3e f2 af 97 be
       -0.30902034 0.4901184 0.22124004 -0.29626423
000050 e2 bb e4 3e 42 0a 7f 3e 2d ca b2 be fa f5 e3 3e
       0.44674593 0.24906257 -0.34919873 0.44523603
000060 f2 6c 8f 3e fa 8a 8d be 6e 94 12 3f 0a 09 9b 3e
       0.28012806 -0.27645093 0.57257736 0.30280334
000070 05 06 2b be 09 18 28 3f 14 2d b7 3e 7a f0 92 be
       -0.16701515 0.65661675 0.3577658 -0.28699094
000080 3c ab 17 3f f0 d8 c0 3e 38 11 d1 be 97 e9 16 3f
       0.5924566 0.3766551 -0.4083345 0.5895018
000090 87 a0 22 3f fc c6 c2 be aa d2 43 3f 97 98 0b 3f
       0.63526195 -0.38042438 0.7649332 0.5452971
0000a0 e1 dc 08 bf f4 09 2c 3f 39 62 f6 3e 1a 8a 07 bf
       -0.53462034 0.6720269 0.48121813 -0.529451
0000b0 b7 c1 26 3f 91 6e dd 3e d9 19 20 bf 8d 86 2c 3f
       0.65139335 0.43248418 -0.6253944 0.6739281
0000c0 14 86 b6 3e fb 21 1b bf 5c 2d 32 3f 5f 75 f6 3e
       0.35649168 -0.60598725 0.6960046 0.48136422
0000d0 e0 42 21 bf 06 41 76 3f 22 2e 03 3f e9 8c 50 bf
       -0.6299267 0.9619297 0.5124227 -0.8146501
0000e0 dc ca 4d 3f 3f 9d fc 3e 2c af 51 bf 8d 2e db 3e
       0.80387664 0.4933872 -0.81907916 0.42808953
0000f0 93 a8 1d 3f bb 41 3b bf 10 c3 a8 3e ae ea d9 3e
       0.6158535 -0.7314717 0.3296132 0.4256186
000100 b2 c1 3b bf a5 df cd 3e 7d 78 fb 3e fc a5 54 bf
       -0.7334243 0.4020969 0.49115363 -0.8306577
000110 c0 23 15 3f d8 d1 c8 3e 75 ff 6a bf 2e 11 03 3f
       0.58257675 0.39222598 -0.91796046 0.5119809
000120 be 2f e4 3e 60 25 83 bf 01 30 e1 3e c8 b9 db 3e
       0.44567674 -1.0245781 0.43981937 0.42915177
000130 46 d0 9c bf 09 ca f0 3e b4 2e e2 3e 13 ad 99 bf
       -1.225106 0.4702914 0.44176257 -1.2005943
000140 e6 f3 f6 3e 7f f7 07 3f 8d ac 96 bf be f0 22 3f
       0.48232955 0.53112024 -1.1771408 0.63648593
000150 d5 d1 bf 3e 99 df 94 bf e0 b6 04 3f 04 2f cf 3e
       0.37464777 -1.1630737 0.51841545 0.40465558
000160 8d d3 a5 bf cd 86 ee 3e ef 47 c5 3e ec 65 a9 bf
       -1.2955185 0.4658722 0.38531443 -1.3234229
000170 c3 02 ab 3e 16 76 b2 3e 04 38 be bf 49 ef b6 3d
       0.33400545 0.34855717 -1.4860845 0.08932359
000180 ef 88 ee 3e e0 18 d5 bf 0f fd 87 bd 87 b2 ee 3e
       0.46588847 -1.6648216 -0.06640064 0.4662058
000190 5a 0d d0 bf 32 ba e3 bd ac 0c 05 3f 40 7a c8 bf
       -1.6254075 -0.11119498 0.5197246 -1.5662308
0001a0 bd 52 94 be 88 4e 0f 3f ec c2 c6 bf d9 fd fc be
       -0.28969374 0.55979204 -1.5528235 -0.4941242
0001b0 2f e8 19 3f 1f 6b c9 bf 33 77 ff be 33 9d 37 3f
       0.6011991 -1.5735816 -0.4989563 0.7172424
0001c0 0e 16 d0 bf 95 15 0f bf c3 5c 2c 3f 41 f9 d7 bf
       -1.625673 -0.55892307 0.67329043 -1.6872941
0001d0 c7 88 52 bf 57 a0 4c 3f 74 92 c3 bf b9 2e 84 bf
       -0.82239956 0.7993216 -1.5279069 -1.0326759
0001e0 76 2f 45 3f 6a 95 c5 bf a8 31 79 bf 52 38 16 3f
       0.77025545 -1.5436223 -0.97341394 0.5867969
0001f0 7c a7 c5 bf 74 23 7e bf 3a e4 f8 3e 2a bc b4 bf
       -1.5441737 -0.9927285 0.48611623 -1.4119923
000200 e1 26 7b bf 88 1d 11 3f fc 63 8a bf 2e a3 54 bf
       -0.981062 0.56685686 -1.0811763 -0.8306149
000210 14 5e 23 3f 7c 8d 7e bf f9 87 45 bf cb 2f 49 3f
       0.63815427 -0.9943464 -0.771606 0.7858855
000220 58 e9 83 bf 43 c6 3c bf e5 bc 39 3f 5c eb 74 bf
       -1.0305586 -0.73740023 0.72553855 -0.9567163
000230 3b 24 28 bf 5f ff 54 3f 3b 67 53 bf 9f 34 25 bf
       -0.65680283 0.83202165 -0.8257939 -0.6453342
000240 7e 59 32 3f fc 01 40 bf 31 ae 0d bf 89 88 2f 3f
       0.69667804 -0.7500303 -0.5534392 0.6856771
000250 07 8f 58 bf d8 0a 14 bf db 77 1a 3f 40 9c 45 bf
       -0.8459324 -0.57829046 0.60339135 -0.77191544
000260 35 74 03 bf e3 5f 02 3f ff 59 5a bf a0 0c e5 be
       -0.5134919 0.5092756 -0.85293573 -0.44736195
000270 ad 06 a1 3e 3a 8d 5f bf 86 63 20 bf 5a b2 b2 3e
       0.31450406 -0.8732487 -0.6265186 0.34901696
000280 dd 25 5a bf 84 55 2c bf 12 5f a2 3e d2 cd 3f bf
       -0.85214025 -0.67317986 0.31713158 -0.7492343
000290 92 b2 39 bf 9b e3 8d 3e bf 43 36 bf 57 be 31 bf
       -0.725381 0.27712712 -0.7119712 -0.6943106
0002a0 ae 3b e2 3e 0c 8e 4b bf 3a a7 11 bf aa 19 fd 3e
       0.44186157 -0.7951362 -0.5689579 0.49433643
0002b0 45 26 47 bf 3f 35 07 bf ee 85 00 3f d0 d5 48 bf
       -0.7779277 -0.5281562 0.5020436 -0.7845125
0002c0 3a 86 de be f7 79 01 3f c3 c1 40 bf 0a e6 e2 be
       -0.43461782 0.5057673 -0.75295657 -0.4431613
0002d0 15 b0 af 3e 06 34 19 bf d5 e6 0f bf fb 80 d5 3e
       0.34314027 -0.59845006 -0.56211597 0.41699967
0002e0 c1 26 2f bf 9a dd 26 bf 93 d5 e4 3e 36 bc 58 bf
       -0.6841851 -0.6518189 0.44694194 -0.8466219
0002f0 b8 f4 46 bf 8c 76 d7 3e 12 7b 4b bf 9f 1f 38 bf
       -0.7771716 0.42082632 -0.79484665 -0.7192325
000300 fc 46 82 3e 7f a9 47 bf e4 bb 5d bf 98 ff 31 3e
       0.25444782 -0.77993006 -0.86614823 0.17382658
000310 f5 28 43 bf 2a d8 40 bf d2 5d bd 3e e6 2e 51 bf
       -0.7623437 -0.7532984 0.36985642 -0.81712186
000320 01 67 25 bf e2 ea 7c 3e 33 e3 6d bf 1e d9 1c bf
       -0.64610296 0.24698976 -0.92924803 -0.61268795
000330 98 46 5e 3e 55 14 4c bf 82 4a 18 bf 19 5a 64 3e
       0.21706617 -0.79718524 -0.5948869 0.22299995
000340 e1 53 54 bf cf 25 05 bf 88 ed 84 3e 5b 97 80 bf
       -0.8294049 -0.52010816 0.25962472 -1.004619
000350 ea bc db be 66 89 62 3e 74 59 82 bf 87 43 a7 be
       -0.42917567 0.22122726 -1.0183549 -0.32668707
000360 3d 05 4c 3e fc 4e 82 bf 53 fd 9c be 18 c0 8f 3e
       0.19923873 -1.0180354 -0.3066202 0.28076243
000370 ff f7 76 bf 19 ad 91 be 27 36 a6 3e 6c d1 6e bf
       -0.9647216 -0.28452376 0.3246319 -0.932883
000380 f2 8f b1 be cd 5c bb 3e f7 4a 7b bf 23 fb 8c be
       -0.34680134 0.3659424 -0.9816126 -0.27535352
000390 26 6b e5 3e dd dd 83 bf fb d3 c9 be b6 f5 cf 3e
       0.4480831 -1.0302082 -0.3941954 0.4061715
0003a0 d8 fa 6e bf 19 cc b8 be 24 13 ee 3e 9e 97 6f bf
       -0.9335151 -0.36093214 0.46498978 -0.93590724
0003b0 42 2b 62 be 50 3a 07 3f 54 f3 56 bf 60 d7 3c be
       -0.22086814 0.5282335 -0.8396504 -0.18441534
0003c0 32 9b 18 3f 3b 57 53 bf bd 13 a1 bd 05 0c 14 3f
       0.5961181 -0.8255498 -0.07865093 0.5783084
0003d0 97 64 51 bf 39 52 74 bd 96 af 12 3f b1 60 44 bf
       -0.8179411 -0.059648726 0.5729917 -0.7671004
0003e0 0d 78 b7 bc 46 41 07 3f 8b 86 4a bf 09 3f 04 bd
       -0.022396112 0.52833974 -0.79111546 -0.032286678
0003f0 77 98 04 3f fe 26 52 bf 87 02 8d bd 32 fd 06 3f
       0.5179514 -0.8209075 -0.06885248 0.52730095

Xt f4 [5, 101, 6]
000000 c0 56 04 3d 45 5c fd 3e 60 5e 13 3f 00 00 00 00
       0.032309294 0.4948446 0.5756588 0.0
000010 00 00 00 00 00 00 00 00 c0 56 04 3d 45 5c fd 3e
       0.0 0.0 0.032309294 0.4948446
000020 60 5e 13 3f 89 94 87 bd 02 14 63 3c c4 38 66 3d
       0.5756588 -0.06620128 0.013859751 0.05620648
000030 35 ea 03 3d 1e 77 fd 3e 09 6f 13 3f 88 d3 0e 3c
       0.03220578 0.49504942 0.575913 0.008717425
000040 b8 51 09 bd 7c b3 cb 3d e4 0e 09 3d d6 32 fe 3e
       -0.0335252 0.09946343 0.033461466 0.4964816
000050 0d cd 13 3f 6e 20 f5 3b e6 b0 d0 bd 57 85 0a 3e
       0.5773476 0.0074806726 -0.10189991 0.13527428
000060 ed a2 0b 3d 25 97 fe 3e d9 ff 13 3f 77 7e 82 3d
       0.034090925 0.4972469 0.5781227 0.063717775
000070 38 ad 94 be 14 a2 36 3e 73 3f 08 3d 83 0c fe 3e
       -0.29038405 0.17835265 0.033263635 0.4961892
000080 96 b9 13 3f 1c f1 36 3d cd 4e 99 be f9 4a 3c 3e
       0.57705057 0.044663534 -0.29942933 0.18387975
000090 ba 28 03 3d 2e 50 fd 3e 64 5b 13 3f de ed ec 3c
       0.03202126 0.49475235 0.57561326 0.028922018
0000a0 3b 77 a1 be bc 60 0f 3e ac d8 f1 3c f9 e0 fb 3e
       -0.31536278 0.14001745 0.029522263 0.49195078
0000b0 57 a4 12 3f 85 15 dd 3c f5 4c bc be 2f 67 f9 3d
       0.5728201 0.0269878 -0.36777464 0.12177884
0000c0 58 c6 d3 3c 51 c6 f9 3e c7 97 11 3f 28 1a da 3c
       0.025851414 0.48784116 0.5687222 0.0266238
0000d0 59 23 b1 be 44 da 37 3e cd 60 c0 3c 1b 6f f8 3e
       -0.3459728 0.17954355 0.023483658 0.48522267
0000e0 16 ed 10 3f 86 b5 ab 3c 62 a7 9c be e7 ac 55 3e
       0.56611764 0.02096058 -0.30596453 0.20866738
0000f0 31 69 b5 3c 5c b3 f7 3e 51 90 10 3f 67 43 09 3d
       0.022144886 0.48379028 0.5647021 0.033511546
000100 ca 5b cd be 34 89 18 3e 02 4f 98 3c 59 a9 f5 3e
       -0.40109092 0.14896089 0.018592361 0.47980765
000110 03 8c 0f 3f 30 b6 c3 3c f0 8c fc be 63 3d 04 3e
       0.56073016 0.023890585 -0.49326277 0.12914042
000120 15 44 57 3c 73 8d f2 3e 6e ff 0d 3f 63 c4 1c 3e
       0.013138791 0.47373542 0.5546788 0.1530929
000130 5f 3f fe be 34 7a 5c 3e e2 6c 38 3c 7e 42 f1 3e
       -0.49657723 0.21530992 0.011256428 0.47121042
000140 58 56 0d 3f 6a 8b 94 3d 13 0e 1c bf 6e db 12 3e
       0.55209875 0.072531536 -0.60958976 0.14341518
000150 1b 53 a9 3b 51 b4 ed 3e 1c 8f 0b 3f f4 87 3e 3c
       0.0051673776 0.46426633 0.5451524 0.011629093
000160 ec ea 1f bf 0f 1a f3 3d 7a 5f 23 bb d9 5c e9 3e
       -0.6246784 0.11870205 -0.0024928735 0.4557865
000170 a1 65 09 3f a7 2e 1a bd 79 66 32 bf be 6d f4 3d
       0.536707 -0.037642147 -0.6968761 0.11934994
000180 d8 69 44 bc a0 11 e4 3e 75 c4 06 3f 04 23 cc bd
       -0.011988126 0.44544697 0.5264352 -0.09967616
000190 11 30 33 bf 12 a3 f8 3d 8f b8 b7 bc dd 59 de 3e
       -0.6999522 0.12140478 -0.022426872 0.43427935
0001a0 67 ef 03 3f 64 4d 2d bd 4b 49 3a bf f2 e4 86 3e
       0.51537174 -0.042310134 -0.72768086 0.26346546
0001b0 a3 3d f7 bc 99 19 da 3e 6b d4 01 3f 9c ed 2d bd
       -0.030180758 0.42597654 0.5071475 -0.04246293
0001c0 79 6f 5a bf 5a ee 1e 3e 31 d3 28 bd 5f f3 d3 3e
       -0.85326344 0.15520611 -0.041217033 0.41396615
0001d0 ed 8c fd 3e e0 a7 93 bd 27 24 5e bf 08 a1 8f bd
       0.4952158 -0.07209754 -0.86773914 -0.07013136
0001e0 36 2d 65 bd 8b af cb 3e 0f 54 f5 3e c8 04 a6 bc
       -0.05595132 0.39782366 0.47915694 -0.020265952
0001f0 b0 23 52 bf 76 19 00 be a3 e4 8e bd e3 d6 c3 3e
       -0.82085705 -0.12509713 -0.06977203 0.38249883
000200 b1 81 ed 3e c4 ab 1d be 74 73 53 bf 18 2e a4 bd
       0.4638801 -0.15397555 -0.8259804 -0.08016604
000210 4b 0e ae bd af 70 bb 3e cf 2b e5 3e 90 c7 06 be
       -0.0849882 0.36609408 0.44759986 -0.13162065
000220 26 bf 62 bf b4 9a c8 3c c8 f4 ca bd 46 a9 b3 3e
       -0.8857292 0.02448783 -0.099099696 0.35090083
000230 06 74 dd 3e 13 2f 52 be be 1f 71 bf 86 af 97 bc
       0.4325258 -0.2052577 -0.9418906 -0.018516313
000240 31 90 ec bd 67 af aa 3e eb 8e d4 3e bf d9 3e be
       -0.1155094 0.33336946 0.41515288 -0.18637751
000250 1a 9e 80 bf e4 e7 70 bd 5d 00 08 be 20 29 a1 3e
       -1.0048249 -0.058814898 -0.13281389 0.31476688
000260 fd 1b cb 3e 13 ae 56 be 82 2f 8f bf 6b b4 10 bd
       0.3966979 -0.20964842 -1.1186373 -0.03532831
000270 11 1c 1b be 48 e9 96 3e c4 f1 c0 3e c4 2d 5b be
       -0.15147425 0.29474854 0.37684453 -0.21404177
000280 74 aa 8c bf 80 99 9d bc e0 8e 2d be 9b 09 8d 3e
       -1.0989518 -0.019238234 -0.16949034 0.2754639
000290 ba 27 b7 3e 03 8a 32 be f8 58 8a bf d7 13 9f 3d
       0.35772496 -0.1743546 -1.0808401 0.07767456
0002a0 d8 ad 3d be 67 6a 84 3e b9 9b ae 3e ba 0b 8f be
       -0.18523347 0.2586243 0.34103182 -0.27938634
0002b0 32 53 89 bf e8 64 4a 3c 53 d9 4f be 21 98 75 3e
       -1.0728514 0.0123531595 -0.20297746 0.23983814
0002c0 e0 16 a5 3e 81 56 8a be a0 a3 92 bf 2c f6 4f bc
       0.32244015 -0.27019122 -1.1456184 -0.012692969
0002d0 e3 e7 62 be 7d 55 61 3e 6e 0e 9b 3e 46 9a 94 be
       -0.2215877 0.22005267 0.30284446 -0.2902395
0002e0 b7 c1 93 bf d4 b8 a1 bd a1 eb 76 be 32 09 4c 3e
       -1.1543492 -0.07896581 -0.24113323 0.19925383
0002f0 ca 81 90 3e 9f b6 a3 be 1f 60 9e bf 0c 14 53 be
       0.2822402 -0.31975266 -1.2373084 -0.20613116
000300 3c d7 86 be 9c b9 33 3e ca 74 84 3e 6b 98 84 be
       -0.26336086 0.17551273 0.25870353 -0.25897536
000310 71 02 a9 bf fc cc 8a be f4 8d 92 be 63 7c 1a 3e
       -1.320387 -0.27109516 -0.28623927 0.15086512
000320 cc d9 6f 3e 29 99 8a be c8 c9 a2 bf 6c de 86 be
       0.23422927 -0.27069977 -1.2717829 -0.2634157
000330 f0 d5 9d be 45 3d 02 3e 70 c8 57 3e 56 da 80 be
       -0.30827284 0.12718685 0.21072555 -0.25166577
000340 5d 36 9b bf c8 02 ab be 08 e1 a8 be 19 e0 d4 3d
       -1.2125965 -0.3340056 -0.32984185 0.10394306
000350 73 24 40 3e 38 75 79 be 80 d4 96 bf d9 49 d5 be
       0.18763904 -0.24361122 -1.17836 -0.41657904
000360 87 fa b3 be 35 eb a4 3d 46 50 28 3e 95 e3 72 be
       -0.35152075 0.08052675 0.16436872 -0.23719628
000370 31 8d 94 bf b0 11 c2 be 73 8d be be 1d 94 6e 3d
       -1.1605588 -0.3790412 -0.37217292 0.05824672
000380 da a4 11 3e 8a 57 41 be 64 b6 94 bf bc b0 bf be
       0.14223042 -0.1888105 -1.1618161 -0.37439525
000390 4d a3 c8 be 25 2e 17 3d c3 d4 f7 3d e4 62 73 be
       -0.3918709 0.03690924 0.12101128 -0.23768193
0003a0 14 84 95 bf f2 7b f8 be 47 86 d3 be 48 2c 64 3c
       -1.1680932 -0.48532063 -0.41313383 0.013926573
0003b0 0d 09 c9 3d a4 d3 3e be 70 08 85 bf c5 95 0e bf
       0.098161794 -0.18635422 -1.03932 -0.5569728
0003c0 9a 95 dd be e2 3c f3 bb 5e 84 9d 3d f8 85 6d be
       -0.432782 -0.0074230293 0.07691263 -0.23195636
0003d0 78 a0 81 bf 55 ba f1 be 0e 29 e7 be 26 0d e2 bc
       -1.0127096 -0.47212473 -0.4514851 -0.02759416
0003e0 f1 e7 68 3d 72 1a ba be 2c d7 7a bf 88 b2 df be
       0.05686182 -0.363483 -0.97984576 -0.43690896
0003f0 cb 00 f1 be d7 c4 44 bd bc de 15 3d 73 6e df be
       -0.47070917 -0.048039284 0.03658937 -0.43638954

theta f8 [11501]
000000 00 00 00 00 00 00 f0 3f 00 00 00 00 00 00 f0 3f
       1.0 1.0
000010 00 00 00 00 00 00 f0 3f 00 00 00 00 00 00 f0 3f
       1.0 1.0
000020 00 00 00 00 00 00 f0 3f 00 00 00 00 00 00 f0 3f
       1.0 1.0
000030 00 00 00 00 00 00 f0 3f 00 00 00 00 00 00 f0 3f
       1.0 1.0
000040 00 00 00 00 00 00 f0 3f 00 00 00 00 00 00 f0 3f
       1.0 1.0
000050 00 00 00 00 00 00 f0 3f 00 00 00 00 00 00 f0 3f
       1.0 1.0
000060 00 00 00 00 00 00 f0 3f 00 00 00 00 00 00 f0 3f
       1.0 1.0
000070 00 00 00 00 00 00 f0 3f 00 00 00 00 00 00 f0 3f
       1.0 1.0
000080 00 00 00 00 00 00 f0 3f 00 00 00 00 00 00 f0 3f
       1.0 1.0
000090 00 00 00 00 00 00 f0 3f 00 00 00 00 00 00 f0 3f
       1.0 1.0
0000a0 00 00 00 00 00 00 f0 3f 00 00 00 00 00 00 f0 3f
       1.0 1.0
0000b0 00 00 00 00 00 00 f0 3f 00 00 00 00 00 00 f0 3f
       1.0 1.0
0000c0 00 00 00 00 00 00 f0 3f 00 00 00 00 00 00 f0 3f
       1.0 1.0
0000d0 00 00 00 00 00 00 f0 3f 00 00 00 00 00 00 f0 3f
       1.0 1.0
0000e0 00 00 00 00 00 00 f0 3f 00 00 00 00 00 00 f0 3f
       1.0 1.0
0000f0 00 00 00 00 00 00 f0 3f 00 00 00 00 00 00 f0 3f
       1.0 1.0
000100 00 00 00 00 00 00 f0 3f 00 00 00 00 00 00 f0 3f
       1.0 1.0
000110 00 00 00 00 00 00 f0 3f 00 00 00 00 00 00 f0 3f
       1.0 1.0
000120 00 00 00 00 00 00 f0 3f 00 00 00 00 00 00 f0 3f
       1.0 1.0
000130 00 00 00 00 00 00 f0 3f 00 00 00 00 00 00 f0 3f
       1.0 1.0
000140 00 00 00 00 00 00 f0 3f 00 00 00 00 00 00 f0 3f
       1.0 1.0
000150 00 00 00 00 00 00 f0 3f 00 00 00 00 00 00 f0 3f
       1.0 1.0
000160 00 00 00 00 00 00 f0 3f 00 00 00 00 00 00 f0 3f
       1.0 1.0
000170 00 00 00 00 00 00 f0 3f 00 00 00 00 00 00 f0 3f
       1.0 1.0
000180 00 00 00 00 00 00 f0 3f 00 00 00 00 00 00 f0 3f
       1.0 1.0
000190 00 00 00 00 00 00 f0 3f 00 00 00 00 00 00 f0 3f
       1.0 1.0
0001a0 00 00 00 00 00 00 f0 3f 00 00 00 00 00 00 f0 3f
       1.0 1.0
0001b0 00 00 00 00 00 00 f0 3f 00 00 00 00 00 00 f0 3f
       1.0 1.0
0001c0 00 00 00 00 00 00 f0 3f 00 00 00 00 00 00 f0 3f
       1.0 1.0
0001d0 00 00 00 00 00 00 f0 3f 00 00 00 00 00 00 f0 3f
       1.0 1.0
0001e0 00 00 00 00 00 00 f0 3f 00 00 00 00 00 00 f0 3f
       1.0 1.0
0001f0 00 00 00 00 00 00 f0 3f 00 00 00 00 00 00 f0 3f
       1.0 1.0
000200 00 00 00 00 00 00 f0 3f 00 00 00 00 00 00 f0 3f
       1.0 1.0
000210 00 00 00 00 00 00 f0 3f 00 00 00 00 00 00 f0 3f
       1.0 1.0
000220 00 00 00 00 00 00 f0 3f 00 00 00 00 00 00 f0 3f
       1.0 1.0
000230 00 00 00 00 00 00 f0 3f 00 00 00 00 00 00 f0 3f
       1.0 1.0
000240 00 00 00 00 00 00 f0 3f 00 00 00 00 00 00 f0 3f
       1.0 1.0
000250 00 00 00 00 00 00 f0 3f 00 00 00 00 00 00 f0 3f
       1.0 1.0
000260 00 00 00 00 00 00 f0 3f 00 00 00 00 00 00 f0 3f
       1.0 1.0
000270 00 00 00 00 00 00 f0 3f 00 00 00 00 00 00 f0 3f
       1.0 1.0
000280 00 00 00 00 00 00 f0 3f 00 00 00 00 00 00 f0 3f
       1.0 1.0
000290 00 00 00 00 00 00 f0 3f 00 00 00 00 00 00 f0 3f
       1.0 1.0
0002a0 00 00 00 00 00 00 f0 3f 00 00 00 00 00 00 f0 3f
       1.0 1.0
0002b0 00 00 00 00 00 00 f0 3f 00 00 00 00 00 00 f0 3f
       1.0 1.0
0002c0 00 00 00 00 00 00 f0 3f 00 00 00 00 00 00 f0 3f
       1.0 1.0
0002d0 00 00 00 00 00 00 f0 3f 00 00 00 00 00 00 f0 3f
       1.0 1.0
0002e0 00 00 00 00 00 00 f0 3f 00 00 00 00 00 00 f0 3f
       1.0 1.0
0002f0 00 00 00 00 00 00 f0 3f 00 00 00 00 00 00 f0 3f
       1.0 1.0
000300 00 00 00 00 00 00 f0 3f 00 00 00 00 00 00 f0 3f
       1.0 1.0
000310 00 00 00 00 00 00 f0 3f 00 00 00 00 00 00 f0 3f
       1.0 1.0
000320 00 00 00 00 00 00 f0 3f 00 00 00 00 00 00 f0 3f
       1.0 1.0
000330 00 00 00 00 00 00 f0 3f 00 00 00 00 00 00 f0 3f
       1.0 1.0
000340 00 00 00 00 00 00 f0 3f 00 00 00 00 00 00 f0 3f
       1.0 1.0
000350 00 00 00 00 00 00 f0 3f 00 00 00 00 00 00 f0 3f
       1.0 1.0
000360 00 00 00 00 00 00 f0 3f 00 00 00 00 00 00 f0 3f
       1.0 1.0
000370 00 00 00 00 00 00 f0 3f 00 00 00 00 00 00 f0 3f
       1.0 1.0
000380 00 00 00 00 00 00 f0 3f 00 00 00 00 00 00 f0 3f
       1.0 1.0
000390 00 00 00 00 00 00 f0 3f 00 00 00 00 00 00 f0 3f
       1.0 1.0
0003a0 00 00 00 00 00 00 f0 3f 00 00 00 00 00 00 f0 3f
       1.0 1.0
0003b0 00 00 00 00 00 00 f0 3f 00 00 00 00 00 00 f0 3f
       1.0 1.0
0003c0 00 00 00 00 00 00 f0 3f 00 00 00 00 00 00 f0 3f
       1.0 1.0
0003d0 00 00 00 00 00 00 f0 3f 00 00 00 00 00 00 f0 3f
       1.0 1.0
0003e0 00 00 00 00 00 00 f0 3f 00 00 00 00 00 00 f0 3f
       1.0 1.0
0003f0 00 00 00 00 00 00 f0 3f 00 00 00 00 00 00 f0 3f
       1.0 1.0
000400 00 00 00 00 00 00 f0 3f 00 00 00 00 00 00 f0 3f
       1.0 1.0
000410 00 00 00 00 00 00 f0 3f 00 00 00 00 00 00 f0 3f
       1.0 1.0
000420 00 00 00 00 00 00 f0 3f 00 00 00 00 00 00 f0 3f
       1.0 1.0
000430 00 00 00 00 00 00 f0 3f 00 00 00 00 00 00 f0 3f
       1.0 1.0
000440 00 00 00 00 00 00 f0 3f 00 00 00 00 00 00 f0 3f
       1.0 1.0
000450 00 00 00 00 00 00 f0 3f 00 00 00 00 00 00 f0 3f
       1.0 1.0
000460 00 00 00 00 00 00 f0 3f 00 00 00 00 00 00 f0 3f
       1.0 1.0
000470 00 00 00 00 00 00 f0 3f 00 00 00 00 00 00 f0 3f
       1.0 1.0
000480 00 00 00 00 00 00 f0 3f 00 00 00 00 00 00 f0 3f
       1.0 1.0
000490 00 00 00 00 00 00 f0 3f 00 00 00 00 00 00 f0 3f
       1.0 1.0
0004a0 00 00 00 00 00 00 f0 3f 00 00 00 00 00 00 f0 3f
       1.0 1.0
0004b0 00 00 00 00 00 00 f0 3f 00 00 00 00 00 00 f0 3f
       1.0 1.0
0004c0 00 00 00 00 00 00 f0 3f 00 00 00 00 00 00 f0 3f
       1.0 1.0
0004d0 00 00 00 00 00 00 f0 3f 00 00 00 00 00 00 f0 3f
       1.0 1.0
0004e0 00 00 00 00 00 00 f0 3f 00 00 00 00 00 00 f0 3f
       1.0 1.0
0004f0 00 00 00 00 00 00 f0 3f 00 00 00 00 00 00 f0 3f
       1.0 1.0
000500 00 00 00 00 00 00 f0 3f 00 00 00 00 00 00 f0 3f
       1.0 1.0
000510 00 00 00 00 00 00 f0 3f 00 00 00 00 00 00 f0 3f
       1.0 1.0
000520 00 00 00 00 00 00 f0 3f 00 00 00 00 00 00 f0 3f
       1.0 1.0
000530 00 00 00 00 00 00 f0 3f 00 00 00 00 00 00 f0 3f
       1.0 1.0
000540 00 00 00 00 00 00 f0 3f 00 00 00 00 00 00 f0 3f
       1.0 1.0
000550 00 00 00 00 00 00 f0 3f 00 00 00 00 00 00 f0 3f
       1.0 1.0
000560 00 00 00 00 00 00 f0 3f 00 00 00 00 00 00 f0 3f
       1.0 1.0
000570 00 00 00 00 00 00 f0 3f 00 00 00 00 00 00 f0 3f
       1.0 1.0
000580 00 00 00 00 00 00 f0 3f 00 00 00 00 00 00 f0 3f
       1.0 1.0
000590 00 00 00 00 00 00 f0 3f 00 00 00 00 00 00 f0 3f
       1.0 1.0
0005a0 00 00 00 00 00 00 f0 3f 00 00 00 00 00 00 f0 3f
       1.0 1.0
0005b0 00 00 00 00 00 00 f0 3f 00 00 00 00 00 00 f0 3f
       1.0 1.0
0005c0 00 00 00 00 00 00 f0 3f 00 00 00 00 00 00 f0 3f
       1.0 1.0
0005d0 00 00 00 00 00 00 f0 3f 00 00 00 00 00 00 f0 3f
       1.0 1.0
0005e0 00 00 00 00 00 00 f0 3f 00 00 00 00 00 00 f0 3f
       1.0 1.0
0005f0 00 00 00 00 00 00 f0 3f 00 00 00 00 00 00 f0 3f
       1.0 1.0
000600 00 00 00 00 00 00 f0 3f 00 00 00 00 00 00 f0 3f
       1.0 1.0
000610 00 00 00 00 00 00 f0 3f 00 00 00 00 00 00 f0 3f
       1.0 1.0
000620 00 00 00 00 00 00 f0 3f 00 00 00 00 00 00 f0 3f
       1.0 1.0
000630 00 00 00 00 00 00 f0 3f 00 00 00 00 00 00 f0 3f
       1.0 1.0
000640 00 00 00 00 00 00 f0 3f 00 00 00 00 00 00 f0 3f
       1.0 1.0
000650 00 00 00 00 00 00 f0 3f 00 00 00 00 00 00 f0 3f
       1.0 1.0
000660 00 00 00 00 00 00 f0 3f 00 00 00 00 00 00 f0 3f
       1.0 1.0
000670 00 00 00 00 00 00 f0 3f 00 00 00 00 00 00 f0 3f
       1.0 1.0
000680 00 00 00 00 00 00 f0 3f 00 00 00 00 00 00 f0 3f
       1.0 1.0
000690 00 00 00 00 00 00 f0 3f 00 00 00 00 00 00 f0 3f
       1.0 1.0
0006a0 00 00 00 00 00 00 f0 3f 00 00 00 00 00 00 f0 3f
       1.0 1.0
0006b0 00 00 00 00 00 00 f0 3f 00 00 00 00 00 00 f0 3f
       1.0 1.0
0006c0 00 00 00 00 00 00 f0 3f 00 00 00 00 00 00 f0 3f
       1.0 1.0
0006d0 00 00 00 00 00 00 f0 3f 00 00 00 00 00 00 f0 3f
       1.0 1.0
0006e0 00 00 00 00 00 00 f0 3f 00 00 00 00 00 00 f0 3f
       1.0 1.0
0006f0 00 00 00 00 00 00 f0 3f 00 00 00 00 00 00 f0 3f
       1.0 1.0
000700 00 00 00 00 00 00 f0 3f 00 00 00 00 00 00 f0 3f
       1.0 1.0
000710 00 00 00 00 00 00 f0 3f 00 00 00 00 00 00 f0 3f
       1.0 1.0
000720 00 00 00 00 00 00 f0 3f 00 00 00 00 00 00 f0 3f
       1.0 1.0
000730 00 00 00 00 00 00 f0 3f 00 00 00 00 00 00 f0 3f
       1.0 1.0
000740 00 00 00 00 00 00 f0 3f 00 00 00 00 00 00 f0 3f
       1.0 1.0
000750 00 00 00 00 00 00 f0 3f 00 00 00 00 00 00 f0 3f
       1.0 1.0
000760 00 00 00 00 00 00 f0 3f 00 00 00 00 00 00 f0 3f
       1.0 1.0
000770 00 00 00 00 00 00 f0 3f 00 00 00 00 00 00 f0 3f
       1.0 1.0
000780 00 00 00 00 00 00 f0 3f 00 00 00 00 00 00 f0 3f
       1.0 1.0
000790 00 00 00 00 00 00 f0 3f 00 00 00 00 00 00 f0 3f
       1.0 1.0
0007a0 00 00 00 00 00 00 f0 3f 00 00 00 00 00 00 f0 3f
       1.0 1.0
0007b0 00 00 00 00 00 00 f0 3f 00 00 00 00 00 00 f0 3f
       1.0 1.0
0007c0 00 00 00 00 00 00 f0 3f 00 00 00 00 00 00 f0 3f
       1.0 1.0
0007d0 00 00 00 00 00 00 f0 3f 00 00 00 00 00 00 f0 3f
       1.0 1.0
0007e0 00 00 00 00 00 00 f0 3f 00 00 00 00 00 00 f0 3f
       1.0 1.0
0007f0 00 00 00 00 00 00 f0 3f 00 00 00 00 00 00 f0 3f
       1.0 1.0
