main/template_estimation/ellipse_models/ahs_theta_iter_1950.npz (npz, 141860 bytes, 3 tensors)

Wt f4 [5, 101, 6]
0	0x00000000	0.0
1	0x00000000	0.0
2	0x00000000	0.0
3	0x00000000	0.0
4	0x00000000	0.0
5	0x00000000	0.0
6	0x3eacfad0	0.33785105
7	0x3e17fb08	0.14841855
8	0x3dd61f42	0.10455181
9	0xbd9cc552	-0.07654823
10	0xb9a1dc80	-0.00030872598
11	0xbe8649a5	-0.2622806
12	0x3f14462a	0.5791956
13	0x3d55fffc	0.05224608
14	0xbd8a21f0	-0.06744754
15	0xbd068f50	-0.032851517
16	0xbd727afa	-0.05919931
17	0xbe6da6c7	-0.23208152
18	0x3f244a82	0.6417619
19	0x3e010294	0.1259864
20	0xbd915e35	-0.07098047
21	0xbe524f41	-0.20538045
22	0xbe17bfd9	-0.14819278
23	0xbe7ad502	-0.24495319
24	0x3f24fdc5	0.6444972
25	0x3e76aedc	0.24090141
26	0xbddd5788	-0.10807711
27	0x3dabac2c	0.083824486
28	0x3c1d8134	0.009613324
29	0xbe586836	-0.21133503
30	0x3ef4f7f8	0.47845435
31	0x3ea59ac2	0.32344633
32	0xbd472418	-0.048618406
33	0x3db48d38	0.08815998
34	0xbde3d8fc	-0.11125371
35	0xbebc7bbd	-0.36813155
36	0x3ef46604	0.47734082
37	0x3edd6f6d	0.43249074
38	0xbcd3a538	-0.025835618
39	0xbd2d6cb4	-0.042339996
40	0xbe2ffc5e	-0.17186114
41	0xbe9be25b	-0.30446133
42	0x3eb0c9c6	0.3452894
43	0x3ee75a0f	0.45185897
44	0xbd3daed6	-0.046309315
45	0x3da2939f	0.07938313
46	0xbe9a6c54	-0.30160773
47	0xbecfd581	-0.40592578
48	0x3e4984f6	0.19679627
49	0x3f1e5b3a	0.6185795
50	0xbcde58ac	-0.027141891
51	0xbde60ddd	-0.11233113
52	0xbe625072	-0.22101
53	0xbf0219c4	-0.50820565
54	0x3e0e8b97	0.13920437
55	0x3f009384	0.5022509
56	0xbd95f09e	-0.07321285
57	0x3d544da9	0.051831875
58	0xbe994602	-0.29936224
59	0xbedfe599	-0.43729857
60	0x3d368188	0.044557124
61	0x3f10b890	0.5653162
62	0xbd90bf0c	-0.07067689
63	0x3e3cf732	0.18453673
64	0xbedebad4	-0.43501914
65	0xbeacde67	-0.3376343
66	0xbe8a3eba	-0.27000982
67	0x3f38760d	0.7205513
68	0xbe2cc986	-0.1687375
69	0x3ee4f250	0.4471612
70	0xbee23e19	-0.44188002
71	0xbea2dc53	-0.3180872
72	0xbe3d2c76	-0.18473992
73	0x3f5fea49	0.87466866
74	0xbd4d6238	-0.050142497
75	0x3f173a20	0.59073067
76	0xbe99f350	-0.30068445
77	0xbe914688	-0.28374124
78	0xbe1314d4	-0.14363414
79	0x3f4783c3	0.7793543
80	0xbe233459	-0.15937938
81	0x3f34f3ee	0.7068471
82	0x3db1db8c	0.08684453
83	0xbea62e62	-0.32457262
84	0xbd720376	-0.05908533
85	0x3f45844d	0.77155
86	0xbe1c6a20	-0.15274858
87	0x3f17949f	0.5921115
88	0x3cfa3960	0.030544937
89	0xbe3b3f05	-0.18285759
90	0xbdad8eb1	-0.08474482
91	0x3f468e2f	0.77560705
92	0xbebfc5f2	-0.37455708
93	0x3eb5d49b	0.35513768
94	0x3e75fc32	0.24021986
95	0xbecf417f	-0.40479657
96	0xbc61efe6	-0.013790106
97	0x3f1ad77f	0.6048507
98	0xbe98ce6e	-0.29844993
99	0x3e20c111	0.15698649
100	0x3e4db8b8	0.20089996
101	0xbec11982	-0.37714773
102	0xbe2b43fe	-0.16725156
103	0x3e9a19de	0.3009786
104	0xbe22b8fc	-0.15890878
105	0x3e9a8781	0.30181506
106	0x3e3247e3	0.17410235
107	0xbeb537b3	-0.35394058
108	0xbde6c9e2	-0.11268975
109	0x3ed52f4d	0.4163765
110	0xbe03d718	-0.1287502
111	0x3dd6b965	0.1048458
112	0x3e24247c	0.16029543
113	0xbe473bcd	-0.19456406
114	0xbe418c93	-0.18901281
115	0x3eb21c2b	0.34787115
116	0xbe0b7b6d	-0.13621302
117	0xbd26ebfc	-0.040752396
118	0x3e471183	0.19440274
119	0xbe794f9a	-0.24346772
120	0xbe83b072	-0.25720555
121	0x3e70c5b6	0.2351292
122	0xbdd10c09	-0.10207374
123	0xbe21b702	-0.15792468
124	0x3e6d2289	0.23157705
125	0xbe835234	-0.25648654
126	0xbc98ab49	-0.018636363
127	0x3e3416c7	0.17586814
128	0xbde17638	-0.110088766
129	0xbde309eb	-0.11085876
130	0x3e64d6f3	0.22347622
131	0xbe76cb74	-0.24101049
132	0x3e5a0057	0.21289192
133	0x3cdb6551	0.02678171
134	0xbe12985a	-0.1431593
135	0xbe898714	-0.2686087
136	0x3d246e44	0.04014422
137	0xbea81ef7	-0.32836124
138	0x3e17e377	0.14832865
139	0xbb1062d9	-0.0022031574
140	0xbe7a9d3d	-0.24474044
141	0xbe94d43b	-0.2906817
142	0x3c17d690	0.009267464
143	0xbeabb1ff	-0.33534238
144	0x3e7960c7	0.24353324
145	0xbd6ee9d9	-0.058328483
146	0xbe93af98	-0.28844905
147	0xbe512bfe	-0.20426938
148	0x3e673016	0.22576937
149	0xbe8fb643	-0.28068742
150	0x3d787939	0.060662482
151	0xbe34474e	-0.17605326
152	0xbee74dd8	-0.45176578
153	0xbe00cef7	-0.12578951
154	0x3e0d4d6d	0.13799067
155	0xbe053f74	-0.13012487
156	0xbe089fb9	-0.1334218
157	0xbe90b442	-0.28262526
158	0xbebadaee	-0.36495155
159	0xbda0b820	-0.07847619
160	0x3d09a334	0.03360291
161	0xbd0474d0	-0.032337964
162	0x3b3da9f0	0.0028940402
163	0xbeb6ef83	-0.35729608
164	0xbeb33d6e	-0.35007805
165	0xbe21daf2	-0.15806177
166	0xbe1ef5fc	-0.15523523
167	0x3e0bedec	0.13664979
168	0xbd77910d	-0.060441066
169	0xbebf0160	-0.37305737
170	0xbedcbbc4	-0.43112004
171	0xbedf53c7	-0.43618605
172	0xbe673382	-0.22578242
173	0x3e41526c	0.18879098
174	0xbdffdfff	-0.12493896
175	0xbeaa8812	-0.33306938
176	0xbf2bae8c	-0.6706321
177	0xbebe0868	-0.37115788
178	0xbe885e5f	-0.266345
179	0x3e251d4e	0.1612446
180	0xbe9a52be	-0.30141252
181	0xbe072294	-0.13196784
182	0xbf3c252d	-0.73494226
183	0xbecc464c	-0.39897382
184	0xbeb30e3d	-0.349718
185	0x3e2bfadc	0.16794914
186	0xbec58782	-0.38579947
187	0xbc0fd440	-0.008778632
188	0xbf3204ba	-0.6953846
189	0xbed66def	-0.41880748
190	0xbed763ae	-0.42068237
191	0x3d9d7ed8	0.07690209
192	0xbe86878f	-0.26275298
193	0x3d79866e	0.060919218
194	0xbed3747e	-0.41299814
195	0xbef57760	-0.47942638
196	0xbf107513	-0.5642864
197	0x3d979bb4	0.07402745
198	0xbe5e9123	-0.21735053
199	0x3e0539fc	0.130104
200	0xbe9558e2	-0.29169375
201	0xbf022990	-0.5084467
202	0xbf2ef6cd	-0.6834534
203	0x3dfe18ec	0.12407097
204	0xbe70848e	-0.23488066
205	0x3dca95ce	0.09891854
206	0xbebd4228	-0.36964536
207	0xbf16b2b5	-0.58866435
208	0xbf22c90b	-0.6358802
209	0x3d370228	0.04467979
210	0xbe265d02	-0.16246417
211	0x3dd10518	0.1020605
212	0xbec9233c	-0.39284694
213	0xbf216052	-0.630376
214	0xbf232604	-0.6372988
215	0xbe43d78c	-0.19125193
216	0xbdcdaf04	-0.10043147
217	0x3d9b7ed5	0.07592551
218	0xbea9f43f	-0.33194157
219	0xbf2deaee	-0.679366
220	0xbf12d5b5	-0.5735734
221	0xbccf84a0	-0.025331795
222	0xbdb16037	-0.0866093
223	0x3e399d10	0.18126321
224	0xbed35bf2	-0.41281086
225	0xbf1a45dd	-0.6026285
226	0xbf38e523	-0.72224635
227	0xbd981e38	-0.07427639
228	0x3c0dbae0	0.0086505115
229	0x3eb7ced8	0.35899997
230	0xbe7995a5	-0.24373491
231	0xbf1bf58c	-0.6092155
232	0xbf2135ac	-0.6297252
233	0xbe7b7f0e	-0.24560186
234	0x3cc999dc	0.024609499
235	0x3ea7a939	0.32746294
236	0xbe6e3069	-0.23260655
237	0xbf200499	-0.62507015
238	0xbf27d46b	-0.655585
239	0xbe443a16	-0.19162783
240	0xbd72ed46	-0.059308313
241	0x3dd958cc	0.1061264
242	0xbe7bc5bc	-0.24587148
243	0xbf049cf1	-0.51801974
244	0xbf2f1d0e	-0.6840371
245	0xbe08bd5e	-0.13353488
246	0x3d0b2e06	0.03397944
247	0xbd980032	-0.07421912
248	0xbe50f6ca	-0.20406643
249	0xbf07489b	-0.5284516
250	0xbf26f440	-0.65216446
251	0xbda489d4	-0.08034101
252	0x3d6a86fc	0.057257637
253	0xbe937536	-0.28800362
254	0xbe22760f	-0.15865348
255	0xbf149f8d	-0.58055955

Xt f4 [5, 101, 60]
0	0x3eff5fc7	0.4987776
1	0xbaa0342d	-0.0012222581
2	0x3ee69255	0.45033517
3	0x3f4e99ea	0.80703604
4	0x3eac6ccd	0.33676758
5	0x3fbe86ea	1.4884923
6	0x3e1f1e7c	0.15538973
7	0x3ff3954b	1.9029936
8	0xbd553f5d	-0.05206238
9	0x3ffe9f9a	1.9892457
10	0xbe80069f	-0.25005051
11	0x3fddb237	1.7320012
12	0xbecf692f	-0.40509936
13	0x3f9665bb	1.1749796
14	0xbef71d52	-0.48264557
15	0x3ed8314a	0.42225105
16	0xbee5c36b	-0.44875655
17	0xbec0426f	-0.37550685
18	0xbec723d5	-0.38894525
19	0xbf947b23	-1.1600078
20	0xbe7eefb0	-0.24896121
21	0xbfdd91da	-1.7310135
22	0xbd556e0f	-0.052106913
23	0xbffe93d5	-1.9888865
24	0x3e1e846f	0.15480207
25	0xbff36ed0	-1.9018192
26	0x3eac0cf3	0.3360363
27	0xbfbe0e93	-1.4848198
28	0x3eec8492	0.46194893
29	0xbf4eec7b	-0.8082959
30	0x00000000	0.0
31	0x00000000	0.0
32	0x00000000	0.0
33	0x00000000	0.0
34	0x00000000	0.0
35	0x00000000	0.0
36	0x00000000	0.0
37	0x00000000	0.0
38	0x00000000	0.0
39	0x00000000	0.0
40	0x00000000	0.0
41	0x00000000	0.0
42	0x00000000	0.0
43	0x00000000	0.0
44	0x00000000	0.0
45	0x00000000	0.0
46	0x00000000	0.0
47	0x00000000	0.0
48	0x00000000	0.0
49	0x00000000	0.0
50	0x00000000	0.0
51	0x00000000	0.0
52	0x00000000	0.0
53	0x00000000	0.0
54	0x00000000	0.0
55	0x00000000	0.0
56	0x00000000	0.0
57	0x00000000	0.0
58	0x00000000	0.0
59	0x00000000	0.0
60	0x3ed312d5	0.41225305
61	0xbdb3b49a	-0.087746814
62	0x3ea7a1a4	0.3274051
63	0x3f2f2192	0.684106
64	0x3ea3291d	0.31867304
65	0x3fbc35fe	1.4703977
66	0x3e1d6587	0.15370761
67	0x3ff35e2d	1.9013115
68	0xbd588e31	-0.05286998
69	0x3ffe8523	1.988438
70	0xbe8132e1	-0.2523413
71	0x3fdd6726	1.7297103
72	0xbed55718	-0.4166801
73	0x3f94ea40	1.1633987
74	0xbefcaced	-0.49350682
75	0x3ed2a1af	0.4113898
76	0xbecb3c72	-0.39694554
77	0xbea5bb76	-0.32369584
78	0xbeba4f91	-0.3638883
79	0xbf914612	-1.1349509
80	0xbe7bc2e3	-0.24586062
81	0xbfdd2c40	-1.7279129
82	0xbd52ef37	-0.051497664
83	0xbffe7fde	-1.9882772
84	0x3e1f113a	0.15533915
85	0xbff35d37	-1.9012822
86	0x3ead1bcc	0.3381027
87	0xbfbdcadd	-1.4827534
88	0x3eedf0a5	0.4647266
89	0xbf4e3672	-0.80551827
90	0x00000000	0.0
91	0x00000000	0.0
92	0x00000000	0.0
93	0x00000000	0.0
94	0x00000000	0.0
95	0x00000000	0.0
96	0x00000000	0.0
97	0x00000000	0.0
98	0x00000000	0.0
99	0x00000000	0.0
100	0x00000000	0.0
101	0x00000000	0.0
102	0x00000000	0.0
103	0x00000000	0.0
104	0x00000000	0.0
105	0x00000000	0.0
106	0x00000000	0.0
107	0x00000000	0.0
108	0x00000000	0.0
109	0x00000000	0.0
110	0x00000000	0.0
111	0x00000000	0.0
112	0x00000000	0.0
113	0x00000000	0.0
114	0x00000000	0.0
115	0x00000000	0.0
116	0x00000000	0.0
117	0x00000000	0.0
118	0x00000000	0.0
119	0x00000000	0.0
120	0x3ee295ca	0.44254905
121	0xbd6b5190	-0.05745083
122	0x3eb8fbb7	0.36129543
123	0x3f37ce9c	0.71799636
124	0x3ea63ae5	0.32466808
125	0x3fbcfa70	1.4763927
126	0x3e1e39c2	0.1545172
127	0x3ff378b4	1.9021211
128	0xbd575439	-0.052570555
129	0x3ffe8ef3	1.9887375
130	0xbe80e3e9	-0.25173882
131	0x3fdd7ae4	1.7303128
132	0xbed3b4c7	-0.4134886
133	0x3f9552d4	1.1665902
134	0xbef154b9	-0.4713495
135	0x3eddf9e3	0.4335471
136	0xbe9fc6b8	-0.31206298
137	0xbe748b76	-0.23881325
138	0xbea696ea	-0.32537013
139	0xbf8c57e8	-1.0964327
140	0xbe780a5c	-0.24222702
141	0xbfdcb52f	-1.7242793
142	0xbd503d82	-0.05083991
143	0xbffe6a50	-1.9876194
144	0x3e1fd194	0.15607291
145	0xbff3452b	-1.9005483
146	0x3eaec16f	0.34131953
147	0xbfbd6174	-1.4795365
148	0x3ef4856f	0.47758052
149	0xbf4aec0c	-0.7926643
150	0x00000000	0.0
151	0x00000000	0.0
152	0x00000000	0.0
153	0x00000000	0.0
154	0x00000000	0.0
155	0x00000000	0.0
156	0x00000000	0.0
157	0x00000000	0.0
158	0x00000000	0.0
159	0x00000000	0.0
160	0x00000000	0.0
161	0x00000000	0.0
162	0x00000000	0.0
163	0x00000000	0.0
164	0x00000000	0.0
165	0x00000000	0.0
166	0x00000000	0.0
167	0x00000000	0.0
168	0x00000000	0.0
169	0x00000000	0.0
170	0x00000000	0.0
171	0x00000000	0.0
172	0x00000000	0.0
173	0x00000000	0.0
174	0x00000000	0.0
175	0x00000000	0.0
176	0x00000000	0.0
177	0x00000000	0.0
178	0x00000000	0.0
179	0x00000000	0.0
180	0x3ee334c2	0.4437619
181	0xbd6659ca	-0.056237973
182	0x3ea6e4fd	0.3259658
183	0x3f2ec340	0.6826668
184	0x3ea3960a	0.31950408
185	0x3fbc5139	1.4712287
186	0x3e1dd25c	0.15412277
187	0x3ff36bc8	1.9017267
188	0xbd582f4c	-0.05277948
189	0x3ffe881a	1.9885285
190	0xbe813870	-0.2523837
191	0x3fdd65c2	1.7296679
192	0xbed503a5	-0.41604343
193	0x3f94ff1d	1.1640354
194	0xbee192d4	-0.44057333
195	0x3eedbbc8	0.46432328
196	0xbe11c5be	-0.14235589
197	0xbd8d8788	-0.06910616
198	0xbe6846b3	-0.2268322
199	0xbf7f7607	-0.9978947
200	0xbe6e8c70	-0.2329576
201	0xbfdb8572	-1.7150099
202	0xbd494ff4	-0.049148515
203	0xbffe32e3	-1.9859279
204	0x3e21a484	0.15785414
205	0xbff30acd	-1.8987671
206	0x3eb2a4a3	0.34891233
207	0xbfbc68a7	-1.4719437
208	0x3f00ae26	0.5026573
209	0xbf44809e	-0.76758754
210	0x00000000	0.0
211	0x00000000	0.0
212	0x00000000	0.0
213	0x00000000	0.0
214	0x00000000	0.0
215	0x00000000	0.0
216	0x00000000	0.0
217	0x00000000	0.0
218	0x00000000	0.0
219	0x00000000	0.0
220	0x00000000	0.0
221	0x00000000	0.0
222	0x00000000	0.0
223	0x00000000	0.0
224	0x00000000	0.0
225	0x00000000	0.0
226	0x00000000	0.0
227	0x00000000	0.0
228	0x00000000	0.0
229	0x00000000	0.0
230	0x00000000	0.0
231	0x00000000	0.0
232	0x00000000	0.0
233	0x00000000	0.0
234	0x00000000	0.0
235	0x00000000	0.0
236	0x00000000	0.0
237	0x00000000	0.0
238	0x00000000	0.0
239	0x00000000	0.0
240	0x3f1e0bf8	0.6173701
241	0x3df05fd4	0.11737028
242	0x3f18e329	0.5972162
243	0x3f7433ea	0.95391715
244	0x3eb9387b	0.36175904
245	0x3fc1b9d5	1.5134836
246	0x3e223f35	0.15844424
247	0x3ff3f963	1.9060482
248	0xbd508415	-0.050907213
249	0x3ffec574	1.9904008
250	0xbe7d8e4d	-0.24761315
251	0x3fde0215	1.7344385
252	0xbec8b4e1	-0.392005
253	0x3f9812ce	1.1880739
254	0xbec0630b	-0.37575564
255	0x3f0775c8	0.52914095

theta f4 [1951]
0	0x3e4ccccd	0.2
1	0x3e4ccccd	0.2
2	0x3e4ccccd	0.2
3	0x3e4ccccd	0.2
4	0x3e4ccccd	0.2
5	0x3e4ccccd	0.2
6	0x3e4ccccd	0.2
7	0x3e4ccccd	0.2
8	0x3e4ccccd	0.2
9	0x3e4ccccd	0.2
10	0x3e4ccccd	0.2
11	0x3e4ccccd	0.2
12	0x3e4ccccd	0.2
13	0x3e4ccccd	0.2
14	0x3e4ccccd	0.2
15	0x3e4ccccd	0.2
16	0x3e4ccccd	0.2
17	0x3e4ccccd	0.2
18	0x3e4ccccd	0.2
19	0x3e4ccccd	0.2
20	0x3e4ccccd	0.2
21	0x3e4ccccd	0.2
22	0x3e4ccccd	0.2
23	0x3e4ccccd	0.2
24	0x3e4ccccd	0.2
25	0x3e4ccccd	0.2
26	0x3e4ccccd	0.2
27	0x3e4ccccd	0.2
28	0x3e4ccccd	0.2
29	0x3e4ccccd	0.2
30	0x3e4ccccd	0.2
31	0x3e4ccccd	0.2
32	0x3e4ccccd	0.2
33	0x3e4ccccd	0.2
34	0x3e4ccccd	0.2
35	0x3e4ccccd	0.2
36	0x3e4ccccd	0.2
37	0x3e4ccccd	0.2
38	0x3e4ccccd	0.2
39	0x3e4ccccd	0.2
40	0x3e4ccccd	0.2
41	0x3e4ccccd	0.2
42	0x3e4ccccd	0.2
43	0x3e4ccccd	0.2
44	0x3e4ccccd	0.2
45	0x3e4ccccd	0.2
46	0x3e4ccccd	0.2
47	0x3e4ccccd	0.2
48	0x3e4ccccd	0.2
49	0x3e4ccccd	0.2
50	0x3e4ccccd	0.2
51	0x3e4ccccd	0.2
52	0x3e4ccccd	0.2
53	0x3e4ccccd	0.2
54	0x3e4ccccd	0.2
55	0x3e4ccccd	0.2
56	0x3e4ccccd	0.2
57	0x3e4ccccd	0.2
58	0x3e4ccccd	0.2
59	0x3e4ccccd	0.2
60	0x3e4ccccd	0.2
61	0x3e4ccccd	0.2
62	0x3e4ccccd	0.2
63	0x3e4ccccd	0.2
64	0x3e4ccccd	0.2
65	0x3e4ccccd	0.2
66	0x3e4ccccd	0.2
67	0x3e4ccccd	0.2
68	0x3e4ccccd	0.2
69	0x3e4ccccd	0.2
70	0x3e4ccccd	0.2
71	0x3e4ccccd	0.2
72	0x3e4ccccd	0.2
73	0x3e4ccccd	0.2
74	0x3e4ccccd	0.2
75	0x3e4ccccd	0.2
76	0x3e4ccccd	0.2
77	0x3e4ccccd	0.2
78	0x3e4ccccd	0.2
79	0x3e4ccccd	0.2
80	0x3e4ccccd	0.2
81	0x3e4ccccd	0.2
82	0x3e4ccccd	0.2
83	0x3e4ccccd	0.2
84	0x3e4ccccd	0.2
85	0x3e4ccccd	0.2
86	0x3e4ccccd	0.2
87	0x3e4ccccd	0.2
88	0x3e4ccccd	0.2
89	0x3e4ccccd	0.2
90	0x3e4ccccd	0.2
91	0x3e4ccccd	0.2
92	0x3e4ccccd	0.2
93	0x3e4ccccd	0.2
94	0x3e4ccccd	0.2
95	0x3e4ccccd	0.2
96	0x3e4ccccd	0.2
97	0x3e4ccccd	0.2
98	0x3e4ccccd	0.2
99	0x3e4ccccd	0.2
100	0x3e4ccccd	0.2
101	0x3e4ccccd	0.2
102	0x3e4ccccd	0.2
103	0x3e4ccccd	0.2
104	0x3e4ccccd	0.2
105	0x3e4ccccd	0.2
106	0x3e4ccccd	0.2
107	0x3e4ccccd	0.2
108	0x3e4ccccd	0.2
109	0x3e4ccccd	0.2
110	0x3e4ccccd	0.2
111	0x3e4ccccd	0.2
112	0x3e4ccccd	0.2
113	0x3e4ccccd	0.2
114	0x3e4ccccd	0.2
115	0x3e4ccccd	0.2
116	0x3e4ccccd	0.2
117	0x3e4ccccd	0.2
118	0x3e4ccccd	0.2
119	0x3e4ccccd	0.2
120	0x3e4ccccd	0.2
121	0x3e4ccccd	0.2
122	0x3e4ccccd	0.2
123	0x3e4ccccd	0.2
124	0x3e4ccccd	0.2
125	0x3e4ccccd	0.2
126	0x3e4ccccd	0.2
127	0x3e4ccccd	0.2
128	0x3e4ccccd	0.2
129	0x3e4ccccd	0.2
130	0x3e4ccccd	0.2
131	0x3e4ccccd	0.2
132	0x3e4ccccd	0.2
133	0x3e4ccccd	0.2
134	0x3e4ccccd	0.2
135	0x3e4ccccd	0.2
136	0x3e4ccccd	0.2
137	0x3e4ccccd	0.2
138	0x3e4ccccd	0.2
139	0x3e4ccccd	0.2
140	0x3e4ccccd	0.2
141	0x3e4ccccd	0.2
142	0x3e4ccccd	0.2
143	0x3e4ccccd	0.2
144	0x3e4ccccd	0.2
145	0x3e4ccccd	0.2
146	0x3e4ccccd	0.2
147	0x3e4ccccd	0.2
148	0x3e4ccccd	0.2
149	0x3e4ccccd	0.2
150	0x3e4ccccd	0.2
151	0x3e4ccccd	0.2
152	0x3e4ccccd	0.2
153	0x3e4ccccd	0.2
154	0x3e4ccccd	0.2
155	0x3e4ccccd	0.2
156	0x3e4ccccd	0.2
157	0x3e4ccccd	0.2
158	0x3e4ccccd	0.2
159	0x3e4ccccd	0.2
160	0x3e4ccccd	0.2
161	0x3e4ccccd	0.2
162	0x3e4ccccd	0.2
163	0x3e4ccccd	0.2
164	0x3e4ccccd	0.2
165	0x3e4ccccd	0.2
166	0x3e4ccccd	0.2
167	0x3e4ccccd	0.2
168	0x3e4ccccd	0.2
169	0x3e4ccccd	0.2
170	0x3e4ccccd	0.2
171	0x3e4ccccd	0.2
172	0x3e4ccccd	0.2
173	0x3e4ccccd	0.2
174	0x3e4ccccd	0.2
175	0x3e4ccccd	0.2
176	0x3e4ccccd	0.2
177	0x3e4ccccd	0.2
178	0x3e4ccccd	0.2
179	0x3e4ccccd	0.2
180	0x3e4ccccd	0.2
181	0x3e4ccccd	0.2
182	0x3e4ccccd	0.2
183	0x3e4ccccd	0.2
184	0x3e4ccccd	0.2
185	0x3e4ccccd	0.2
186	0x3e4ccccd	0.2
187	0x3e4ccccd	0.2
188	0x3e4ccccd	0.2
189	0x3e4ccccd	0.2
190	0x3e4ccccd	0.2
191	0x3e4ccccd	0.2
192	0x3e4ccccd	0.2
193	0x3e4ccccd	0.2
194	0x3e4ccccd	0.2
195	0x3e4ccccd	0.2
196	0x3e4ccccd	0.2
197	0x3e4ccccd	0.2
198	0x3e4ccccd	0.2
199	0x3e4ccccd	0.2
200	0x3e4ccccd	0.2
201	0x3e4ccccd	0.2
202	0x3e4ccccd	0.2
203	0x3e4ccccd	0.2
204	0x3e4ccccd	0.2
205	0x3e4ccccd	0.2
206	0x3e4ccccd	0.2
207	0x3e4ccccd	0.2
208	0x3e4ccccd	0.2
209	0x3e4ccccd	0.2
210	0x3e4ccccd	0.2
211	0x3e4ccccd	0.2
212	0x3e4ccccd	0.2
213	0x3e4ccccd	0.2
214	0x3e4ccccd	0.2
215	0x3e4ccccd	0.2
216	0x3e4ccccd	0.2
217	0x3e4ccccd	0.2
218	0x3e4ccccd	0.2
219	0x3e4ccccd	0.2
220	0x3e4ccccd	0.2
221	0x3e4ccccd	0.2
222	0x3e4ccccd	0.2
223	0x3e4ccccd	0.2
224	0x3e4ccccd	0.2
225	0x3e4ccccd	0.2
226	0x3e4ccccd	0.2
227	0x3e4ccccd	0.2
228	0x3e4ccccd	0.2
229	0x3e4ccccd	0.2
230	0x3e4ccccd	0.2
231	0x3e4ccccd	0.2
232	0x3e4ccccd	0.2
233	0x3e4ccccd	0.2
234	0x3e4ccccd	0.2
235	0x3e4ccccd	0.2
236	0x3e4ccccd	0.2
237	0x3e4ccccd	0.2
238	0x3e4ccccd	0.2
239	0x3e4ccccd	0.2
240	0x3e4ccccd	0.2
241	0x3e4ccccd	0.2
242	0x3e4ccccd	0.2
243	0x3e4ccccd	0.2
244	0x3e4ccccd	0.2
245	0x3e4ccccd	0.2
246	0x3e4ccccd	0.2
247	0x3e4ccccd	0.2
248	0x3e4ccccd	0.2
249	0x3e4ccccd	0.2
250	0x3e4ccccd	0.2
251	0x3e4ccccd	0.2
252	0x3e4ccccd	0.2
253	0x3e4ccccd	0.2
254	0x3e4ccccd	0.2
255	0x3e4ccccd	0.2
