main/template_estimation/ellipse_models/ahs_theta_iter_300.npz (npz, 135260 bytes, 3 tensors)

Wt f4 [5, 101, 6]
0	0x00000000	0.0
1	0x00000000	0.0
2	0x00000000	0.0
3	0x00000000	0.0
4	0x00000000	0.0
5	0x00000000	0.0
6	0x3eaaaa4a	0.33333045
7	0x3e2297d4	0.1587823
8	0x3d199a7d	0.037500847
9	0xbde9919c	-0.11404726
10	0x3b1af428	0.0023644064
11	0xbe5b8492	-0.2143729
12	0x3f048972	0.51772225
13	0x3dec930a	0.11551483
14	0xbdcfec95	-0.10152546
15	0xbcd41eb1	-0.025893541
16	0xbd2d3d9e	-0.04229509
17	0xbe554d19	-0.20830192
18	0x3f0e60b8	0.5561633
19	0x3dfb95e0	0.12284446
20	0xbdcbc820	-0.0995028
21	0xbe2987f9	-0.16555776
22	0xbe1e9a72	-0.15488604
23	0xbe5c005a	-0.21484509
24	0x3f0732b9	0.5281177
25	0x3e587816	0.21139559
26	0xbe5f8f95	-0.21832116
27	0x3da8bf19	0.08239574
28	0x3d5e20ec	0.054230615
29	0xbde7cea4	-0.113187104
30	0x3ec725c3	0.38895997
31	0x3e8086c8	0.2510283
32	0xbe46da99	-0.19419326
33	0x3d341cee	0.043972902
34	0xbdc39eef	-0.095517986
35	0xbe80c216	-0.25148076
36	0x3ec08442	0.37600905
37	0x3eb4a43a	0.35281545
38	0xbe255173	-0.16144352
39	0xbda2fda0	-0.079585314
40	0xbe0f19a1	-0.1397462
41	0xbe4aa190	-0.19788194
42	0x3e7a64da	0.24452534
43	0x3eb2547e	0.34830087
44	0xbe03e67b	-0.1288089
45	0x3cf78538	0.03021489
46	0xbe989856	-0.29803723
47	0xbe84e37b	-0.25954804
48	0x3db49609	0.088176794
49	0x3efcbef0	0.49364424
50	0xbdebad86	-0.11507706
51	0xbe0f7bc6	-0.1401206
52	0xbe35c6fa	-0.17751685
53	0xbea81087	-0.3282511
54	0x3d4d4b40	0.050120592
55	0x3ed6bbfe	0.41940302
56	0xbe2fa1db	-0.17151587
57	0x3d743d12	0.059628554
58	0xbe742b76	-0.23844704
59	0xbe837d0f	-0.2568135
60	0xbd04c538	-0.032414645
61	0x3efa14d8	0.48844028
62	0xbe24f7c2	-0.16110137
63	0x3e411695	0.1885627
64	0xbec837f1	-0.3910518
65	0xbe18e9d8	-0.14932954
66	0xbeaaa8f2	-0.3333202
67	0x3f1d18c3	0.6136591
68	0xbe576ab7	-0.21036802
69	0x3eda9e4f	0.42698905
70	0xbeb1db69	-0.3473771
71	0xbda07311	-0.07834447
72	0xbe9df81f	-0.30853364
73	0x3f3f667b	0.7476575
74	0xbd94e1b2	-0.072696105
75	0x3f14fe76	0.58200777
76	0xbe4cf0f2	-0.20013788
77	0xbc559a90	-0.013037339
78	0xbe972bf1	-0.29525712
79	0x3f24e4d1	0.64411646
80	0xbe1759e6	-0.14780387
81	0x3f26f539	0.6521793
82	0x3e2b3d6a	0.16722646
83	0xbd25975a	-0.040427543
84	0xbde8e0ae	-0.11370979
85	0x3f29cab4	0.66324925
86	0xbe50fbfe	-0.20408627
87	0x3f059c3b	0.52191514
88	0x3ded6272	0.115910426
89	0x3d231e3c	0.039823756
90	0xbe13730a	-0.14399353
91	0x3f26dd6a	0.651816
92	0xbee0b7f9	-0.4389036
93	0x3e9636f2	0.29338795
94	0x3e95ab7b	0.29232392
95	0xbe32623f	-0.1742029
96	0xbdd28af7	-0.10280412
97	0x3ef74f60	0.48302746
98	0xbecd3bdd	-0.40084735
99	0x3dd79eb6	0.105283186
100	0x3e7850b6	0.24249539
101	0xbe1e778c	-0.15475291
102	0xbe5aa85c	-0.21353287
103	0x3e31c375	0.17359717
104	0xbe98b8a6	-0.29828376
105	0x3e66a0b0	0.22522235
106	0x3e62dc92	0.22154453
107	0xbda53b79	-0.08067984
108	0xbe1e208e	-0.15442106
109	0x3ea7e21a	0.3278969
110	0xbe9ba104	-0.30396283
111	0x3cbaaee8	0.02278848
112	0x3e70bc41	0.23509313
113	0x3ddca77e	0.10774134
114	0xbe48f37f	-0.19624136
115	0x3e98e9e9	0.2986596
116	0xbe888906	-0.2666704
117	0xbe4722df	-0.19446896
118	0x3e864fb2	0.26232678
119	0x3d6f823e	0.058473818
120	0xbe701b47	-0.23447905
121	0x3e1f5d2a	0.15562883
122	0xbe6d821c	-0.23194164
123	0xbe9af9bb	-0.30268654
124	0x3e9fc4a6	0.31204718
125	0x3d8fc0a3	0.070191644
126	0xbd430e66	-0.047621153
127	0x3dc3baa7	0.095570855
128	0xbe4d2ef2	-0.2003744
129	0xbe4dd9dc	-0.20102638
130	0x3e9ffa4b	0.31245646
131	0x3e1a1af7	0.15049349
132	0x3e0d2f02	0.13787463
133	0xbe01b144	-0.12665278
134	0xbe7a9894	-0.24472266
135	0xbecce6a8	-0.40019727
136	0x3da7902b	0.08181795
137	0x3dcd1c68	0.10015184
138	0x3daef8ac	0.08543524
139	0xbe1ba592	-0.15199879
140	0xbeb2fd80	-0.3495903
141	0xbec2f8cc	-0.38080442
142	0x3d79936b	0.060931604
143	0x3e1aea7f	0.15128516
144	0x3e2671e5	0.16254385
145	0xbe54e1c1	-0.20789243
146	0xbecc5230	-0.39906454
147	0xbea2bbd5	-0.3178393
148	0x3e9165cc	0.28397977
149	0x3e2a19ce	0.16611406
150	0xbcf5d232	-0.030007455
151	0xbe9f89f0	-0.31159925
152	0xbf1006eb	-0.56260556
153	0xbe811b09	-0.2521594
154	0x3e7f8546	0.24953184
155	0x3e90643f	0.28201482
156	0xbe57d33c	-0.21076673
157	0xbece1a24	-0.4025432
158	0xbee44f1c	-0.44591606
159	0xbe7208b1	-0.23636128
160	0x3e0afd5f	0.13573216
161	0x3ee0e6b1	0.43926004
162	0xbdb90ac3	-0.09035256
163	0xbf0298ff	-0.51014704
164	0xbef934a8	-0.48672986
165	0xbe98667c	-0.2976569
166	0xbd339352	-0.043841667
167	0x3f1a46cf	0.60264295
168	0xbe05bf1c	-0.13061184
169	0xbf0cf571	-0.55062014
170	0xbf152808	-0.5826421
171	0xbf0ac1e1	-0.54202086
172	0xbdf14d63	-0.117823385
173	0x3f25451f	0.64558595
174	0xbe3ceff8	-0.18450916
175	0xbf0f7ed5	-0.56052905
176	0xbf5899cc	-0.84609675
177	0xbef6e41c	-0.4822091
178	0xbe1b90d3	-0.15191965
179	0x3f1cbf25	0.61229163
180	0xbe8cf0d9	-0.27527502
181	0xbec77cbe	-0.38962358
182	0xbf68923c	-0.90848136
183	0xbeefc34c	-0.46828687
184	0xbe716ddf	-0.23577069
185	0x3f1631de	0.5866984
186	0xbeb18863	-0.34674367
187	0xbe8c28f9	-0.2737501
188	0xbf531564	-0.82454515
189	0xbf06a6f2	-0.5259849
190	0xbebaf9f0	-0.36518812
191	0x3f049344	0.5178721
192	0xbe68cace	-0.22733614
193	0xbe23a170	-0.15979552
194	0xbf138aa4	-0.57633424
195	0xbf0bd9d3	-0.5462925
196	0xbf058c65	-0.5216735
197	0x3ef5085c	0.4785794
198	0xbe812fef	-0.25231883
199	0xbdd5c5d1	-0.10438121
200	0xbedd4478	-0.432163
201	0xbf075406	-0.52862585
202	0xbf233f3c	-0.63768363
203	0x3efd733c	0.4950198
204	0xbe88cfac	-0.2672094
205	0xbde732fd	-0.11289022
206	0xbf083204	-0.5320132
207	0xbf12c47c	-0.5733106
208	0xbf12f4e3	-0.5740492
209	0x3eb98acf	0.36238715
210	0xbe19679a	-0.14980927
211	0xbe223b48	-0.15842927
212	0xbf11b58c	-0.56917644
213	0xbf20403e	-0.62598026
214	0xbf144d90	-0.5793085
215	0x3e2024a0	0.15638971
216	0xbddc81a4	-0.107669145
217	0xbe2ee53b	-0.17079632
218	0xbeef45c6	-0.4673292
219	0xbf27788a	-0.65418303
220	0xbef22d78	-0.47300315
221	0x3ebac977	0.3648183
222	0xbe0120ec	-0.12610215
223	0xbdd3e971	-0.1034726
224	0xbf113518	-0.5672164
225	0xbf04f2f9	-0.51933247
226	0xbf0c7ba2	-0.5487615
227	0x3eb79783	0.35857782
228	0xbda42200	-0.080142975
229	0x3d2e7052	0.042587586
230	0xbeca8895	-0.3955733
231	0xbf013aae	-0.50480163
232	0xbee3d5d0	-0.44499063
233	0x3e849266	0.25892943
234	0xbdc6c85e	-0.09706186
235	0x3c65c890	0.014024869
236	0xbebf494d	-0.37360612
237	0xbef8e48e	-0.48611873
238	0xbec96dc1	-0.39341548
239	0x3eb6e6c4	0.35722935
240	0xbe468106	-0.19385156
241	0xbe4f1f22	-0.2022672
242	0xbeb31678	-0.3497808
243	0xbea7ce6c	-0.32774675
244	0xbeeadd10	-0.45871782
245	0x3ec3d972	0.38251835
246	0xbdf7d156	-0.121004745
247	0xbec7cd55	-0.39023843
248	0xbe86ce18	-0.26329112
249	0xbeb56673	-0.35429725
250	0xbec2f682	-0.38078696
251	0x3ef18d0e	0.4717793
252	0xbdcb772e	-0.09934841
253	0xbf19f14c	-0.60133815
254	0xbe4ebf9e	-0.20190284
255	0xbecbcb6e	-0.39803642

Xt f4 [5, 101, 60]
0	0x3eff5fc7	0.4987776
1	0xbaa0342d	-0.0012222581
2	0x3ee69255	0.45033517
3	0x3f4e99ea	0.80703604
4	0x3eac6ccd	0.33676758
5	0x3fbe86ea	1.4884923
6	0x3e1f1e7c	0.15538973
7	0x3ff3954b	1.9029936
8	0xbd553f5d	-0.05206238
9	0x3ffe9f9a	1.9892457
10	0xbe80069f	-0.25005051
11	0x3fddb237	1.7320012
12	0xbecf692f	-0.40509936
13	0x3f9665bb	1.1749796
14	0xbef71d52	-0.48264557
15	0x3ed8314a	0.42225105
16	0xbee5c36b	-0.44875655
17	0xbec0426f	-0.37550685
18	0xbec723d5	-0.38894525
19	0xbf947b23	-1.1600078
20	0xbe7eefb0	-0.24896121
21	0xbfdd91da	-1.7310135
22	0xbd556e0f	-0.052106913
23	0xbffe93d5	-1.9888865
24	0x3e1e846f	0.15480207
25	0xbff36ed0	-1.9018192
26	0x3eac0cf3	0.3360363
27	0xbfbe0e93	-1.4848198
28	0x3eec8492	0.46194893
29	0xbf4eec7b	-0.8082959
30	0x00000000	0.0
31	0x00000000	0.0
32	0x00000000	0.0
33	0x00000000	0.0
34	0x00000000	0.0
35	0x00000000	0.0
36	0x00000000	0.0
37	0x00000000	0.0
38	0x00000000	0.0
39	0x00000000	0.0
40	0x00000000	0.0
41	0x00000000	0.0
42	0x00000000	0.0
43	0x00000000	0.0
44	0x00000000	0.0
45	0x00000000	0.0
46	0x00000000	0.0
47	0x00000000	0.0
48	0x00000000	0.0
49	0x00000000	0.0
50	0x00000000	0.0
51	0x00000000	0.0
52	0x00000000	0.0
53	0x00000000	0.0
54	0x00000000	0.0
55	0x00000000	0.0
56	0x00000000	0.0
57	0x00000000	0.0
58	0x00000000	0.0
59	0x00000000	0.0
60	0x3ed22748	0.41045594
61	0xbdb762cf	-0.08954393
62	0x3ea69db5	0.32542196
63	0x3f2e9f9b	0.6821229
64	0x3ea30087	0.3183634
65	0x3fbc2bd8	1.470088
66	0x3e1d5cc5	0.1536742
67	0x3ff35d15	1.9012781
68	0xbd589d6d	-0.052884508
69	0x3ffe84a9	1.9884235
70	0xbe8137bd	-0.25237837
71	0x3fdd65ef	1.7296733
72	0xbed57188	-0.4168818
73	0x3f94e3a4	1.163197
74	0xbefd3fc6	-0.49462718
75	0x3ed20ed6	0.41026944
76	0xbecd626d	-0.40114155
77	0xbea7e171	-0.32789186
78	0xbebb2e6e	-0.3655886
79	0xbf917dc9	-1.1366512
80	0xbe7bebba	-0.24601641
81	0xbfdd315b	-1.7280687
82	0xbd530c52	-0.05152542
83	0xbffe80c7	-1.988305
84	0x3e1f086c	0.15530556
85	0xbff35e51	-1.9013158
86	0x3ead07ea	0.337951
87	0xbfbdcfd5	-1.482905
88	0x3eed9dcb	0.4640945
89	0xbf4e5fdf	-0.8061504
90	0x00000000	0.0
91	0x00000000	0.0
92	0x00000000	0.0
93	0x00000000	0.0
94	0x00000000	0.0
95	0x00000000	0.0
96	0x00000000	0.0
97	0x00000000	0.0
98	0x00000000	0.0
99	0x00000000	0.0
100	0x00000000	0.0
101	0x00000000	0.0
102	0x00000000	0.0
103	0x00000000	0.0
104	0x00000000	0.0
105	0x00000000	0.0
106	0x00000000	0.0
107	0x00000000	0.0
108	0x00000000	0.0
109	0x00000000	0.0
110	0x00000000	0.0
111	0x00000000	0.0
112	0x00000000	0.0
113	0x00000000	0.0
114	0x00000000	0.0
115	0x00000000	0.0
116	0x00000000	0.0
117	0x00000000	0.0
118	0x00000000	0.0
119	0x00000000	0.0
120	0x3ee348dc	0.44391525
121	0xbd65b902	-0.05608464
122	0x3ebb52ea	0.36586696
123	0x3f38fa35	0.72256786
124	0x3ea6a279	0.32545832
125	0x3fbd1455	1.477183
126	0x3e1e51e4	0.15460926
127	0x3ff37bb9	1.9022132
128	0xbd572e37	-0.05253431
129	0x3ffe9023	1.9887737
130	0xbe80d94d	-0.25165787
131	0x3fdd7d8b	1.7303938
132	0xbed38580	-0.4131279
133	0x3f955ea6	1.166951
134	0xbef1bf02	-0.4721604
135	0x3edd8f9a	0.43273622
136	0xbea36d3d	-0.3191928
137	0xbe7bd881	-0.24594308
138	0xbea848d3	-0.3286806
139	0xbf8cc462	-1.0997431
140	0xbe783aed	-0.24241228
141	0xbfdcbb41	-1.7244645
142	0xbd505794	-0.05086477
143	0xbffe6b21	-1.9876443
144	0x3e1fc308	0.15601742
145	0xbff346fe	-1.900604
146	0x3eae9bfb	0.3410338
147	0xbfbd6ad1	-1.4798223
148	0x3ef411de	0.47669882
149	0xbf4b25d6	-0.7935461
150	0x00000000	0.0
151	0x00000000	0.0
152	0x00000000	0.0
153	0x00000000	0.0
154	0x00000000	0.0
155	0x00000000	0.0
156	0x00000000	0.0
157	0x00000000	0.0
158	0x00000000	0.0
159	0x00000000	0.0
160	0x00000000	0.0
161	0x00000000	0.0
162	0x00000000	0.0
163	0x00000000	0.0
164	0x00000000	0.0
165	0x00000000	0.0
166	0x00000000	0.0
167	0x00000000	0.0
168	0x00000000	0.0
169	0x00000000	0.0
170	0x00000000	0.0
171	0x00000000	0.0
172	0x00000000	0.0
173	0x00000000	0.0
174	0x00000000	0.0
175	0x00000000	0.0
176	0x00000000	0.0
177	0x00000000	0.0
178	0x00000000	0.0
179	0x00000000	0.0
180	0x3edc92c9	0.43080738
181	0xbd8db4d0	-0.06919253
182	0x3e9dc7db	0.3081654
183	0x3f2a34ad	0.66486627
184	0x3ea240ba	0.31690007
185	0x3fbbfbe5	1.4686247
186	0x3e1d8f73	0.15386753
187	0x3ff3636b	1.9014715
188	0xbd58a991	-0.052896086
189	0x3ffe8448	1.9884119
190	0xbe8161b4	-0.25269854
191	0x3fdd5b71	1.7293531
192	0xbed5da4e	-0.41768116
193	0x3f94c973	1.1623977
194	0xbee428b1	-0.44562295
195	0x3eeb25eb	0.45927367
196	0xbe1b86b7	-0.15188108
197	0xbda1097c	-0.07863137
198	0xbe6dec37	-0.2323464
199	0xbf806fb4	-1.0034089
200	0xbe6f09f7	-0.23343645
201	0xbfdb9522	-1.7154887
202	0xbd49aad4	-0.04923518
203	0xbffe35bb	-1.9860147
204	0x3e218bea	0.15776029
205	0xbff30de2	-1.8988612
206	0x3eb26ead	0.34850064
207	0xbfbc7625	-1.4723555
208	0x3f00248c	0.50055766
209	0xbf450a39	-0.76968724
210	0x00000000	0.0
211	0x00000000	0.0
212	0x00000000	0.0
213	0x00000000	0.0
214	0x00000000	0.0
215	0x00000000	0.0
216	0x00000000	0.0
217	0x00000000	0.0
218	0x00000000	0.0
219	0x00000000	0.0
220	0x00000000	0.0
221	0x00000000	0.0
222	0x00000000	0.0
223	0x00000000	0.0
224	0x00000000	0.0
225	0x00000000	0.0
226	0x00000000	0.0
227	0x00000000	0.0
228	0x00000000	0.0
229	0x00000000	0.0
230	0x00000000	0.0
231	0x00000000	0.0
232	0x00000000	0.0
233	0x00000000	0.0
234	0x00000000	0.0
235	0x00000000	0.0
236	0x00000000	0.0
237	0x00000000	0.0
238	0x00000000	0.0
239	0x00000000	0.0
240	0x3f22bfdd	0.6357401
241	0x3e0aff7b	0.1357402
242	0x3f244929	0.64174134
243	0x3f7f99e8	0.9984422
244	0x3ebd1918	0.36933208
245	0x3fc2b1fd	1.5210568
246	0x3e22ff66	0.1591774
247	0x3ff41169	1.9067813
248	0xbd4f3c0c	-0.050594375
249	0x3ffecfb4	1.9907136
250	0xbe7cbf71	-0.24682404
251	0x3fde1bf0	1.7352276
252	0xbec6c649	-0.38823155
253	0x3f988e75	1.1918474
254	0xbebde73f	-0.3709049
255	0x3f08b3ae	0.5339917

theta f4 [301]
0	0x3e4ccccd	0.2
1	0x3e4ccccd	0.2
2	0x3e4ccccd	0.2
3	0x3e4ccccd	0.2
4	0x3e4ccccd	0.2
5	0x3e4ccccd	0.2
6	0x3e4ccccd	0.2
7	0x3e4ccccd	0.2
8	0x3e4ccccd	0.2
9	0x3e4ccccd	0.2
10	0x3e4ccccd	0.2
11	0x3e4ccccd	0.2
12	0x3e4ccccd	0.2
13	0x3e4ccccd	0.2
14	0x3e4ccccd	0.2
15	0x3e4ccccd	0.2
16	0x3e4ccccd	0.2
17	0x3e4ccccd	0.2
18	0x3e4ccccd	0.2
19	0x3e4ccccd	0.2
20	0x3e4ccccd	0.2
21	0x3e4ccccd	0.2
22	0x3e4ccccd	0.2
23	0x3e4ccccd	0.2
24	0x3e4ccccd	0.2
25	0x3e4ccccd	0.2
26	0x3e4ccccd	0.2
27	0x3e4ccccd	0.2
28	0x3e4ccccd	0.2
29	0x3e4ccccd	0.2
30	0x3e4ccccd	0.2
31	0x3e4ccccd	0.2
32	0x3e4ccccd	0.2
33	0x3e4ccccd	0.2
34	0x3e4ccccd	0.2
35	0x3e4ccccd	0.2
36	0x3e4ccccd	0.2
37	0x3e4ccccd	0.2
38	0x3e4ccccd	0.2
39	0x3e4ccccd	0.2
40	0x3e4ccccd	0.2
41	0x3e4ccccd	0.2
42	0x3e4ccccd	0.2
43	0x3e4ccccd	0.2
44	0x3e4ccccd	0.2
45	0x3e4ccccd	0.2
46	0x3e4ccccd	0.2
47	0x3e4ccccd	0.2
48	0x3e4ccccd	0.2
49	0x3e4ccccd	0.2
50	0x3e4ccccd	0.2
51	0x3e4ccccd	0.2
52	0x3e4ccccd	0.2
53	0x3e4ccccd	0.2
54	0x3e4ccccd	0.2
55	0x3e4ccccd	0.2
56	0x3e4ccccd	0.2
57	0x3e4ccccd	0.2
58	0x3e4ccccd	0.2
59	0x3e4ccccd	0.2
60	0x3e4ccccd	0.2
61	0x3e4ccccd	0.2
62	0x3e4ccccd	0.2
63	0x3e4ccccd	0.2
64	0x3e4ccccd	0.2
65	0x3e4ccccd	0.2
66	0x3e4ccccd	0.2
67	0x3e4ccccd	0.2
68	0x3e4ccccd	0.2
69	0x3e4ccccd	0.2
70	0x3e4ccccd	0.2
71	0x3e4ccccd	0.2
72	0x3e4ccccd	0.2
73	0x3e4ccccd	0.2
74	0x3e4ccccd	0.2
75	0x3e4ccccd	0.2
76	0x3e4ccccd	0.2
77	0x3e4ccccd	0.2
78	0x3e4ccccd	0.2
79	0x3e4ccccd	0.2
80	0x3e4ccccd	0.2
81	0x3e4ccccd	0.2
82	0x3e4ccccd	0.2
83	0x3e4ccccd	0.2
84	0x3e4ccccd	0.2
85	0x3e4ccccd	0.2
86	0x3e4ccccd	0.2
87	0x3e4ccccd	0.2
88	0x3e4ccccd	0.2
89	0x3e4ccccd	0.2
90	0x3e4ccccd	0.2
91	0x3e4ccccd	0.2
92	0x3e4ccccd	0.2
93	0x3e4ccccd	0.2
94	0x3e4ccccd	0.2
95	0x3e4ccccd	0.2
96	0x3e4ccccd	0.2
97	0x3e4ccccd	0.2
98	0x3e4ccccd	0.2
99	0x3e4ccccd	0.2
100	0x3e4ccccd	0.2
101	0x3e4ccccd	0.2
102	0x3e4ccccd	0.2
103	0x3e4ccccd	0.2
104	0x3e4ccccd	0.2
105	0x3e4ccccd	0.2
106	0x3e4ccccd	0.2
107	0x3e4ccccd	0.2
108	0x3e4ccccd	0.2
109	0x3e4ccccd	0.2
110	0x3e4ccccd	0.2
111	0x3e4ccccd	0.2
112	0x3e4ccccd	0.2
113	0x3e4ccccd	0.2
114	0x3e4ccccd	0.2
115	0x3e4ccccd	0.2
116	0x3e4ccccd	0.2
117	0x3e4ccccd	0.2
118	0x3e4ccccd	0.2
119	0x3e4ccccd	0.2
120	0x3e4ccccd	0.2
121	0x3e4ccccd	0.2
122	0x3e4ccccd	0.2
123	0x3e4ccccd	0.2
124	0x3e4ccccd	0.2
125	0x3e4ccccd	0.2
126	0x3e4ccccd	0.2
127	0x3e4ccccd	0.2
128	0x3e4ccccd	0.2
129	0x3e4ccccd	0.2
130	0x3e4ccccd	0.2
131	0x3e4ccccd	0.2
132	0x3e4ccccd	0.2
133	0x3e4ccccd	0.2
134	0x3e4ccccd	0.2
135	0x3e4ccccd	0.2
136	0x3e4ccccd	0.2
137	0x3e4ccccd	0.2
138	0x3e4ccccd	0.2
139	0x3e4ccccd	0.2
140	0x3e4ccccd	0.2
141	0x3e4ccccd	0.2
142	0x3e4ccccd	0.2
143	0x3e4ccccd	0.2
144	0x3e4ccccd	0.2
145	0x3e4ccccd	0.2
146	0x3e4ccccd	0.2
147	0x3e4ccccd	0.2
148	0x3e4ccccd	0.2
149	0x3e4ccccd	0.2
150	0x3e4ccccd	0.2
151	0x3e4ccccd	0.2
152	0x3e4ccccd	0.2
153	0x3e4ccccd	0.2
154	0x3e4ccccd	0.2
155	0x3e4ccccd	0.2
156	0x3e4ccccd	0.2
157	0x3e4ccccd	0.2
158	0x3e4ccccd	0.2
159	0x3e4ccccd	0.2
160	0x3e4ccccd	0.2
161	0x3e4ccccd	0.2
162	0x3e4ccccd	0.2
163	0x3e4ccccd	0.2
164	0x3e4ccccd	0.2
165	0x3e4ccccd	0.2
166	0x3e4ccccd	0.2
167	0x3e4ccccd	0.2
168	0x3e4ccccd	0.2
169	0x3e4ccccd	0.2
170	0x3e4ccccd	0.2
171	0x3e4ccccd	0.2
172	0x3e4ccccd	0.2
173	0x3e4ccccd	0.2
174	0x3e4ccccd	0.2
175	0x3e4ccccd	0.2
176	0x3e4ccccd	0.2
177	0x3e4ccccd	0.2
178	0x3e4ccccd	0.2
179	0x3e4ccccd	0.2
180	0x3e4ccccd	0.2
181	0x3e4ccccd	0.2
182	0x3e4ccccd	0.2
183	0x3e4ccccd	0.2
184	0x3e4ccccd	0.2
185	0x3e4ccccd	0.2
186	0x3e4ccccd	0.2
187	0x3e4ccccd	0.2
188	0x3e4ccccd	0.2
189	0x3e4ccccd	0.2
190	0x3e4ccccd	0.2
191	0x3e4ccccd	0.2
192	0x3e4ccccd	0.2
193	0x3e4ccccd	0.2
194	0x3e4ccccd	0.2
195	0x3e4ccccd	0.2
196	0x3e4ccccd	0.2
197	0x3e4ccccd	0.2
198	0x3e4ccccd	0.2
199	0x3e4ccccd	0.2
200	0x3e4ccccd	0.2
201	0x3e4ccccd	0.2
202	0x3e4ccccd	0.2
203	0x3e4ccccd	0.2
204	0x3e4ccccd	0.2
205	0x3e4ccccd	0.2
206	0x3e4ccccd	0.2
207	0x3e4ccccd	0.2
208	0x3e4ccccd	0.2
209	0x3e4ccccd	0.2
210	0x3e4ccccd	0.2
211	0x3e4ccccd	0.2
212	0x3e4ccccd	0.2
213	0x3e4ccccd	0.2
214	0x3e4ccccd	0.2
215	0x3e4ccccd	0.2
216	0x3e4ccccd	0.2
217	0x3e4ccccd	0.2
218	0x3e4ccccd	0.2
219	0x3e4ccccd	0.2
220	0x3e4ccccd	0.2
221	0x3e4ccccd	0.2
222	0x3e4ccccd	0.2
223	0x3e4ccccd	0.2
224	0x3e4ccccd	0.2
225	0x3e4ccccd	0.2
226	0x3e4ccccd	0.2
227	0x3e4ccccd	0.2
228	0x3e4ccccd	0.2
229	0x3e4ccccd	0.2
230	0x3e4ccccd	0.2
231	0x3e4ccccd	0.2
232	0x3e4ccccd	0.2
233	0x3e4ccccd	0.2
234	0x3e4ccccd	0.2
235	0x3e4ccccd	0.2
236	0x3e4ccccd	0.2
237	0x3e4ccccd	0.2
238	0x3e4ccccd	0.2
239	0x3e4ccccd	0.2
240	0x3e4ccccd	0.2
241	0x3e4ccccd	0.2
242	0x3e4ccccd	0.2
243	0x3e4ccccd	0.2
244	0x3e4ccccd	0.2
245	0x3e4ccccd	0.2
246	0x3e4ccccd	0.2
247	0x3e4ccccd	0.2
248	0x3e4ccccd	0.2
249	0x3e4ccccd	0.2
250	0x3e4ccccd	0.2
251	0x3e4ccccd	0.2
252	0x3e4ccccd	0.2
253	0x3e4ccccd	0.2
254	0x3e4ccccd	0.2
255	0x3e4ccccd	0.2
