main/template_estimation/ellipse_models/ms_theta_iter_8700.npz (npz, 217340 bytes, 3 tensors)

Wt f4 [5, 101, 30]
0.0 0.0 0.0 0.0 0.0 0.0 0.0 0.0
0.0 0.0 0.0 0.0 0.0 0.0 0.0 0.0
0.0 0.0 0.0 0.0 0.0 0.0 0.0 0.0
0.0 0.0 0.0 0.0 0.0 0.0 0.101028 0.115790755
-0.22226529 -0.056301296 -0.11246626 -0.059732277 0.120852254 0.058627192 -0.024621902 0.016333172
-0.07260295 -0.037869103 -0.15001127 0.27204946 -0.039433867 0.05389077 0.24779004 -0.18996201
0.09110035 0.0896322 0.039428715 -0.20906594 0.04005853 -0.07072342 -0.081899196 -0.06436966
0.06121715 0.05338223 0.1802168 -0.06672653 0.11139095 -0.13404049 -0.14799006 -0.11124424
0.09643047 0.050927576 0.41701567 0.31867522 -0.05878003 0.18430105 -0.29496863 0.06191925
-0.18294385 0.12831612 0.057939395 0.098696716 0.24141218 -0.02465994 0.031108748 0.10228922
0.019097853 0.050000675 -0.05736448 -0.10474262 0.14770138 -0.06836714 -0.12234396 0.004004528
-0.030777002 -0.029750988 0.08832128 -0.2617655 -0.13750137 -0.16264988 0.112875625 -0.07060601
0.5653032 0.4984096 -0.09488484 0.20988464 -0.40313372 0.064468324 0.13448796 0.11057906
0.16866434 0.25832093 0.32831275 0.033369206 -0.17944911 -0.11178694 0.17851672 -0.113409325
0.068041295 -0.11448937 -0.0005896203 -0.08438413 -0.32518026 -0.16047972 0.045290507 -0.006399854
0.070463695 -0.27686077 0.035211828 -0.39404482 0.050249305 -0.09174238 0.72552884 0.49363175
-0.009380866 0.21343866 -0.47166774 0.23369643 0.15538909 0.047781568 0.24675778 0.10332024
0.3739385 0.08273958 -0.1455737 -0.2054054 0.35885796 0.022322906 0.07764891 -0.26688674
-0.1794014 -0.25272915 -0.2987938 -0.29289213 0.32082033 0.051884096 0.14317971 -0.3444205
0.033419274 -0.24794546 -0.064732246 -0.17420715 1.0356548 0.43950486 0.2511047 0.27606076
-0.7205263 0.17245999 0.14570922 -0.06754224 0.37482435 0.2585514 0.5392324 0.22399832
-0.18005688 -0.1901949 0.44708216 -0.00013378542 0.029518217 -0.34482437 -0.14991738 -0.24086459
-0.35143673 -0.3072247 0.38939446 0.24479014 -0.0023835078 -0.37843147 0.06189524 -0.22856802
0.12848237 -0.04034187 1.0592849 0.4210805 0.32228702 0.28798994 -0.58216107 0.0643713
0.18589094 -0.14996704 0.4115514 0.18737492 0.6013006 0.34449247 -0.33918628 -0.2509252
0.42772764 -0.12917727 0.0688131 -0.37041056 0.036299214 -0.24955806 -0.42553377 -0.3177044
0.5541851 0.12425603 -0.06911008 -0.49842247 0.091219485 -0.39874247 0.14823797 -0.13749738
1.2734773 0.53005815 0.32930872 0.3987069 -0.57876265 0.1477452 0.27758324 0.016771836
0.3828866 -0.0061374605 0.78084356 0.30381063 -0.2712213 -0.18951902 0.340293 -0.1701943
0.17623712 -0.251937 -0.025001824 -0.29325372 -0.3284173 -0.41026235 0.5133517 0.19264957
0.068177074 -0.6317563 0.07562791 -0.2656402 0.3292703 -0.12500615 0.95847756 0.2363182
0.3311969 0.29253635 -0.9274525 0.17921081 0.37204543 0.045118995 0.41928697 0.072711796
00000000: 0000 0000 0000 0000 0000 0000 0000 0000
00000010: 0000 0000 0000 0000 0000 0000 0000 0000
00000020: 0000 0000 0000 0000 0000 0000 0000 0000
00000030: 0000 0000 0000 0000 0000 0000 0000 0000
00000040: 0000 0000 0000 0000 0000 0000 0000 0000
00000050: 0000 0000 0000 0000 0000 0000 0000 0000
00000060: 0000 0000 0000 0000 0000 0000 0000 0000
00000070: 0000 0000 0000 0000 c5e7 ce3d b423 ed3d
00000080: 8399 63be 309c 66bd b654 e6bd d5a9 74bd
00000090: 6381 f73d 1123 703d dfb3 c9bc 25cd 853c
000000a0: dbb0 94bd a21c 1bbd 8e9c 19be 114a 8b3e
000000b0: 6885 21bd 91bc 5c3d acbc 7d3e 6785 42be
000000c0: d292 ba3d 1691 b73d 0180 213d 6215 56be
000000d0: 6a14 243d 71d7 90bd c4ba a7bd 3ed4 83bd
000000e0: d6be 7a3d 53a7 5a3d c18a 383e eba7 88bd
000000f0: f020 e43d e941 09be b58a 17be 05d4 e3bd
00000100: 577d c53d 6f99 503d 1483 d53e 6629 a33e
00000110: 54c3 70bd 6ab9 3c3e 2106 97be 0a9f 7d3d
00000120: a255 3bbe 4d65 033e dc51 6d3d 8121 ca3d
00000130: c134 773e a403 cabc c6d7 fe3c 037d d13d
00000140: 1a73 9c3c 82cd 4c3d 04f7 6abd 4c83 d6bd
00000150: 083f 173e 1204 8cbd 788f fabd 6a38 833b
00000160: 0d20 fcbc 58b8 f3bc cae1 b43d 2106 86be
00000170: 29cd 0cbe b18d 26be 562b e73d e299 90bd
00000180: b6b7 103f 8b2f ff3e fc52 c2bd 00ec 563e
00000190: 8b67 cebe f807 843d 36b7 093e 4677 e23d
000001a0: 58b6 2c3e a442 843e 9c18 a83e 26ae 083d
000001b0: 82c1 37be 8df0 e4bd 16cd 363e 2643 e8bd
000001c0: 3c59 8b3d 6779 eabd c090 1aba 96d1 acbd
000001d0: 077e a6be cc54 24be 8a82 393d deb5 d1bb
000001e0: 454f 903d b2c0 8dbe 473a 103d 3ec0 c9be
000001f0: 37d2 4d3d 6ee3 bbbd 42bc 393f 4dbd fc3e
00000200: 34b2 19bc aa8f 5a3e 6f7e f1be 1e4e 6f3e
00000210: 511e 1f3e 9bb6 433d 12ae 7c3e 9099 d33d
00000220: de74 bf3e 5e73 a93d 4611 15be cb55 52be
00000230: 3bbc b73e 87de b63c 6406 9f3d 61a5 88be
00000240: 00b5 37be b765 81be 80fb 98be f5f5 95be
00000250: 9042 a43e 6b84 543d b49d 123e e257 b0be
00000260: a6e2 083d 6ae5 7dbe 5792 84bd 5c63 32be
00000270: 5690 843f c806 e13e cc90 803e d657 8d3e
00000280: 6974 38bf 5a99 303e cc34 153e 9653 8abd
00000290: fae8 bf3e d960 843e 220b 0a3f d15f 653e
000002a0: d560 38be 74c2 42be f4e7 e43e c048 0cb9
000002b0: 30d0 f13c d28c b0be f183 19be 35a5 76be
000002c0: 84ef b3be 8e4c 9dbe b65e c73e 44aa 7a3e
000002d0: a034 1cbb c5c1 c1be dd85 7d3d bc0d 6abe
000002e0: e290 033e 843d 25bd a696 873f dd97 d73e
000002f0: ce02 a53e 6b73 933e 8208 15bf 1ad5 833d
00000300: 325a 3e3e f690 19be ddb6 d23e 36df 3f3e
00000310: d6ee 193f 5161 b03e d3a9 adbe 4579 80be
00000320: 1eff da3e 0c47 04be e2ed 8c3d 74a6 bdbe
00000330: 7cae 143d 268c 7fbe 90df d9be 27aa a2be
00000340: 13df 0d3f f279 fe3d 9689 8dbd 3b31 ffbe
00000350: 48d1 ba3d f927 ccbe b2cb 173e 1dcc 0cbe
00000360: 4e01 a33f e4b1 073f 279b a83e 5023 cc3e
00000370: ca29 14bf 854a 173e 641f 8e3e 1765 893c
00000380: b609 c43e c01c c9bb 5de5 473f 118d 9b3e
00000390: 85dd 8abe 4611 42be e23a ae3e 6a47 2ebe
000003a0: 8177 343e e3fd 80be a0d0 ccbc 5a25 96be
000003b0: 5026 a8be e80d d2be 046b 033f ee45 453e
000003c0: 6ca0 8b3d c8ba 21bf cee2 9a3d fe01 88be
000003d0: 1e96 a83e 9d01 00be c95e 753f 66fd 713e
000003e0: a492 a93e 53c7 953e 876d 6dbf 0a83 373e
000003f0: bd7c be3e b2ce 383d c8ac d63e ece9 943d

Xt f4 [5, 101, 60]
0.5336444 0.042357463 0.46937656 0.83603203 0.3220516 1.4764667 0.12583937 1.8842677
-0.08265644 1.9727385 -0.26584554 1.7177498 -0.3820928 1.1726211 -0.41379505 0.43447423
-0.39189407 -0.3942481 -0.3499341 -1.1657366 -0.2517196 -1.7267853 -0.083204955 -1.9818827
0.11511748 -1.892237 0.31204805 -1.4703683 0.47695366 -0.78073263 0.0 0.0
0.0 0.0 0.0 0.0 0.0 0.0 0.0 0.0
0.0 0.0 0.0 0.0 0.0 0.0 0.0 0.0
0.0 0.0 0.0 0.0 0.0 0.0 0.0 0.0
0.0 0.0 0.0 0.0 0.5336444 0.042357463 0.46937656 0.83603203
0.3220516 1.4764667 0.12583937 1.8842677 -0.08265644 1.9727385 -0.26584554 1.7177498
-0.3820928 1.1726211 -0.41379505 0.43447423 -0.39189407 -0.3942481 -0.3499341 -1.1657366
-0.2517196 -1.7267853 -0.083204955 -1.9818827 0.11511748 -1.892237 0.31204805 -1.4703683
0.47695366 -0.78073263 0.024072958 0.038134053 -0.055772237 -0.019650072 -0.038008668 -0.015574045
0.023143068 0.012992453 -0.0030143852 -0.00095224986 -0.0046951193 -0.0074239476 -0.027834427 0.07069986
-0.016414195 0.009911459 0.060104467 -0.05658598 0.01458917 0.019443588 0.009825271 -0.05356269
0.008285324 -0.027164128 -0.031457886 -0.020942532 0.006432346 0.018838862 0.045551106 -0.0205053
0.5341606 0.042348307 0.4682877 0.8365817 0.32055578 1.4771562 0.124591425 1.8849392
-0.083789386 1.9734555 -0.2671223 1.7186514 -0.38335285 1.1736197 -0.4139786 0.43488458
-0.39047405 -0.39504126 -0.34832144 -1.1673696 -0.25067177 -1.72861 -0.082456626 -1.9836386
0.11595613 -1.8939527 0.31335625 -1.4719201 0.4785723 -0.7816391 0.023153365 -0.01969048
-0.0310451 -0.038545657 0.009391047 0.013161331 0.091819316 0.077178314 -0.008222741 0.03687712
-0.04658123 0.019586122 -0.022343284 0.03001725 0.0031243805 0.016317107 0.050522827 -0.01783384
-0.01226122 0.019634046 0.0029859948 0.01674978 -0.0194969 -0.04107695 0.017476197 -0.024470778
-0.051123243 0.011460377 -0.013864286 -0.012608446 0.53426087 0.04202192 0.46850035 0.83753985
0.3209481 1.4794518 0.1250804 1.8877221 -0.083371796 1.9763037 -0.26689035 1.7214458
-0.38329208 1.175764 -0.4137522 0.43566585 -0.39023265 -0.39524367 -0.3486694 -1.1678826
-0.25136757 -1.7292764 -0.08322981 -1.9843745 0.115116075 -1.8947148 0.312541 -1.4726593
0.4782003 -0.78232074 0.013611004 -0.042789347 -0.0246737 -0.055397443 0.0021809102 -0.021405894
0.117844105 0.1158786 -0.014935996 0.03363338 -0.057672065 0.01932505 0.073443875 0.023034321
0.024187716 0.051337577 0.066203676 -0.009401736 -0.075331755 -0.040346492 0.044844493 -0.025223827
0.011042176 -0.05015593 -0.030736199 -0.030880578 -0.110314116 -0.025863841 0.0059821624 -0.008769713
0.53488195 0.04063958 0.47017738 0.83789176 0.3229904 1.4814438 0.12705493 1.8904158
-0.081469454 1.9791394 -0.2648431 1.7242105 -0.38106242 1.1778114 -0.4118773 0.4360898
00000000: eb9c 083f 057f 2d3d 2052 f03e 3206 563f
00000010: f3e3 a43e dcfc bc3f 09dc 003e af2f f13f
00000020: c847 a9bd b282 fc3f e81c 88be 3adf db3f
00000030: aba1 c3be 7318 963f f2dc d3be 6873 de3e
00000040: 57a6 c8be e3da c9be 902a b3be db36 95bf
00000050: 64e1 80be 4d07 ddbf 5c67 aabd 55ae fdbf
00000060: b7c2 eb3d d234 f2bf c3c4 9f3e 0735 bcbf
00000070: 4533 f43e 18de 47bf 0000 0000 0000 0000
00000080: 0000 0000 0000 0000 0000 0000 0000 0000
00000090: 0000 0000 0000 0000 0000 0000 0000 0000
000000a0: 0000 0000 0000 0000 0000 0000 0000 0000
000000b0: 0000 0000 0000 0000 0000 0000 0000 0000
000000c0: 0000 0000 0000 0000 0000 0000 0000 0000
000000d0: 0000 0000 0000 0000 0000 0000 0000 0000
000000e0: 0000 0000 0000 0000 0000 0000 0000 0000
000000f0: eb9c 083f 057f 2d3d 2052 f03e 3206 563f
00000100: f3e3 a43e dcfc bc3f 09dc 003e af2f f13f
00000110: c847 a9bd b282 fc3f e81c 88be 3adf db3f
00000120: aba1 c3be 7318 963f f2dc d3be 6873 de3e
00000130: 57a6 c8be e3da c9be 902a b3be db36 95bf
00000140: 64e1 80be 4d07 ddbf 5c67 aabd 55ae fdbf
00000150: b7c2 eb3d d234 f2bf c3c4 9f3e 0735 bcbf
00000160: 4533 f43e 18de 47bf a734 c53c 7432 1c3d
00000170: 6e71 64bd 30f9 a0bc faae 1bbd 472a 7fbc
00000180: 8896 bd3c 4cde 543c fe8c 45bb 68a0 79ba
00000190: 84d9 99bb 9644 f3bb 0605 e4bc 17cb 903d
000001a0: 1077 86bc ac63 223c 1a30 763d b3c6 67bd
000001b0: 6a07 6f3c 2948 9f3c 2cfa 203c 8d64 5bbd
000001c0: 2bbf 073c 4e87 debc fcd9 00bd ac8f abbc
000001d0: 6ec6 d23b f553 9a3c cc93 3a3d bbfa a7bc
000001e0: c0be 083f 6b75 2d3d 68c3 ef3e 382a 563f
000001f0: e31f a43e 7413 bd3f ca29 ff3d b045 f13f
00000200: c599 abbd 319a fc3f 41c4 88be c5fc db3f
00000210: d346 c4be 2c39 963f 01f5 d3be 31a9 de3e
00000220: 37ec c7be d942 cabe 3057 b2be 5e6c 95bf
00000230: 0d58 80be 1843 ddbf 05df a8bd dfe7 fdbf
00000240: 687a ed3d 0b6d f2bf 3b70 a03e e167 bcbf
00000250: 6e07 f53e 8019 48bf 20ac bd3c ee4d a1bc
00000260: 4b52 febc 0de2 1dbd e8dc 193c a0a2 573c
00000270: c40b bc3d aa0f 9e3d adb8 06bc 770c 173d
00000280: f6cb 3ebd 1373 a03c 4309 b7bc bce6 f53c
00000290: 68c2 4c3b 74ab 853c 06f1 4e3d 4618 92bc
000002a0: 49e3 48bc 94d7 a03c aeb0 433b d636 893c
000002b0: f6b7 9fbc 4e40 28bd 3e2a 8f3c f176 c8bc
000002c0: 9b66 51bd 4ec4 3b3c 0827 63bc a893 4ebc
000002d0: 52c5 083f 2d1f 2c3d 47df ef3e 0369 563f
000002e0: 4f53 a43e ad5e bd3f 1415 003e e1a0 f13f
000002f0: d5be aabd 85f7 fc3f daa5 88be 5658 dc3f
00000300: dc3e c4be 6f7f 963f 54d7 d3be 980f df3e
00000310: 93cc c7be 615d cabe cc84 b2be 2d7d 95bf
00000320: 40b3 80be ee58 ddbf 6474 aabd fcff fdbf
00000330: fac1 eb3d 0486 f2bf 6005 a03e 1a80 bcbf
00000340: abd6 f43e 2c46 48bf b000 5f3c e243 2fbd
00000350: 8020 cabc 6ee8 62bd 9aed 0e3b 6a5b afbc
00000360: 4058 f13d c251 ed3d 1cb6 74bc 28c3 093d
00000370: 8b39 6cbd 914f 9e3c be69 963d 79b2 bc3c
00000380: 5125 c63c 5a47 523d cb95 873d bd09 1abc
00000390: 8947 9abd 5d42 25bd dcae 373d 33a2 cebc
000003a0: 3eea 343c 4e70 4dbd 7bca fbbc 44f9 fcbc
000003b0: 5eec e1bd 68e0 d3bc 0406 c43b d8ae 0fbc
000003c0: 06ee 083f b075 263d 17bb f03e 1380 563f
000003d0: ff5e a53e f39f bd3f b01a 023e 25f9 f13f
000003e0: 75d9 a6bd 7154 fd3f 8499 87be eeb2 dc3f
000003f0: 9d1a c3be 86c2 963f 95e1 d2be 2a47 df3e

theta f4 [8701]
0.2 0.2 0.2 0.2 0.2 0.2 0.2 0.2
0.2 0.2 0.2 0.2 0.2 0.2 0.2 0.2
0.2 0.2 0.2 0.2 0.2 0.2 0.2 0.2
0.2 0.2 0.2 0.2 0.2 0.2 0.2 0.2
0.2 0.2 0.2 0.2 0.2 0.2 0.2 0.2
0.2 0.2 0.2 0.2 0.2 0.2 0.2 0.2
0.2 0.2 0.2 0.2 0.2 0.2 0.2 0.2
0.2 0.2 0.2 0.2 0.2 0.2 0.2 0.2
0.2 0.2 0.2 0.2 0.2 0.2 0.2 0.2
0.2 0.2 0.2 0.2 0.2 0.2 0.2 0.2
0.2 0.2 0.2 0.2 0.2 0.2 0.2 0.2
0.2 0.2 0.2 0.2 0.2 0.2 0.2 0.2
0.2 0.2 0.2 0.2 0.2 0.2 0.2 0.2
0.2 0.2 0.2 0.2 0.2 0.2 0.2 0.2
0.2 0.2 0.2 0.2 0.2 0.2 0.2 0.2
0.2 0.2 0.2 0.2 0.2 0.2 0.2 0.2
0.2 0.2 0.2 0.2 0.2 0.2 0.2 0.2
0.2 0.2 0.2 0.2 0.2 0.2 0.2 0.2
0.2 0.2 0.2 0.2 0.2 0.2 0.2 0.2
0.2 0.2 0.2 0.2 0.2 0.2 0.2 0.2
0.2 0.2 0.2 0.2 0.2 0.2 0.2 0.2
0.2 0.2 0.2 0.2 0.2 0.2 0.2 0.2
0.2 0.2 0.2 0.2 0.2 0.2 0.2 0.2
0.2 0.2 0.2 0.2 0.2 0.2 0.2 0.2
0.2 0.2 0.2 0.2 0.2 0.2 0.2 0.2
0.2 0.2 0.2 0.2 0.2 0.2 0.2 0.2
0.2 0.2 0.2 0.2 0.2 0.2 0.2 0.2
0.2 0.2 0.2 0.2 0.2 0.2 0.2 0.2
0.2 0.2 0.2 0.2 0.2 0.2 0.2 0.2
0.2 0.2 0.2 0.2 0.2 0.2 0.2 0.2
0.2 0.2 0.2 0.2 0.2 0.2 0.2 0.2
0.2 0.2 0.2 0.2 0.2 0.2 0.2 0.2
00000000: cdcc 4c3e cdcc 4c3e cdcc 4c3e cdcc 4c3e
00000010: cdcc 4c3e cdcc 4c3e cdcc 4c3e cdcc 4c3e
00000020: cdcc 4c3e cdcc 4c3e cdcc 4c3e cdcc 4c3e
00000030: cdcc 4c3e cdcc 4c3e cdcc 4c3e cdcc 4c3e
00000040: cdcc 4c3e cdcc 4c3e cdcc 4c3e cdcc 4c3e
00000050: cdcc 4c3e cdcc 4c3e cdcc 4c3e cdcc 4c3e
00000060: cdcc 4c3e cdcc 4c3e cdcc 4c3e cdcc 4c3e
00000070: cdcc 4c3e cdcc 4c3e cdcc 4c3e cdcc 4c3e
00000080: cdcc 4c3e cdcc 4c3e cdcc 4c3e cdcc 4c3e
00000090: cdcc 4c3e cdcc 4c3e cdcc 4c3e cdcc 4c3e
000000a0: cdcc 4c3e cdcc 4c3e cdcc 4c3e cdcc 4c3e
000000b0: cdcc 4c3e cdcc 4c3e cdcc 4c3e cdcc 4c3e
000000c0: cdcc 4c3e cdcc 4c3e cdcc 4c3e cdcc 4c3e
000000d0: cdcc 4c3e cdcc 4c3e cdcc 4c3e cdcc 4c3e
000000e0: cdcc 4c3e cdcc 4c3e cdcc 4c3e cdcc 4c3e
000000f0: cdcc 4c3e cdcc 4c3e cdcc 4c3e cdcc 4c3e
00000100: cdcc 4c3e cdcc 4c3e cdcc 4c3e cdcc 4c3e
00000110: cdcc 4c3e cdcc 4c3e cdcc 4c3e cdcc 4c3e
00000120: cdcc 4c3e cdcc 4c3e cdcc 4c3e cdcc 4c3e
00000130: cdcc 4c3e cdcc 4c3e cdcc 4c3e cdcc 4c3e
00000140: cdcc 4c3e cdcc 4c3e cdcc 4c3e cdcc 4c3e
00000150: cdcc 4c3e cdcc 4c3e cdcc 4c3e cdcc 4c3e
00000160: cdcc 4c3e cdcc 4c3e cdcc 4c3e cdcc 4c3e
00000170: cdcc 4c3e cdcc 4c3e cdcc 4c3e cdcc 4c3e
00000180: cdcc 4c3e cdcc 4c3e cdcc 4c3e cdcc 4c3e
00000190: cdcc 4c3e cdcc 4c3e cdcc 4c3e cdcc 4c3e
000001a0: cdcc 4c3e cdcc 4c3e cdcc 4c3e cdcc 4c3e
000001b0: cdcc 4c3e cdcc 4c3e cdcc 4c3e cdcc 4c3e
000001c0: cdcc 4c3e cdcc 4c3e cdcc 4c3e cdcc 4c3e
000001d0: cdcc 4c3e cdcc 4c3e cdcc 4c3e cdcc 4c3e
000001e0: cdcc 4c3e cdcc 4c3e cdcc 4c3e cdcc 4c3e
000001f0: cdcc 4c3e cdcc 4c3e cdcc 4c3e cdcc 4c3e
00000200: cdcc 4c3e cdcc 4c3e cdcc 4c3e cdcc 4c3e
00000210: cdcc 4c3e cdcc 4c3e cdcc 4c3e cdcc 4c3e
00000220: cdcc 4c3e cdcc 4c3e cdcc 4c3e cdcc 4c3e
00000230: cdcc 4c3e cdcc 4c3e cdcc 4c3e cdcc 4c3e
00000240: cdcc 4c3e cdcc 4c3e cdcc 4c3e cdcc 4c3e
00000250: cdcc 4c3e cdcc 4c3e cdcc 4c3e cdcc 4c3e
00000260: cdcc 4c3e cdcc 4c3e cdcc 4c3e cdcc 4c3e
00000270: cdcc 4c3e cdcc 4c3e cdcc 4c3e cdcc 4c3e
00000280: cdcc 4c3e cdcc 4c3e cdcc 4c3e cdcc 4c3e
00000290: cdcc 4c3e cdcc 4c3e cdcc 4c3e cdcc 4c3e
000002a0: cdcc 4c3e cdcc 4c3e cdcc 4c3e cdcc 4c3e
000002b0: cdcc 4c3e cdcc 4c3e cdcc 4c3e cdcc 4c3e
000002c0: cdcc 4c3e cdcc 4c3e cdcc 4c3e cdcc 4c3e
000002d0: cdcc 4c3e cdcc 4c3e cdcc 4c3e cdcc 4c3e
000002e0: cdcc 4c3e cdcc 4c3e cdcc 4c3e cdcc 4c3e
000002f0: cdcc 4c3e cdcc 4c3e cdcc 4c3e cdcc 4c3e
00000300: cdcc 4c3e cdcc 4c3e cdcc 4c3e cdcc 4c3e
00000310: cdcc 4c3e cdcc 4c3e cdcc 4c3e cdcc 4c3e
00000320: cdcc 4c3e cdcc 4c3e cdcc 4c3e cdcc 4c3e
00000330: cdcc 4c3e cdcc 4c3e cdcc 4c3e cdcc 4c3e
00000340: cdcc 4c3e cdcc 4c3e cdcc 4c3e cdcc 4c3e
00000350: cdcc 4c3e cdcc 4c3e cdcc 4c3e cdcc 4c3e
00000360: cdcc 4c3e cdcc 4c3e cdcc 4c3e cdcc 4c3e
00000370: cdcc 4c3e cdcc 4c3e cdcc 4c3e cdcc 4c3e
00000380: cdcc 4c3e cdcc 4c3e cdcc 4c3e cdcc 4c3e
00000390: cdcc 4c3e cdcc 4c3e cdcc 4c3e cdcc 4c3e
000003a0: cdcc 4c3e cdcc 4c3e cdcc 4c3e cdcc 4c3e
000003b0: cdcc 4c3e cdcc 4c3e cdcc 4c3e cdcc 4c3e
000003c0: cdcc 4c3e cdcc 4c3e cdcc 4c3e cdcc 4c3e
000003d0: cdcc 4c3e cdcc 4c3e cdcc 4c3e cdcc 4c3e
000003e0: cdcc 4c3e cdcc 4c3e cdcc 4c3e cdcc 4c3e
000003f0: cdcc 4c3e cdcc 4c3e cdcc 4c3e cdcc 4c3e
