main/template_estimation/ellipse_models/tv_theta_iter_1300.npz (npz, 187740 bytes, 3 tensors)

Wt f4 [5, 101, 30]
0	0x00000000	0.0
1	0x00000000	0.0
2	0x00000000	0.0
3	0x00000000	0.0
4	0x00000000	0.0
5	0x00000000	0.0
6	0x00000000	0.0
7	0x00000000	0.0
8	0x00000000	0.0
9	0x00000000	0.0
10	0x00000000	0.0
11	0x00000000	0.0
12	0x00000000	0.0
13	0x00000000	0.0
14	0x00000000	0.0
15	0x00000000	0.0
16	0x00000000	0.0
17	0x00000000	0.0
18	0x00000000	0.0
19	0x00000000	0.0
20	0x00000000	0.0
21	0x00000000	0.0
22	0x00000000	0.0
23	0x00000000	0.0
24	0x00000000	0.0
25	0x00000000	0.0
26	0x00000000	0.0
27	0x00000000	0.0
28	0x00000000	0.0
29	0x00000000	0.0
30	0xbe03103c	-0.12799162
31	0xbd8077dc	-0.06272861
32	0x3e43e4c0	0.1913023
33	0xbc160676	-0.009156814
34	0xbcf3c5ca	-0.0297574
35	0x3da648ba	0.0811934
36	0x3d1b195a	0.037865974
37	0x3bdc13c0	0.0067162216
38	0x3c51e675	0.012811293
39	0x3e2f1a5c	0.17099899
40	0xbdb867a1	-0.09004141
41	0xbe8940c9	-0.2680724
42	0x3da32317	0.07965677
43	0xbdb30ade	-0.08742307
44	0x3d3dd25c	0.046343192
45	0x3e953725	0.29143634
46	0xbecbac0d	-0.39779702
47	0x3da0396e	0.07823454
48	0xbcb5b08c	-0.02217891
49	0xbd098c9a	-0.033581354
50	0xbd9117fb	-0.07084652
51	0x3deb6a95	0.11494938
52	0x3df9f7fb	0.12205502
53	0xbdb2790b	-0.08714493
54	0x3cb60ede	0.022223886
55	0xbd858729	-0.065199204
56	0xbe2b13eb	-0.16706817
57	0x3d3a58a5	0.045494694
58	0xbc3aa031	-0.011390732
59	0x3dd8ec5c	0.10591957
60	0xbd6406da	-0.055670597
61	0xbe055128	-0.1301924
62	0x3e7cdaf2	0.24692896
63	0xbc4728d4	-0.01215573
64	0xbe63909c	-0.22223133
65	0x3ce4c145	0.02792419
66	0x3d80c1c6	0.06286959
67	0x3d461a90	0.048365176
68	0xbd45f5c4	-0.048330083
69	0x3d05fd09	0.032712016
70	0xbc336470	-0.010949239
71	0xbee8aa37	-0.45442364
72	0xbc145892	-0.00905432
73	0xbe12c202	-0.1433182
74	0xbd8a9474	-0.067665964
75	0x3e630693	0.22170477
76	0xbefba93e	-0.4915256
77	0x3e5d82e6	0.21631965
78	0x3e29260c	0.1651842
79	0xbd3fc29f	-0.046816465
80	0x3cab0054	0.02087418
81	0xbc5f51a8	-0.013630308
82	0x3e52e5b9	0.20595445
83	0xbdfd86e4	-0.12379244
84	0xbe1e0a50	-0.15433621
85	0xbdddb9f8	-0.10826486
86	0xbe96f65a	-0.29484826
87	0x3e057096	0.1303123
88	0x3cc8f994	0.02453307
89	0x3d2f4e94	0.042799547
90	0xbc453116	-0.012035629
91	0xbdcc51fa	-0.09976573
92	0x3e55c0d4	0.2087434
93	0xbc64cfc6	-0.013965553
94	0xbe66c403	-0.2253571
95	0xbde147e4	-0.1100004
96	0x3d6de8ed	0.058083463
97	0x3e78bb44	0.24290186
98	0xbe531e7c	-0.20617098
99	0xbe10d6c0	-0.1414442
100	0x3e1aa6fa	0.15102759
101	0xbee68374	-0.45022166
102	0xbe76d658	-0.24105203
103	0xbea4c226	-0.32179374
104	0xbd248824	-0.040168896
105	0x3e711d3f	0.23546313
106	0xbe80ecd1	-0.25180677
107	0x3e54b2e4	0.20771366
108	0x3e8abc8d	0.27096978
109	0xbd7a6296	-0.061129175
110	0x3d30b1aa	0.043138184
111	0x3d241318	0.04005727
112	0x3f0885f9	0.53329426
113	0xbdc31edb	-0.095273696
114	0xbe6106d0	-0.21975255
115	0xbdbb0ed4	-0.091336876
116	0xbe99c070	-0.3002963
117	0x3e805bf4	0.25070155
118	0x3e012507	0.12611781
119	0x3e4faee8	0.20281565
120	0xbd1a6905	-0.03769781
121	0xbe33ee0f	-0.17571281
122	0xbd2ab52a	-0.041676678
123	0xbd606796	-0.054786287
124	0xbeb93b18	-0.36177897
125	0xbd1df33a	-0.038562037
126	0x3e110f51	0.14165999
127	0x3e62b2a2	0.22138456
128	0x3c87ef3c	0.016593568
129	0xbe3a3a7b	-0.18186371
130	0x3e59eaa9	0.21280922
131	0xbf0fe2f3	-0.5620567
132	0xbe4415d6	-0.19148955
133	0xbe878873	-0.2647129
134	0xbe431311	-0.19050242
135	0x3cd83214	0.026391067
136	0xbe0f71ca	-0.14008251
137	0x3e3f337c	0.18671983
138	0x3f02046c	0.50788
139	0xbe8b0bb2	-0.2715736
140	0xbdad2852	-0.08454956
141	0x3ebb48cf	0.36578986
142	0x3efb2126	0.49048728
143	0xbe0e4083	-0.13891797
144	0xbe6936d8	-0.22774827
145	0x3d8772cb	0.06613692
146	0xbeb98c63	-0.3623992
147	0x3ee29f0e	0.44261974
148	0x3d6ae16c	0.057343885
149	0x3e33bc8a	0.1755239
150	0x3e32b991	0.174536
151	0xbd1207bc	-0.035651907
152	0x3ad7a500	0.0016452372
153	0xbd8fe7c0	-0.07026625
154	0xbe8e9c81	-0.27853778
155	0x3dc415f1	0.095744975
156	0x3de10540	0.109873295
157	0x3e49757c	0.19673723
158	0xbd806a3c	-0.062702626
159	0xbdba34ab	-0.09092077
160	0x3e643e72	0.22289446
161	0xbf10efcc	-0.566159
162	0xbe1c0d22	-0.15239385
163	0xbf003d36	-0.500934
164	0xbe6685bb	-0.22511952
165	0x3ea06acf	0.31331488
166	0xbeaa7250	-0.3329034
167	0xbdc878fd	-0.09788702
168	0x3f232f15	0.63743716
169	0xbea3ca09	-0.31990078
170	0x3e3bd66a	0.18343511
171	0x3eea1fd8	0.4572742
172	0x3ebe214c	0.37134778
173	0xbe7aa208	-0.24475873
174	0xbea08a12	-0.3135534
175	0x3e2fb478	0.17158687
176	0xbf1674f8	-0.5877223
177	0x3edff055	0.43738046
178	0x3e7019e7	0.23447381
179	0xbd83ccdc	-0.06435558
180	0x3ed263f2	0.41091877
181	0xbe1df7ae	-0.15426514
182	0xbdef9c0e	-0.11699687
183	0xbe9fe422	-0.3122874
184	0xbe3ec4eb	-0.18629806
185	0x3d8abb97	0.06774061
186	0x3c9f1a7d	0.01942181
187	0x3e45dc30	0.19322276
188	0x3ce063c0	0.027391315
189	0xbe2ccce9	-0.16875042
190	0x3e38308e	0.17987272
191	0xbf3dfda3	-0.74215144
192	0xbe94c043	-0.29052934
193	0xbf108404	-0.5645144
194	0xbe06b636	-0.13155445
195	0x3ec5ead2	0.38655716
196	0xbe3d19be	-0.18466851
197	0xbe8002e8	-0.25002217
198	0x3effc359	0.49953726
199	0xbe301d18	-0.17198598
200	0x3c15ffb4	0.009155203
201	0x3eda9e24	0.42698777
202	0x3e574bff	0.21025084
203	0xbd389802	-0.04506684
204	0xbe849f92	-0.25902992
205	0x3e295046	0.16534528
206	0xbf6a961d	-0.91635305
207	0x3eac26fd	0.33623496
208	0x3d2d1910	0.04226023
209	0xbd96d14e	-0.073641405
210	0x3f1081d9	0.5644813
211	0xbe029e19	-0.12755622
212	0xbe8979e2	-0.26850802
213	0xbec2ce52	-0.38048035
214	0xbec61d8f	-0.38694426
215	0x3e0d439f	0.13795327
216	0x3dd2dbbf	0.102958195
217	0x3d65f77e	0.05614423
218	0x3cb26668	0.021777347
219	0xbd8851da	-0.06656237
220	0x3d7f04aa	0.062260307
221	0xbf302d90	-0.6881952
222	0xbec4ae02	-0.38414007
223	0xbeb0aa9f	-0.34505174
224	0xbdfd207a	-0.1235971
225	0x3ed34d22	0.41269785
226	0xbe900f6e	-0.28136772
227	0xbec70f46	-0.3887884
228	0x3f43d692	0.76499283
229	0xbe2dbe33	-0.16967086
230	0xbd8d7f39	-0.069090314
231	0x3efba68b	0.491505
232	0x3cbe83b8	0.023256168
233	0xbe0e646e	-0.13905498
234	0xbdee3dbd	-0.116328694
235	0x3e96f65a	0.29484826
236	0xbf6a1e31	-0.9145232
237	0x3ea39de1	0.3195639
238	0x3db42012	0.087951794
239	0xbe52ddc2	-0.20592406
240	0x3f2c948c	0.67414165
241	0x3dd26403	0.10272982
242	0xbed8ba43	-0.42329606
243	0xbf2145ee	-0.6299733
244	0xbe5f1e96	-0.21789011
245	0x3e88fb48	0.26754212
246	0xbd04604d	-0.032318402
247	0xbbb1d178	-0.005426582
248	0xbb7fc1c0	-0.0039025396
249	0xbd8d8866	-0.069107816
250	0x3ce13e61	0.027495565
251	0xbf20ec7f	-0.62860864
252	0xbe9cb3ca	-0.30605918
253	0xbde98554	-0.114023834
254	0xbe66681b	-0.2250065
255	0x3f178a69	0.5919557

Xt f4 [5, 101, 60]
0	0x3f1b6510	0.60701084
1	0x3d307941	0.043084387
2	0x3f018b29	0.50602967
3	0x3f4fd010	0.81176853
4	0x3ea31eea	0.31859523
5	0x3fb69d5a	1.426677
6	0x3dd305ed	0.10303865
7	0x3fe9ceaa	1.8266194
8	0xbddd7fe8	-0.10815412
9	0x3ff5225f	1.9151114
10	0xbe8ffaf3	-0.28121147
11	0x3fd44b80	1.6585541
12	0xbebbbb93	-0.36666545
13	0x3f90370b	1.1266798
14	0xbeb84a7b	-0.35994324
15	0x3ed47067	0.41492006
16	0xbea7aac0	-0.3274746
17	0xbec54c7d	-0.38534918
18	0xbe987089	-0.29773358
19	0xbf940e33	-1.1566833
20	0xbe63d795	-0.22250207
21	0xbfdd6cdd	-1.7298847
22	0xbd8b3b39	-0.06798405
23	0xbffe702a	-1.987798
24	0x3e07e5a7	0.13271199
25	0xbff2c58d	-1.8966538
26	0x3eb2ccd7	0.34921905
27	0xbfbbf9bf	-1.4685591
28	0x3f0c1fd8	0.5473609
29	0xbf43d4b9	-0.76496464
30	0x00000000	0.0
31	0x00000000	0.0
32	0x00000000	0.0
33	0x00000000	0.0
34	0x00000000	0.0
35	0x00000000	0.0
36	0x00000000	0.0
37	0x00000000	0.0
38	0x00000000	0.0
39	0x00000000	0.0
40	0x00000000	0.0
41	0x00000000	0.0
42	0x00000000	0.0
43	0x00000000	0.0
44	0x00000000	0.0
45	0x00000000	0.0
46	0x00000000	0.0
47	0x00000000	0.0
48	0x00000000	0.0
49	0x00000000	0.0
50	0x00000000	0.0
51	0x00000000	0.0
52	0x00000000	0.0
53	0x00000000	0.0
54	0x00000000	0.0
55	0x00000000	0.0
56	0x00000000	0.0
57	0x00000000	0.0
58	0x00000000	0.0
59	0x00000000	0.0
60	0x3f1b6510	0.60701084
61	0x3d307941	0.043084387
62	0x3f018b29	0.50602967
63	0x3f4fd010	0.81176853
64	0x3ea31eea	0.31859523
65	0x3fb69d5a	1.426677
66	0x3dd305ed	0.10303865
67	0x3fe9ceaa	1.8266194
68	0xbddd7fe8	-0.10815412
69	0x3ff5225f	1.9151114
70	0xbe8ffaf3	-0.28121147
71	0x3fd44b80	1.6585541
72	0xbebbbb93	-0.36666545
73	0x3f90370b	1.1266798
74	0xbeb84a7b	-0.35994324
75	0x3ed47067	0.41492006
76	0xbea7aac0	-0.3274746
77	0xbec54c7d	-0.38534918
78	0xbe987089	-0.29773358
79	0xbf940e33	-1.1566833
80	0xbe63d795	-0.22250207
81	0xbfdd6cdd	-1.7298847
82	0xbd8b3b39	-0.06798405
83	0xbffe702a	-1.987798
84	0x3e07e5a7	0.13271199
85	0xbff2c58d	-1.8966538
86	0x3eb2ccd7	0.34921905
87	0xbfbbf9bf	-1.4685591
88	0x3f0c1fd8	0.5473609
89	0xbf43d4b9	-0.76496464
90	0xbd1c6d2e	-0.03819006
91	0xbb35b848	-0.0027728248
92	0x3d61cfaa	0.055129685
93	0xbc4f58ac	-0.012655418
94	0xbc8603f8	-0.016359314
95	0x3cb31fd6	0.021865766
96	0x3b01839a	0.0019762279
97	0xba26e0d6	-0.00063659006
98	0x3c00d0f2	0.007862316
99	0x3d0bafde	0.034103267
100	0xbbcf25a8	-0.0063216276
101	0xbd811416	-0.06302659
102	0x3d0540b9	0.032532427
103	0xbcc33ba4	-0.02383215
104	0x3bc2d23b	0.0059454716
105	0x3d8f075c	0.069838256
106	0xbdc3e743	-0.09565594
107	0x3c81f485	0.015863666
108	0xbcb9b173	-0.022667622
109	0xbcb1947c	-0.021677248
110	0xbca2b707	-0.019862665
111	0x3d1041fe	0.035219185
112	0x3cdec136	0.02719174
113	0xbd13fb0c	-0.03612809
114	0xbbd57865	-0.0065145963
115	0xbcd713f5	-0.026254633
116	0xbd34f2d2	-0.044176884
117	0x3ce8b35e	0.028405841
118	0xbc3d7210	-0.011562839
119	0x3c86f5c5	0.016474614
120	0x3f1b040b	0.60553044
121	0x3d33e46a	0.043919004
122	0x3f018817	0.5059828
123	0x3f4fefbe	0.8122519
124	0x3ea365a4	0.31913483
125	0x3fb6a0cd	1.4267823
126	0x3dd43199	0.103610225
127	0x3fe9cb98	1.8265257
128	0xbddc5f90	-0.107604146
129	0x3ff51ce0	1.9149437
130	0xbe8fb08b	-0.2806438
131	0x3fd4475a	1.6584275
132	0xbebb971c	-0.36638725
133	0x3f903f75	1.1269366
134	0xbeb8cc33	-0.36093292
135	0x3ed4ec47	0.41586515
136	0xbea9033f	-0.3301029
137	0xbec4beff	-0.38426968
138	0xbe99dc46	-0.30050868
139	0xbf93fdc5	-1.1561819
140	0xbe65e749	-0.2245151
141	0xbfdd6c20	-1.7298622
142	0xbd8e8775	-0.0695943
143	0xbffe7460	-1.9879265
144	0x3e0615e1	0.13094284
145	0xbff2c74d	-1.8967072
146	0x3eb19835	0.34686437
147	0xbfbbf044	-1.4682698
148	0x3f0b77ee	0.54479873
149	0xbf43a278	-0.7641978
150	0xbcbed0ea	-0.023292977
151	0xbbc8f628	-0.0061328597
152	0x3d95f66e	0.07322393
153	0xbcbfc8ff	-0.023411272
154	0xbd9a2208	-0.07526022
155	0x3c08423f	0.008316576
156	0x3a5a1190	0.0008318657
157	0x3bc8c242	0.006126673
158	0xbb578b40	-0.0032889396
159	0xbc43f9b2	-0.0119613875
160	0x3d00d069	0.031448755
161	0xbdd19cdc	-0.10234997
162	0x3ca3b54d	0.019983912
163	0xbd19984f	-0.03749877
164	0xbcf2edb9	-0.02965437
165	0x3d2b115a	0.041764595
166	0xbddc669a	-0.10761757
167	0x3d3e4cff	0.046460148
168	0x3c32c1ac	0.010910433
169	0xbd1a0e66	-0.037611388
170	0x3adf45f0	0.0017034393
171	0x3bcb0228	0.0061953254
172	0x3d33028a	0.043703593
173	0xbd6d7734	-0.05797501
174	0xbd82c994	-0.06386104
175	0xbd39609a	-0.045258142
176	0xbd9cc465	-0.07654647
177	0x3d865e2d	0.06560931
178	0xbc1e88cd	-0.009676171
179	0xbc43ff50	-0.011962727
180	0x3f1a891b	0.60365456
181	0x3d32e426	0.04367461
182	0x3f01539d	0.5051821
183	0x3f4fa083	0.81104296
184	0x3ea336bb	0.31877694
185	0x3fb65ef8	1.4247732
186	0x3dd3c9be	0.10341214
187	0x3fe9820c	1.8242812
188	0xbddca319	-0.10773296
189	0x3ff4d0eb	1.9126257
190	0xbe8fc821	-0.28082374
191	0x3fd3f8db	1.656032
192	0xbebbe85e	-0.3670072
193	0x3f900166	1.1250427
194	0xbeb9b9ef	-0.3627467
195	0x3ed4a388	0.41531014
196	0xbeaa94e2	-0.33316714
197	0xbec4a82f	-0.38409564
198	0xbe9b6a2e	-0.30354446
199	0xbf940c82	-1.1566317
200	0xbe6852e2	-0.22687867
201	0xbfdd8edb	-1.7309221
202	0xbd92c3df	-0.07166266
203	0xbffe9b5e	-1.9891164
204	0x3e03b508	0.12862027
205	0xbff2eabf	-1.8977889
206	0x3eb01983	0.34394464
207	0xbfbc0598	-1.4689207
208	0x3f0ab6b3	0.54185027
209	0xbf43a658	-0.76425695
210	0xbc8c1296	-0.017098706
211	0x3c866092	0.01640347
212	0x3d88d697	0.06681555
213	0xbd0932f9	-0.033495877
214	0xbdaa1ba4	-0.08306053
215	0xbcdc7aaa	-0.02691396
216	0xbbdca54d	-0.0067335726
217	0x3d5a1d30	0.05325049
218	0xbd23b8e3	-0.039971244
219	0xbd85e2fa	-0.06537433
220	0x3db7e636	0.08979456
221	0xbdb98c38	-0.09059948
222	0xbcedfbab	-0.029050669
223	0xbda631f3	-0.08114996
224	0xbcd82103	-0.026382929
225	0x3d148888	0.03626302
226	0xbd062bc6	-0.03275659
227	0x3d192d16	0.037396513
228	0x3cb06351	0.021531733
229	0xbd5ad05e	-0.05342137
230	0x3b47b01b	0.0030469957
231	0x3cd645e4	0.026156373
232	0x3dfc5804	0.12321475
233	0xbd7b769d	-0.061392415
234	0xbdb8c6cc	-0.090222925
235	0xbd476c92	-0.048687525
236	0xbd99f4f8	-0.07517427
237	0x3de24d3d	0.11049888
238	0x3c118d1c	0.008883741
239	0x3c97320a	0.018456478
240	0x3f1a5383	0.6028368
241	0x3d3308de	0.04370963
242	0x3f012526	0.5044731
243	0x3f4f2193	0.80910605
244	0x3ea2d1fb	0.31800827
245	0x3fb5f7a3	1.4216198
246	0x3dd25c4a	0.10271509
247	0x3fe91399	1.8209106
248	0xbddde12f	-0.10833966
249	0x3ff46072	1.9091933
250	0xbe9018f9	-0.28144053
251	0x3fd3817c	1.652389
252	0xbebc4d6a	-0.36777812
253	0x3f8f9988	1.1218729
254	0xbeba3f43	-0.3637639
255	0x3ed3f933	0.4140106

theta f4 [1301]
0	0x3e4ccccd	0.2
1	0x3e4ccccd	0.2
2	0x3e4ccccd	0.2
3	0x3e4ccccd	0.2
4	0x3e4ccccd	0.2
5	0x3e4ccccd	0.2
6	0x3e4ccccd	0.2
7	0x3e4ccccd	0.2
8	0x3e4ccccd	0.2
9	0x3e4ccccd	0.2
10	0x3e4ccccd	0.2
11	0x3e4ccccd	0.2
12	0x3e4ccccd	0.2
13	0x3e4ccccd	0.2
14	0x3e4ccccd	0.2
15	0x3e4ccccd	0.2
16	0x3e4ccccd	0.2
17	0x3e4ccccd	0.2
18	0x3e4ccccd	0.2
19	0x3e4ccccd	0.2
20	0x3e4ccccd	0.2
21	0x3e4ccccd	0.2
22	0x3e4ccccd	0.2
23	0x3e4ccccd	0.2
24	0x3e4ccccd	0.2
25	0x3e4ccccd	0.2
26	0x3e4ccccd	0.2
27	0x3e4ccccd	0.2
28	0x3e4ccccd	0.2
29	0x3e4ccccd	0.2
30	0x3e4ccccd	0.2
31	0x3e4ccccd	0.2
32	0x3e4ccccd	0.2
33	0x3e4ccccd	0.2
34	0x3e4ccccd	0.2
35	0x3e4ccccd	0.2
36	0x3e4ccccd	0.2
37	0x3e4ccccd	0.2
38	0x3e4ccccd	0.2
39	0x3e4ccccd	0.2
40	0x3e4ccccd	0.2
41	0x3e4ccccd	0.2
42	0x3e4ccccd	0.2
43	0x3e4ccccd	0.2
44	0x3e4ccccd	0.2
45	0x3e4ccccd	0.2
46	0x3e4ccccd	0.2
47	0x3e4ccccd	0.2
48	0x3e4ccccd	0.2
49	0x3e4ccccd	0.2
50	0x3e4ccccd	0.2
51	0x3e4ccccd	0.2
52	0x3e4ccccd	0.2
53	0x3e4ccccd	0.2
54	0x3e4ccccd	0.2
55	0x3e4ccccd	0.2
56	0x3e4ccccd	0.2
57	0x3e4ccccd	0.2
58	0x3e4ccccd	0.2
59	0x3e4ccccd	0.2
60	0x3e4ccccd	0.2
61	0x3e4ccccd	0.2
62	0x3e4ccccd	0.2
63	0x3e4ccccd	0.2
64	0x3e4ccccd	0.2
65	0x3e4ccccd	0.2
66	0x3e4ccccd	0.2
67	0x3e4ccccd	0.2
68	0x3e4ccccd	0.2
69	0x3e4ccccd	0.2
70	0x3e4ccccd	0.2
71	0x3e4ccccd	0.2
72	0x3e4ccccd	0.2
73	0x3e4ccccd	0.2
74	0x3e4ccccd	0.2
75	0x3e4ccccd	0.2
76	0x3e4ccccd	0.2
77	0x3e4ccccd	0.2
78	0x3e4ccccd	0.2
79	0x3e4ccccd	0.2
80	0x3e4ccccd	0.2
81	0x3e4ccccd	0.2
82	0x3e4ccccd	0.2
83	0x3e4ccccd	0.2
84	0x3e4ccccd	0.2
85	0x3e4ccccd	0.2
86	0x3e4ccccd	0.2
87	0x3e4ccccd	0.2
88	0x3e4ccccd	0.2
89	0x3e4ccccd	0.2
90	0x3e4ccccd	0.2
91	0x3e4ccccd	0.2
92	0x3e4ccccd	0.2
93	0x3e4ccccd	0.2
94	0x3e4ccccd	0.2
95	0x3e4ccccd	0.2
96	0x3e4ccccd	0.2
97	0x3e4ccccd	0.2
98	0x3e4ccccd	0.2
99	0x3e4ccccd	0.2
100	0x3e4ccccd	0.2
101	0x3e4ccccd	0.2
102	0x3e4ccccd	0.2
103	0x3e4ccccd	0.2
104	0x3e4ccccd	0.2
105	0x3e4ccccd	0.2
106	0x3e4ccccd	0.2
107	0x3e4ccccd	0.2
108	0x3e4ccccd	0.2
109	0x3e4ccccd	0.2
110	0x3e4ccccd	0.2
111	0x3e4ccccd	0.2
112	0x3e4ccccd	0.2
113	0x3e4ccccd	0.2
114	0x3e4ccccd	0.2
115	0x3e4ccccd	0.2
116	0x3e4ccccd	0.2
117	0x3e4ccccd	0.2
118	0x3e4ccccd	0.2
119	0x3e4ccccd	0.2
120	0x3e4ccccd	0.2
121	0x3e4ccccd	0.2
122	0x3e4ccccd	0.2
123	0x3e4ccccd	0.2
124	0x3e4ccccd	0.2
125	0x3e4ccccd	0.2
126	0x3e4ccccd	0.2
127	0x3e4ccccd	0.2
128	0x3e4ccccd	0.2
129	0x3e4ccccd	0.2
130	0x3e4ccccd	0.2
131	0x3e4ccccd	0.2
132	0x3e4ccccd	0.2
133	0x3e4ccccd	0.2
134	0x3e4ccccd	0.2
135	0x3e4ccccd	0.2
136	0x3e4ccccd	0.2
137	0x3e4ccccd	0.2
138	0x3e4ccccd	0.2
139	0x3e4ccccd	0.2
140	0x3e4ccccd	0.2
141	0x3e4ccccd	0.2
142	0x3e4ccccd	0.2
143	0x3e4ccccd	0.2
144	0x3e4ccccd	0.2
145	0x3e4ccccd	0.2
146	0x3e4ccccd	0.2
147	0x3e4ccccd	0.2
148	0x3e4ccccd	0.2
149	0x3e4ccccd	0.2
150	0x3e4ccccd	0.2
151	0x3e4ccccd	0.2
152	0x3e4ccccd	0.2
153	0x3e4ccccd	0.2
154	0x3e4ccccd	0.2
155	0x3e4ccccd	0.2
156	0x3e4ccccd	0.2
157	0x3e4ccccd	0.2
158	0x3e4ccccd	0.2
159	0x3e4ccccd	0.2
160	0x3e4ccccd	0.2
161	0x3e4ccccd	0.2
162	0x3e4ccccd	0.2
163	0x3e4ccccd	0.2
164	0x3e4ccccd	0.2
165	0x3e4ccccd	0.2
166	0x3e4ccccd	0.2
167	0x3e4ccccd	0.2
168	0x3e4ccccd	0.2
169	0x3e4ccccd	0.2
170	0x3e4ccccd	0.2
171	0x3e4ccccd	0.2
172	0x3e4ccccd	0.2
173	0x3e4ccccd	0.2
174	0x3e4ccccd	0.2
175	0x3e4ccccd	0.2
176	0x3e4ccccd	0.2
177	0x3e4ccccd	0.2
178	0x3e4ccccd	0.2
179	0x3e4ccccd	0.2
180	0x3e4ccccd	0.2
181	0x3e4ccccd	0.2
182	0x3e4ccccd	0.2
183	0x3e4ccccd	0.2
184	0x3e4ccccd	0.2
185	0x3e4ccccd	0.2
186	0x3e4ccccd	0.2
187	0x3e4ccccd	0.2
188	0x3e4ccccd	0.2
189	0x3e4ccccd	0.2
190	0x3e4ccccd	0.2
191	0x3e4ccccd	0.2
192	0x3e4ccccd	0.2
193	0x3e4ccccd	0.2
194	0x3e4ccccd	0.2
195	0x3e4ccccd	0.2
196	0x3e4ccccd	0.2
197	0x3e4ccccd	0.2
198	0x3e4ccccd	0.2
199	0x3e4ccccd	0.2
200	0x3e4ccccd	0.2
201	0x3e4ccccd	0.2
202	0x3e4ccccd	0.2
203	0x3e4ccccd	0.2
204	0x3e4ccccd	0.2
205	0x3e4ccccd	0.2
206	0x3e4ccccd	0.2
207	0x3e4ccccd	0.2
208	0x3e4ccccd	0.2
209	0x3e4ccccd	0.2
210	0x3e4ccccd	0.2
211	0x3e4ccccd	0.2
212	0x3e4ccccd	0.2
213	0x3e4ccccd	0.2
214	0x3e4ccccd	0.2
215	0x3e4ccccd	0.2
216	0x3e4ccccd	0.2
217	0x3e4ccccd	0.2
218	0x3e4ccccd	0.2
219	0x3e4ccccd	0.2
220	0x3e4ccccd	0.2
221	0x3e4ccccd	0.2
222	0x3e4ccccd	0.2
223	0x3e4ccccd	0.2
224	0x3e4ccccd	0.2
225	0x3e4ccccd	0.2
226	0x3e4ccccd	0.2
227	0x3e4ccccd	0.2
228	0x3e4ccccd	0.2
229	0x3e4ccccd	0.2
230	0x3e4ccccd	0.2
231	0x3e4ccccd	0.2
232	0x3e4ccccd	0.2
233	0x3e4ccccd	0.2
234	0x3e4ccccd	0.2
235	0x3e4ccccd	0.2
236	0x3e4ccccd	0.2
237	0x3e4ccccd	0.2
238	0x3e4ccccd	0.2
239	0x3e4ccccd	0.2
240	0x3e4ccccd	0.2
241	0x3e4ccccd	0.2
242	0x3e4ccccd	0.2
243	0x3e4ccccd	0.2
244	0x3e4ccccd	0.2
245	0x3e4ccccd	0.2
246	0x3e4ccccd	0.2
247	0x3e4ccccd	0.2
248	0x3e4ccccd	0.2
249	0x3e4ccccd	0.2
250	0x3e4ccccd	0.2
251	0x3e4ccccd	0.2
252	0x3e4ccccd	0.2
253	0x3e4ccccd	0.2
254	0x3e4ccccd	0.2
255	0x3e4ccccd	0.2
