main/template_estimation/ellipse_models/tv_theta_iter_150.npz (npz, 183140 bytes, 3 tensors)

Wt f4 [5, 101, 30]
0	0x00000000	0.0
1	0x00000000	0.0
2	0x00000000	0.0
3	0x00000000	0.0
4	0x00000000	0.0
5	0x00000000	0.0
6	0x00000000	0.0
7	0x00000000	0.0
8	0x00000000	0.0
9	0x00000000	0.0
10	0x00000000	0.0
11	0x00000000	0.0
12	0x00000000	0.0
13	0x00000000	0.0
14	0x00000000	0.0
15	0x00000000	0.0
16	0x00000000	0.0
17	0x00000000	0.0
18	0x00000000	0.0
19	0x00000000	0.0
20	0x00000000	0.0
21	0x00000000	0.0
22	0x00000000	0.0
23	0x00000000	0.0
24	0x00000000	0.0
25	0x00000000	0.0
26	0x00000000	0.0
27	0x00000000	0.0
28	0x00000000	0.0
29	0x00000000	0.0
30	0xbddc1317	-0.107458286
31	0x3e583c3e	0.2111673
32	0x3c5621c7	0.013069577
33	0xbd1a5cb6	-0.037686072
34	0xbd1b1ddf	-0.037870284
35	0xbe4d0a1d	-0.20023389
36	0xbd34570f	-0.044028338
37	0x3e649948	0.22324097
38	0xbcd488f2	-0.025944207
39	0x3d26b080	0.040695667
40	0xbe1913a2	-0.14948896
41	0xbd86a686	-0.065747306
42	0xbe20b3dc	-0.15693611
43	0x3e144a30	0.14481425
44	0xbd5e7a07	-0.054315593
45	0x3cac47bc	0.0210303
46	0x3d7f1a92	0.0622812
47	0x3e67a3ff	0.22621153
48	0xbb92ef0c	-0.004484063
49	0x3de21520	0.110391855
50	0x3e1eb08a	0.15497032
51	0xbce0b6bc	-0.027430885
52	0xbde86bc2	-0.11348678
53	0xbe4fdcce	-0.20299074
54	0x3daf1514	0.08548942
55	0xbe005f66	-0.12536392
56	0xbe00c40d	-0.12574787
57	0x3d976d40	0.07393885
58	0x3d4eaa4a	0.05045537
59	0x3c8599cf	0.016308693
60	0xbd902284	-0.07037833
61	0x3eedd261	0.4644957
62	0x3db1354c	0.08652744
63	0x3c26cc6a	0.010180572
64	0x3d745ffc	0.05966185
65	0xbe3d10c7	-0.18463431
66	0xbd974c4c	-0.07387599
67	0x3de73280	0.11288929
68	0xbdcd8cbc	-0.100366086
69	0x3cb26df0	0.021780938
70	0xbe377c66	-0.17918548
71	0xbe520643	-0.20510201
72	0xbe5d2633	-0.21596603
73	0x3eb02f60	0.34411144
74	0xbe2e063b	-0.16994564
75	0x3b84c2e0	0.004051551
76	0x3dc51d42	0.09624721
77	0x3e37a301	0.17933275
78	0xbd7e9191	-0.06215054
79	0x3e8197a7	0.25311014
80	0x3ea0758b	0.31339678
81	0xbe29e04a	-0.16589466
82	0xbe3e9965	-0.18613203
83	0xbeca0860	-0.39459515
84	0x3cf79c42	0.030225877
85	0x3cbe0b06	0.023198616
86	0xbe066181	-0.13123132
87	0x3cc1354e	0.023584988
88	0xbe5f5db7	-0.21813093
89	0xbdc123c4	-0.0943065
90	0xbd8d663a	-0.06904264
91	0x3f214f55	0.63011676
92	0x3de849b0	0.1134218
93	0x3e41d439	0.18928613
94	0x3e4da1ea	0.20081297
95	0xbe57ce0b	-0.21074693
96	0xbd54b3ab	-0.051929157
97	0x3d82665e	0.06367181
98	0xbe997747	-0.29973814
99	0x3db786b7	0.08961242
100	0x3dee6340	0.11640024
101	0xbdbab936	-0.091173574
102	0xbf1d9b67	-0.6156525
103	0x3e398aa3	0.18119292
104	0x3d1fd6ac	0.039023086
105	0x3caba93e	0.020954724
106	0xbd369b0f	-0.04458147
107	0x3e8b607e	0.27222055
108	0xbe6c9cfe	-0.23106763
109	0x3e51abe2	0.20475724
110	0x3ee9bbd8	0.45651126
111	0x3da881e4	0.082279
112	0xbeac20e7	-0.33618852
113	0xbebc6247	-0.3679373
114	0x3d99ddb4	0.0751299
115	0xbe8c6479	-0.27420405
116	0xbeb3b912	-0.35102135
117	0xbbbd4bdc	-0.0057768654
118	0xbd94206f	-0.07232749
119	0xbe2a8ff3	-0.16656475
120	0xbc9db278	-0.01925014
121	0x3f4412cf	0.765912
122	0x3de911ce	0.11380349
123	0x3d721311	0.059100214
124	0x3e0d279d	0.13784643
125	0xbda65f02	-0.0812359
126	0xbda70c32	-0.08156623
127	0xbcbf7f87	-0.02337624
128	0xbe8784fc	-0.26468647
129	0x3e8e05b0	0.27738714
130	0x3cbb00ac	0.022827469
131	0xbe63c246	-0.22242078
132	0xbf1035b3	-0.5633194
133	0x3dd502c7	0.1040092
134	0x3e794c52	0.2434552
135	0x3bc6a548	0.0060621835
136	0xbd9dee0f	-0.07711422
137	0x3dd59f2a	0.10430749
138	0xbe6ee9ea	-0.23331419
139	0x3e22aad0	0.15885472
140	0x3f07a0e2	0.5297986
141	0x3c239d56	0.009986242
142	0xbeef5a87	-0.46748754
143	0xbe8c80ca	-0.27442008
144	0xbd1ca55e	-0.038243644
145	0xbe320b2b	-0.17387073
146	0xbe8bfaed	-0.2733988
147	0x3ddc74ba	0.10764451
148	0x3d09d116	0.033646666
149	0xbd24c732	-0.04022903
150	0x3c1df6f0	0.009641394
151	0x3f6160b7	0.880382
152	0x3e19ba9a	0.15012589
153	0xbbea1f20	-0.0071448237
154	0x3df87038	0.12130779
155	0xbd9a9cb1	-0.07549418
156	0xbc2f8d21	-0.0107148
157	0x3e1bfd73	0.15233402
158	0xbea89368	-0.32924962
159	0x3e74491e	0.23856017
160	0x3d93fb29	0.072256394
161	0xbe992335	-0.29909673
162	0xbf1c737f	-0.61113733
163	0xbd28d3a6	-0.04121747
164	0x3e23c327	0.15992413
165	0xbdd3ff42	-0.10351421
166	0x3d05321b	0.032518487
167	0x3e2d2dd8	0.16912019
168	0xbeb06469	-0.34451607
169	0x3d82b753	0.063826226
170	0x3f27a22f	0.6548185
171	0xbe2b8d42	-0.16753104
172	0xbe84722c	-0.25868356
173	0xbe4057a2	-0.1878343
174	0x3dd9e376	0.10639088
175	0xbe7f4ba0	-0.24931192
176	0xbe4aa424	-0.19789177
177	0x3d7089e5	0.058725256
178	0x3e3867e5	0.18008383
179	0xbd5ff22c	-0.054674312
180	0x3e51ccc8	0.20488274
181	0x3f620923	0.8829519
182	0x3d8f5984	0.069994956
183	0xbe69ae84	-0.22820479
184	0x3e9e468a	0.30913192
185	0xbe87c875	-0.26520124
186	0xbe4ab660	-0.19796133
187	0x3da74eba	0.08169313
188	0xbec8edf1	-0.39244035
189	0x3eb63acc	0.35591733
190	0x3d5edffc	0.054412827
191	0xbe72db81	-0.23716547
192	0xbf10d09f	-0.5656833
193	0xbcf27aee	-0.029599633
194	0x3e2fefcc	0.17181319
195	0x3e433ae8	0.1906544
196	0x3dbbd77f	0.09171962
197	0x3dc1e857	0.094681434
198	0xbe38d722	-0.18050817
199	0x3e4c6a32	0.19962385
200	0x3f28fa8a	0.6600729
201	0xbe83b5bd	-0.25724593
202	0xbd56533a	-0.052325465
203	0xbed2b980	-0.4115715
204	0xbd769a24	-0.060205594
205	0xbe00f0ee	-0.12591907
206	0xbee9e004	-0.45678723
207	0x3eb79d51	0.3586221
208	0x3d89dde0	0.067317724
209	0xbe0bbd18	-0.13646352
210	0x3e56ece0	0.20988798
211	0x3f78f016	0.9724134
212	0xbe114be2	-0.14189103
213	0xbe40b3b3	-0.1881855
214	0x3eea3fb5	0.4575173
215	0xbf0d185c	-0.55115294
216	0xbe40d8aa	-0.18832651
217	0xbe298fba	-0.16558734
218	0xbe9512d1	-0.29115918
219	0x3e803190	0.25037813
220	0x3d9aa22c	0.07550463
221	0xbe8beb00	-0.27327728
222	0xbf192237	-0.5981783
223	0x3d45f715	0.04833134
224	0x3dc721e0	0.09723258
225	0x3e54dc06	0.20787057
226	0x3cc83d2c	0.024443232
227	0xbd2ac7e2	-0.04169453
228	0x3d325540	0.043538332
229	0x3eaef946	0.34174556
230	0x3f0e9d13	0.55708426
231	0xbe92439a	-0.285672
232	0xbcb8781c	-0.02251821
233	0xbeee52b2	-0.46547467
234	0xbe55d7ce	-0.20883104
235	0x3d0edf5d	0.034880985
236	0xbedd73cd	-0.4325241
237	0x3eb8cb92	0.36092812
238	0x3d8407c2	0.06446792
239	0xbe77c5f9	-0.24196614
240	0x3e790b03	0.24320607
241	0x3f6b5ec5	0.9194148
242	0x3d4ce996	0.050027452
243	0xbe9821c7	-0.2971327
244	0x3efd7a8c	0.49507558
245	0xbf05ea89	-0.52311
246	0xbccf3d89	-0.025297897
247	0xbe0d7d7d	-0.13817401
248	0xbe8230b9	-0.25427797
249	0x3e8d98ef	0.27655742
250	0xbe5bf9d6	-0.21482024
251	0xbe77ed5f	-0.24211644
252	0xbf1cabe6	-0.61199796
253	0xbbaaab00	-0.005208373
254	0x3e339908	0.17538846
255	0x3e0687b7	0.13137709

Xt f4 [5, 101, 60]
0	0x3ef1b1e3	0.4720603
1	0x3d099fe8	0.033599764
2	0x3ee44ee2	0.44591433
3	0x3f6087b7	0.87707084
4	0x3eca3559	0.39493826
5	0x3faed725	1.3659407
6	0x3d4047f7	0.04694363
7	0x3ff33ae2	1.9002345
8	0xbe0e7045	-0.13910015
9	0x3ffca3c7	1.9737481
10	0xbe985c1a	-0.29757768
11	0x3fdc9bed	1.7235085
12	0xbeb91b89	-0.3615382
13	0x3f91134a	1.1334012
14	0xbeefc865	-0.46832576
15	0x3ee54e88	0.44786477
16	0xbeacce5f	-0.337512
17	0xbecf2d27	-0.40464136
18	0xbeb46ca6	-0.35239142
19	0xbf9a630b	-1.2061476
20	0xbe6105d3	-0.21974878
21	0xbfddeb7b	-1.7337488
22	0xbdca3882	-0.09874059
23	0xc000c5da	-2.012076
24	0x3d9bc810	0.07606518
25	0xbff86293	-1.9405082
26	0x3e87254f	0.26395652
27	0xbfb84caf	-1.4398402
28	0x3f031f60	0.5121975
29	0xbf4b1f2c	-0.7934444
30	0x00000000	0.0
31	0x00000000	0.0
32	0x00000000	0.0
33	0x00000000	0.0
34	0x00000000	0.0
35	0x00000000	0.0
36	0x00000000	0.0
37	0x00000000	0.0
38	0x00000000	0.0
39	0x00000000	0.0
40	0x00000000	0.0
41	0x00000000	0.0
42	0x00000000	0.0
43	0x00000000	0.0
44	0x00000000	0.0
45	0x00000000	0.0
46	0x00000000	0.0
47	0x00000000	0.0
48	0x00000000	0.0
49	0x00000000	0.0
50	0x00000000	0.0
51	0x00000000	0.0
52	0x00000000	0.0
53	0x00000000	0.0
54	0x00000000	0.0
55	0x00000000	0.0
56	0x00000000	0.0
57	0x00000000	0.0
58	0x00000000	0.0
59	0x00000000	0.0
60	0x3ef1b1e3	0.4720603
61	0x3d099fe8	0.033599764
62	0x3ee44ee2	0.44591433
63	0x3f6087b7	0.87707084
64	0x3eca3559	0.39493826
65	0x3faed725	1.3659407
66	0x3d4047f7	0.04694363
67	0x3ff33ae2	1.9002345
68	0xbe0e7045	-0.13910015
69	0x3ffca3c7	1.9737481
70	0xbe985c1a	-0.29757768
71	0x3fdc9bed	1.7235085
72	0xbeb91b89	-0.3615382
73	0x3f91134a	1.1334012
74	0xbeefc865	-0.46832576
75	0x3ee54e88	0.44786477
76	0xbeacce5f	-0.337512
77	0xbecf2d27	-0.40464136
78	0xbeb46ca6	-0.35239142
79	0xbf9a630b	-1.2061476
80	0xbe6105d3	-0.21974878
81	0xbfddeb7b	-1.7337488
82	0xbdca3882	-0.09874059
83	0xc000c5da	-2.012076
84	0x3d9bc810	0.07606518
85	0xbff86293	-1.9405082
86	0x3e87254f	0.26395652
87	0xbfb84caf	-1.4398402
88	0x3f031f60	0.5121975
89	0xbf4b1f2c	-0.7934444
90	0xbcdaeb9f	-0.026723681
91	0x3d6f2186	0.05838158
92	0x3bc07986	0.0058738617
93	0xbc288d61	-0.010287614
94	0xbca6215a	-0.020279575
95	0xbd5b30f6	-0.05351349
96	0xbc6048b5	-0.01368921
97	0x3d4bec06	0.049785636
98	0xbc607163	-0.0136989085
99	0xbb4307ec	-0.002975936
100	0xbc9e9c9d	-0.019361788
101	0x3a8f17f0	0.0010917168
102	0xbcd069dd	-0.025441105
103	0x3d01eb66	0.031718634
104	0xbc937711	-0.018001111
105	0x3b81d84f	0.0039625536
106	0x3c1fddf8	0.009757511
107	0x3d423000	0.047409058
108	0xbc1ca2a1	-0.009560258
109	0x3cd616f8	0.026134
110	0x3d3152db	0.043291908
111	0xbc367f36	-0.011138728
112	0xbceb6892	-0.028736386
113	0xbd86e643	-0.06586888
114	0x3b46e4d0	0.0030348785
115	0xbce314ae	-0.027719822
116	0xbd34c774	-0.044135526
117	0x3c852521	0.016253056
118	0x3c54e66e	0.012994392
119	0x3bb2ccfb	0.0054565645
120	0x3ef16ce4	0.4715339
121	0x3d0e55e9	0.0347499
122	0x3ee45b7a	0.4460104
123	0x3f607714	0.876817
124	0x3eca0171	0.39454225
125	0x3faeb47c	1.364883
126	0x3d3e418e	0.046449237
127	0x3ff359c0	1.9011765
128	0xbe0f0351	-0.13966109
129	0x3ffcb593	1.9742912
130	0xbe98a02a	-0.29809695
131	0x3fdca128	1.7236681
132	0xbeb95dfa	-0.3620451
133	0x3f9127c4	1.134026
134	0xbeeff709	-0.4686816
135	0x3ee558f9	0.44794443
136	0xbeacb530	-0.33731985
137	0xbeceb2b6	-0.4037072
138	0xbeb48311	-0.35256246
139	0xbf9a524d	-1.2056366
140	0xbe60577b	-0.21908371
141	0xbfde0305	-1.7344671
142	0xbdcac156	-0.09900157
143	0xc000e1f5	-2.0137913
144	0x3d9b7460	0.07590556
145	0xbff890ce	-1.9419191
146	0x3e86b557	0.26310226
147	0xbfb842e1	-1.439541
148	0x3f033001	0.51245123
149	0xbf4b180f	-0.79333586
150	0xbc6d53c3	-0.014485302
151	0x3dfe754c	0.12424716
152	0x3cddb278	0.02706264
153	0x3b0a7254	0.0021125274
154	0xbb99ffd0	-0.0046996847
155	0xbd4518b2	-0.048119254
156	0xbcbc00ce	-0.022949602
157	0x3c270f0c	0.010196459
158	0xbd20f5e9	-0.03929702
159	0xbcb0a72b	-0.021564087
160	0xbbc66139	-0.0060540703
161	0xbc85ef41	-0.016349437
162	0xbcc16634	-0.023608305
163	0x3d9a7494	0.07541767
164	0xbd505ce0	-0.050869823
165	0xbb0e6900	-0.0021730065
166	0x3c3b25b3	0.011422562
167	0x3cacf3a2	0.021112267
168	0xbd0540b7	-0.03253242
169	0x3d71826a	0.058962263
170	0x3dae0544	0.08497098
171	0xbd4e7218	-0.050401777
172	0xbd397ba3	-0.045283925
173	0xbe0042e4	-0.12525517
174	0xbcfd59a0	-0.030926526
175	0x3c8c6112	0.01713613
176	0xbd60f79b	-0.054923635
177	0xba2d9530	-0.0006621657
178	0xbd6a2d36	-0.057172023
179	0xbcb57378	-0.022149786
180	0x3ef147da	0.4712513
181	0x3d18425a	0.037172653
182	0x3ee4a00b	0.44653353
183	0x3f6076c8	0.87681246
184	0x3ec9f86c	0.39447343
185	0x3fae95db	1.3639482
186	0x3d3a714a	0.045518197
187	0x3ff35620	1.9010658
188	0xbe101db2	-0.14073828
189	0x3ffca843	1.9738849
190	0xbe98dad4	-0.29854453
191	0x3fdc93b1	1.7232572
192	0xbeb99ad5	-0.3625094
193	0x3f9157d0	1.1354923
194	0xbef07932	-0.46967465
195	0x3ee553e4	0.44790566
196	0xbeac9809	-0.33709744
197	0xbece7cb2	-0.4032951
198	0xbeb4d195	-0.35316148
199	0xbf9a2d6a	-1.2045109
200	0xbe5f1656	-0.21785864
201	0xbfde395e	-1.7361257
202	0xbdcc4ac7	-0.099752
203	0xc0010b8b	-2.0163295
204	0x3d99ab8d	0.07503424
205	0xbff8bf63	-1.9433407
206	0x3e8629b1	0.26203683
207	0xbfb843b7	-1.4395665
208	0x3f02e6c3	0.51133364
209	0xbf4b3456	-0.79376733
210	0xbc46e34a	-0.012139151
211	0x3e276481	0.16346933
212	0x3d0f62c8	0.035006315
213	0x3d43305f	0.047653552
214	0x3cab3093	0.020897185
215	0xbd5c4f84	-0.05378677
216	0xbc95f200	-0.018303871
217	0xbc3d9c52	-0.011572914
218	0xbdc43d10	-0.09581959
219	0xbc8b9cb8	-0.017042503
220	0x3dba8075	0.091065325
221	0x3d08516d	0.03328078
222	0xbddfe1c7	-0.109317355
223	0x3cb9e750	0.022693306
224	0x3b01d890	0.001981292
225	0x3a46f07c	0.00075889356
226	0xbd049118	-0.032364935
227	0x3d035846	0.032066606
228	0xbdaa229f	-0.08307385
229	0x3d2513e6	0.04030218
230	0x3df63e3c	0.12023589
231	0x3c4d9774	0.012548316
232	0xbda508a0	-0.08058286
233	0xbe000935	-0.12503512
234	0xbd1ac3cd	-0.037784386
235	0xbd6429e0	-0.055703998
236	0xbdf726ee	-0.12067972
237	0xbc3827e9	-0.011239984
238	0xbc83d7e4	-0.016094156
239	0xbd1c3752	-0.038138695
240	0x3ef12926	0.47101706
241	0x3d252e97	0.040327635
242	0x3ee4fb31	0.44722894
243	0x3f60afb4	0.877681
244	0x3eca315b	0.3949078
245	0x3fae754f	1.362955
246	0x3d358397	0.044314947
247	0x3ff34b4c	1.9007354
248	0xbe11a0c4	-0.14221483
249	0x3ffca011	1.9736348
250	0xbe985002	-0.2974854
251	0x3fdca42e	1.7237604
252	0xbebaac6f	-0.3645968
253	0x3f91666c	1.1359382
254	0xbef074d7	-0.46964142
255	0x3ee555f4	0.4479214

theta f4 [151]
0	0x3e4ccccd	0.2
1	0x3e4ccccd	0.2
2	0x3e4ccccd	0.2
3	0x3e4ccccd	0.2
4	0x3e4ccccd	0.2
5	0x3e4ccccd	0.2
6	0x3e4ccccd	0.2
7	0x3e4ccccd	0.2
8	0x3e4ccccd	0.2
9	0x3e4ccccd	0.2
10	0x3e4ccccd	0.2
11	0x3e4ccccd	0.2
12	0x3e4ccccd	0.2
13	0x3e4ccccd	0.2
14	0x3e4ccccd	0.2
15	0x3e4ccccd	0.2
16	0x3e4ccccd	0.2
17	0x3e4ccccd	0.2
18	0x3e4ccccd	0.2
19	0x3e4ccccd	0.2
20	0x3e4ccccd	0.2
21	0x3e4ccccd	0.2
22	0x3e4ccccd	0.2
23	0x3e4ccccd	0.2
24	0x3e4ccccd	0.2
25	0x3e4ccccd	0.2
26	0x3e4ccccd	0.2
27	0x3e4ccccd	0.2
28	0x3e4ccccd	0.2
29	0x3e4ccccd	0.2
30	0x3e4ccccd	0.2
31	0x3e4ccccd	0.2
32	0x3e4ccccd	0.2
33	0x3e4ccccd	0.2
34	0x3e4ccccd	0.2
35	0x3e4ccccd	0.2
36	0x3e4ccccd	0.2
37	0x3e4ccccd	0.2
38	0x3e4ccccd	0.2
39	0x3e4ccccd	0.2
40	0x3e4ccccd	0.2
41	0x3e4ccccd	0.2
42	0x3e4ccccd	0.2
43	0x3e4ccccd	0.2
44	0x3e4ccccd	0.2
45	0x3e4ccccd	0.2
46	0x3e4ccccd	0.2
47	0x3e4ccccd	0.2
48	0x3e4ccccd	0.2
49	0x3e4ccccd	0.2
50	0x3e4ccccd	0.2
51	0x3e4ccccd	0.2
52	0x3e4ccccd	0.2
53	0x3e4ccccd	0.2
54	0x3e4ccccd	0.2
55	0x3e4ccccd	0.2
56	0x3e4ccccd	0.2
57	0x3e4ccccd	0.2
58	0x3e4ccccd	0.2
59	0x3e4ccccd	0.2
60	0x3e4ccccd	0.2
61	0x3e4ccccd	0.2
62	0x3e4ccccd	0.2
63	0x3e4ccccd	0.2
64	0x3e4ccccd	0.2
65	0x3e4ccccd	0.2
66	0x3e4ccccd	0.2
67	0x3e4ccccd	0.2
68	0x3e4ccccd	0.2
69	0x3e4ccccd	0.2
70	0x3e4ccccd	0.2
71	0x3e4ccccd	0.2
72	0x3e4ccccd	0.2
73	0x3e4ccccd	0.2
74	0x3e4ccccd	0.2
75	0x3e4ccccd	0.2
76	0x3e4ccccd	0.2
77	0x3e4ccccd	0.2
78	0x3e4ccccd	0.2
79	0x3e4ccccd	0.2
80	0x3e4ccccd	0.2
81	0x3e4ccccd	0.2
82	0x3e4ccccd	0.2
83	0x3e4ccccd	0.2
84	0x3e4ccccd	0.2
85	0x3e4ccccd	0.2
86	0x3e4ccccd	0.2
87	0x3e4ccccd	0.2
88	0x3e4ccccd	0.2
89	0x3e4ccccd	0.2
90	0x3e4ccccd	0.2
91	0x3e4ccccd	0.2
92	0x3e4ccccd	0.2
93	0x3e4ccccd	0.2
94	0x3e4ccccd	0.2
95	0x3e4ccccd	0.2
96	0x3e4ccccd	0.2
97	0x3e4ccccd	0.2
98	0x3e4ccccd	0.2
99	0x3e4ccccd	0.2
100	0x3e4ccccd	0.2
101	0x3e4ccccd	0.2
102	0x3e4ccccd	0.2
103	0x3e4ccccd	0.2
104	0x3e4ccccd	0.2
105	0x3e4ccccd	0.2
106	0x3e4ccccd	0.2
107	0x3e4ccccd	0.2
108	0x3e4ccccd	0.2
109	0x3e4ccccd	0.2
110	0x3e4ccccd	0.2
111	0x3e4ccccd	0.2
112	0x3e4ccccd	0.2
113	0x3e4ccccd	0.2
114	0x3e4ccccd	0.2
115	0x3e4ccccd	0.2
116	0x3e4ccccd	0.2
117	0x3e4ccccd	0.2
118	0x3e4ccccd	0.2
119	0x3e4ccccd	0.2
120	0x3e4ccccd	0.2
121	0x3e4ccccd	0.2
122	0x3e4ccccd	0.2
123	0x3e4ccccd	0.2
124	0x3e4ccccd	0.2
125	0x3e4ccccd	0.2
126	0x3e4ccccd	0.2
127	0x3e4ccccd	0.2
128	0x3e4ccccd	0.2
129	0x3e4ccccd	0.2
130	0x3e4ccccd	0.2
131	0x3e4ccccd	0.2
132	0x3e4ccccd	0.2
133	0x3e4ccccd	0.2
134	0x3e4ccccd	0.2
135	0x3e4ccccd	0.2
136	0x3e4ccccd	0.2
137	0x3e4ccccd	0.2
138	0x3e4ccccd	0.2
139	0x3e4ccccd	0.2
140	0x3e4ccccd	0.2
141	0x3e4ccccd	0.2
142	0x3e4ccccd	0.2
143	0x3e4ccccd	0.2
144	0x3e4ccccd	0.2
145	0x3e4ccccd	0.2
146	0x3e4ccccd	0.2
147	0x3e4ccccd	0.2
148	0x3e4ccccd	0.2
149	0x3e4ccccd	0.2
150	0x3e4ccccd	0.2
