main/template_estimation/ellipse_models/tv_theta_iter_2050.npz (npz, 190740 bytes, 3 tensors)

Wt f4 [5, 101, 30]
00000000: 0000 0000 0000 0000 0000 0000 0000 0000
00000010: 0000 0000 0000 0000 0000 0000 0000 0000
00000020: 0000 0000 0000 0000 0000 0000 0000 0000
00000030: 0000 0000 0000 0000 0000 0000 0000 0000
00000040: 0000 0000 0000 0000 0000 0000 0000 0000
00000050: 0000 0000 0000 0000 0000 0000 0000 0000
00000060: 0000 0000 0000 0000 0000 0000 0000 0000
00000070: 0000 0000 0000 0000 abdd 81be 5c0f a4bd
00000080: 8495 fbbd 0902 133e 4b32 463d 6d7b 933c
00000090: f3d0 ec3d a28d e1bc 7e14 64be 19b6 fbbd
000000a0: e418 cbbd c847 82bd 5ddb dabc 7036 0cbc
000000b0: 5d4b 453d fe60 4e3c 08e1 f03d 21e9 a73d
000000c0: 9fd1 003d d1c8 40be 725b bd3d ad2d 42bd
000000d0: 2eca 903d 7e84 9d3e 8c40 2abe 08f2 a9bc
000000e0: 2151 70be 15b9 8ebe 6c75 0e3e 8f8c 9ebd
000000f0: 860c 9cbe e852 e8bc 0e64 9fbd a611 8e3e
00000100: 98ac ff3d 0115 debc 985c 993d 2a75 a3be
00000110: e0ca eebd cd5f 29be 24ee b0be 44da b7bc
00000120: 59e2 d1bd 9bc8 8fbe 405c e1ba fe4f bfbd
00000130: f094 203e 807f 2bbd d9b5 853e e4b0 0fbd
00000140: 0a5a 7c3d b429 01be 0c5c bcbd 9bde 6c3e
00000150: 5d46 9fbd 5513 c33d 50a2 c7be 2ca8 e4be
00000160: 434f fc3e 10ab 07be a10a 94be 674d 873d
00000170: acfe d0be 1e12 283e 7902 a93c 215a 953e
00000180: 90f6 bdbb 6fc4 b3be 78ef 58be 9ca1 4ebe
00000190: 2c12 12bf ede9 01be f827 99be cb08 cfbe
000001a0: 1eaa dc3d 16d2 27bd 3e78 323e 55c2 dcbd
000001b0: a984 243e 1eb6 49be 2dd8 ecbd c766 48be
000001c0: 04c7 0fbd aac8 753d 0a67 5cbd 676a 693e
000001d0: cf0e 03bf 919d f3be a2ab 283f abc2 74be
000001e0: 4c2e 5abe 51c2 983d 81e6 72be f2b7 9d3e
000001f0: 3092 1ebe 32be e33e a617 18be 59ed cebe
00000200: d273 6bbe 265c 60be bed1 f0be 065e 2abe
00000210: 024a 28be 510d 04be e8bc 1a3e 3f78 3dbe
00000220: cc56 0c3e c438 e43d fea7 01bd a822 4cbd
00000230: abf3 9dbe 1a66 f9bd 8c83 14bd daa4 25be
00000240: 2187 92be b72e 7a3e 3e34 0ebf f3a4 37bf
00000250: c002 433f 2999 f8be 5a8f 0dbe 5207 65be
00000260: 0d39 debe 74e3 d13e 99b7 f23b b236 9f3e
00000270: cdc2 7bbd b671 79be 4b06 cdbe 900d 91bd
00000280: 55e7 dbbe b8f1 03be f2aa 18be 90c6 95be
00000290: 6b12 713e b040 99bd 578d a93d d38a fd3d
000002a0: e2ea 503d ae77 c33d afc1 88bd ec7e 10be
000002b0: 41f2 c13d e60e 79be d0b0 23be 5198 bf3e
000002c0: c7c1 2fbf 844f 24bf f4cd 2e3f 6e53 c2be
000002d0: 3915 47be 658e b0be a51b 0cbf ce3b 933e
000002e0: 4d8d 17be c05f 603e 0891 7b3b 588a 3bbd
000002f0: 69c2 b0be 7f80 babc 3f81 e4be b567 23be
00000300: 731e 38be 1f6d 0cbf e55b 853d 4eb6 4abe
00000310: ef1d cbbd c0a0 f83d e9d7 343e c0e2 e4bc
00000320: 9505 35be 1cf7 c8be 9d41 c93d 1a78 3ebe
00000330: 1cd6 d6be 1736 c93e 4ac0 35bf 8eba 38bf
00000340: 8ff3 323f babe 4abe 40d9 fdbc d8f5 a8be
00000350: 3684 30bf 9b76 c33e 9a70 37be 88ab 693e
00000360: 6a6a 123e 0839 a03b 1505 60be d538 783d
00000370: 9fd3 ffbe ca5c 77be 58d9 033e a74d 08bf
00000380: 6259 e63d c6c8 e9be 208b 99be 947f c83c
00000390: b32d cc3d 1fa9 15be 5ae9 8bbc 4c2d 17bf
000003a0: a857 993d 2a05 6abe 304a cfbe c583 613e
000003b0: cd7c 25bf 0e23 6abf 104e 4b3f 7bfc 7bbe
000003c0: 1fd7 3bbe 0161 1cbe 80c2 68bf 6805 493e
000003d0: c7f1 0abe 9e28 303e ab00 e03e 9b89 3a3e
000003e0: ea5a 3fbe a90a 0f3d 3af2 08bf 8421 a9bd
000003f0: 568b 513e c4a5 42bf 0e3e 2d3e fea3 a0be
0.0 0.0 0.0 0.0 0.0 0.0 0.0 0.0
0.0 0.0 0.0 0.0 0.0 0.0 0.0 0.0
0.0 0.0 0.0 0.0 0.0 0.0 0.0 0.0
0.0 0.0 0.0 0.0 0.0 0.0 -0.25364432 -0.08010742
-0.12284377 0.14356245 0.048387807 0.01800319 0.115632914 -0.027533356 -0.22273442 -0.12290592
-0.09916857 -0.063613474 -0.026715929 -0.008557901 0.048167575 0.012596367 0.11761671 0.08198763
0.03144991 -0.18826605 0.092459574 -0.04740684 0.07069813 0.30765146 -0.16626185 -0.020745292
-0.23468448 -0.2787558 0.1391198 -0.07741653 -0.30478305 -0.028359845 -0.07782756 0.2774784
0.124840915 -0.027109625 0.07488364 -0.31925327 -0.11659789 -0.16540451 -0.34556687 -0.022442944
-0.102482505 -0.28082737 -0.001719363 -0.09341429 0.15681815 -0.04186964 0.261153 -0.035080805
0.061609305 -0.12613565 -0.09197244 0.23131792 -0.077770926 0.09525172 -0.38991022 -0.44659555
0.49279222 -0.13248849 -0.2891436 0.0660656 -0.408193 0.16413161 0.020631062 0.29170325
-0.005797215 -0.35110804 -0.211851 -0.20178837 -0.5705898 -0.12686892 -0.29913306 -0.40436396
0.10774635 -0.040971838 0.17428681 -0.107792534 0.16066231 -0.19698378 -0.1156467 -0.19570456
-0.035101905 0.06000582 -0.053809203 0.22794496 -0.5119447 -0.4758115 0.6588689 -0.23902385
-0.21306723 0.07458938 -0.23720743 0.30804402 -0.15485454 0.44481045 -0.14852771 -0.40415457
-0.229934 -0.21910152 -0.4703502 -0.1663743 -0.16434482 -0.12895705 0.15111125 -0.18502901
0.13704985 0.1114364 -0.03165435 -0.04983774 -0.30849966 -0.121776775 -0.036258265 -0.16176167
-0.2861872 0.24431883 -0.55548465 -0.7173607 0.7617607 -0.48554352 -0.13824216 -0.22366074
-0.434029 0.40993845 0.0074071405 0.31096417 -0.061465073 -0.24359784 -0.40043864 -0.07082665
-0.4294993 -0.12885177 -0.1490896 -0.29253054 0.23542182 -0.07483041 0.082789116 0.12379994
0.05100525 0.095443115 -0.06677567 -0.14110917 0.094700344 -0.2432209 -0.15985417 0.37420896
-0.68655056 -0.6418383 0.6828301 -0.37954277 -0.1944169 -0.34483638 -0.5472968 0.28756565
-0.14799996 0.21911526 0.0038386006 -0.04578623 -0.34523323 -0.02276635 -0.44629857 -0.1595753
-0.17980365 -0.54854006 0.06511668 -0.19796106 -0.09917819 0.12140036 0.17660488 -0.027940154
-0.1767791 -0.3925103 0.09826968 -0.18600503 -0.41960227 0.3929908 -0.70996535 -0.7215966
0.6990289 -0.19799319 -0.030987382 -0.33000064 -0.6895174 0.38176426 -0.17914048 0.2281934
0.14298406 0.004889611 -0.21876939 0.060601074 -0.49966142 -0.2415649 0.12875879 -0.5324349
0.11247517 -0.4566099 -0.29988956 0.024474896 0.09969654 -0.14615296 -0.017079044 -0.5905349
0.07487422 -0.22853532 -0.40486288 0.22022922 -0.64643556 -0.9145974 0.7941599 -0.24608032
-0.18343781 -0.15271379 -0.90921783 0.19630969 -0.13568793 0.17202994 0.4375051 0.18216555
-0.18687025 0.034922276 -0.5349461 -0.08258346 0.20463309 -0.7603419 0.16918203 -0.31375116

Xt f4 [5, 101, 60]
00000000: 1065 1b3f 4179 303d 298b 013f 10d0 4f3f
00000010: ea1e a33e 5a9d b63f ed05 d33d aace e93f
00000020: e87f ddbd 5f22 f53f f3fa 8fbe 804b d43f
00000030: 93bb bbbe 0b37 903f 7b4a b8be 6770 d43e
00000040: c0aa a7be 7d4c c5be 8970 98be 330e 94bf
00000050: 95d7 63be dd6c ddbf 393b 8bbd 2a70 febf
00000060: a7e5 073e 8dc5 f2bf d7cc b23e bff9 bbbf
00000070: d81f 0c3f b9d4 43bf 0000 0000 0000 0000
00000080: 0000 0000 0000 0000 0000 0000 0000 0000
00000090: 0000 0000 0000 0000 0000 0000 0000 0000
000000a0: 0000 0000 0000 0000 0000 0000 0000 0000
000000b0: 0000 0000 0000 0000 0000 0000 0000 0000
000000c0: 0000 0000 0000 0000 0000 0000 0000 0000
000000d0: 0000 0000 0000 0000 0000 0000 0000 0000
000000e0: 0000 0000 0000 0000 0000 0000 0000 0000
000000f0: 1065 1b3f 4179 303d 298b 013f 10d0 4f3f
00000100: ea1e a33e 5a9d b63f ed05 d33d aace e93f
00000110: e87f ddbd 5f22 f53f f3fa 8fbe 804b d43f
00000120: 93bb bbbe 0b37 903f 7b4a b8be 6770 d43e
00000130: c0aa a7be 7d4c c5be 8970 98be 330e 94bf
00000140: 95d7 63be dd6c ddbf 393b 8bbd 2a70 febf
00000150: a7e5 073e 8dc5 f2bf d7cc b23e bff9 bbbf
00000160: d81f 0c3f b9d4 43bf 44a8 90bd 68e5 edbb
00000170: 36d9 d4bc 725a db3c 3c32 7a3b cddd b53b
00000180: dfad b43c 2251 1bbc afe7 58bd 4a24 2bbd
00000190: 3a2f 0ebc e3b2 27bc 0a0a a63b 605c 63bb
000001a0: b741 d23b c86b 0dbb 2f49 193d c1e4 893c
000001b0: c884 10bc c161 7cbd 55b4 b63c 2694 dbbb
000001c0: ba40 643c 4cc6 863d e505 62bd e719 72bc
000001d0: 5775 7cbd 4692 62bd c4a1 df3c 7dd3 fcbc
000001e0: d409 1b3f e507 2d3d 0d32 013f 36b6 4f3f
000001f0: 5c85 a23e 7588 b63f e9ed d03d c3b1 e93f
00000200: 057d dfbd 0a03 f53f 217b 90be 8f2d d43f
00000210: bf30 bcbe 7a20 903f 09a2 b8be ab1e d43e
00000220: 75f5 a7be d2f1 c5be 08e3 98be ff43 94bf
00000230: dbf9 64be b095 ddbf caac 8dbd 5890 febf
00000240: 4487 063e e7eb f2bf 110f b23e 2b31 bcbf
00000250: fcc6 0b3f a044 44bf e32e aebd 74a3 a43c
00000260: 808e cfbb 38ce 4b3d d406 583c 6487 cfbb
00000270: 8c65 733b 653c b0bd 4c39 9abc d6f4 78bd
00000280: 82cc 5cbd f8d1 f13b 78bd 24bb 4621 99bd
00000290: c2ee 55bc 5841 0fbd e557 573d 4f73 aabc
000002a0: 0786 093d 3d53 00bd fc17 373c 3cc9 b3bc
000002b0: 6fb7 06bd e557 f33c a83c 2cbd 783f af3b
000002c0: b4e3 cabd 84e6 9fbd f98f dd3d 9134 5ebd
000002d0: 03ec 1a3f 441f 253d 8ee7 003f 3524 4f3f
000002e0: 3fd2 a13e 7f20 b63f 4127 ce3d f53d e93f
000002f0: 5b49 e2bd ff8c f43f c638 91be ffb2 d33f
00000300: 72d8 bcbe 85ac 8f3f 36e1 b8be 69a0 d23e
00000310: 20c8 a7be e160 c7be 57fa 98be ce9e 94bf
00000320: ca10 66be 2ade ddbf 5c91 90bd 29ce febf
00000330: 250d 053e 4a31 f3bf 658e b13e 848a bcbf
00000340: 13bb 0b3f 1af6 44bf 7286 a8bd bd17 683d
00000350: 6e11 acbd 00bd e93b a70c cbbc 30ee 9e3d
00000360: d906 cfbc dba8 bdbd 24ed 14bd 7b6d 9dbd
00000370: a684 bcbd 4fa0 43bc 144b 23bd 1f88 d7bd
00000380: 2afa 1d3c e2ec c2bc 6333 793d 7b03 2ebd
00000390: 30b5 3abc 4050 aabd d991 1abd 1c8f 0ebd
000003a0: 6e99 b3bc b5c9 f6bc e7e7 32bd 18c1 f93c
000003b0: dda0 02be 4be9 83bd d8d3 0b3e c780 b6bd
000003c0: 1060 1a3f a1ee 1a3d 51ae ff3e 348f 4e3f
000003d0: 4a47 9f3e 1fbb b53f 9d78 c43d ffc9 e83f
000003e0: 22a1 ebbd 2113 f43f 2ea9 93be 0031 d33f
000003f0: 6f1a bfbe a02c 8f3f fa37 babe 7cc6 d03e
0.60701084 0.043084387 0.50602967 0.81176853 0.31859523 1.426677 0.10303865 1.8266194
-0.10815412 1.9151114 -0.28121147 1.6585541 -0.36666545 1.1266798 -0.35994324 0.41492006
-0.3274746 -0.38534918 -0.29773358 -1.1566833 -0.22250207 -1.7298847 -0.06798405 -1.987798
0.13271199 -1.8966538 0.34921905 -1.4685591 0.5473609 -0.76496464 0.0 0.0
0.0 0.0 0.0 0.0 0.0 0.0 0.0 0.0
0.0 0.0 0.0 0.0 0.0 0.0 0.0 0.0
0.0 0.0 0.0 0.0 0.0 0.0 0.0 0.0
0.0 0.0 0.0 0.0 0.60701084 0.043084387 0.50602967 0.81176853
0.31859523 1.426677 0.10303865 1.8266194 -0.10815412 1.9151114 -0.28121147 1.6585541
-0.36666545 1.1266798 -0.35994324 0.41492006 -0.3274746 -0.38534918 -0.29773358 -1.1566833
-0.22250207 -1.7298847 -0.06798405 -1.987798 0.13271199 -1.8966538 0.34921905 -1.4685591
0.5473609 -0.76496464 -0.07063344 -0.0072600134 -0.02598248 0.026776526 0.0038176915 0.0055501224
0.022055564 -0.009479793 -0.052955326 -0.041782655 -0.008678252 -0.010235521 0.0050671147 -0.003469251
0.006416525 -0.0021579135 0.03742331 0.016832711 -0.00882072 -0.061616663 0.022302786 -0.0067010103
0.013931448 0.06580791 -0.055181403 -0.014776683 -0.06163534 -0.05531528 0.027298816 -0.030862564
0.6056187 0.042243857 0.50466996 0.81137407 0.3174237 1.4260393 0.10201628 1.8257374
-0.109125175 1.9141552 -0.2821894 1.6576403 -0.3675594 1.1259911 -0.36061123 0.41429648
-0.32804456 -0.38661057 -0.2986071 -1.1583251 -0.22360937 -1.7311306 -0.069177225 -1.98878
0.13137537 -1.8978242 0.3477712 -1.4702505 0.546005 -0.76667213 -0.08505037 0.020097472
-0.006334126 0.049757212 0.013185222 -0.0063332785 0.0037139384 -0.08605269 -0.01882615 -0.06078037
-0.05390597 0.0073797666 -0.0025137346 -0.074770495 -0.013057413 -0.034974426 0.052574057 -0.020806937
0.033575084 -0.031329382 0.011175152 -0.021946542 -0.03288978 0.029704997 -0.042050034 0.0053481422
-0.09906712 -0.07807639 0.10818476 -0.05424935 0.60516375 0.04031302 0.50353324 0.8091462
0.31605718 1.4228667 0.10066081 1.8222033 -0.11049148 1.9105529 -0.28363627 1.6539
-0.36883885 1.1224524 -0.36109322 0.41138008 -0.3276987 -0.389411 -0.29878494 -1.1610963
-0.22467342 -1.7333424 -0.07058975 -1.9906665 0.12993295 -1.8999417 0.3467895 -1.4729772
0.5458233 -0.7693802 -0.082287684 0.056663264 -0.08401762 0.0071331263 -0.024786307 0.077602744
-0.02527182 -0.09260722 -0.036358967 -0.07686897 -0.09204988 -0.011940076 -0.039866522 -0.1052401
0.009642163 -0.023794595 0.06084002 -0.042483788 -0.0113957375 -0.08316088 -0.037736747 -0.03480445
-0.021923747 -0.030125478 -0.04367819 0.030487582 -0.12756677 -0.064409815 0.1365503 -0.08911281
0.6030283 0.03782523 0.4993768 0.8068726 0.31109077 1.419773 0.09593318 1.8186644
-0.11505343 1.9068338 -0.2884001 1.6499329 -0.37324855 1.1185493 -0.36370832 0.40776432

theta f4 [2051]
00000000: cdcc 4c3e cdcc 4c3e cdcc 4c3e cdcc 4c3e
00000010: cdcc 4c3e cdcc 4c3e cdcc 4c3e cdcc 4c3e
00000020: cdcc 4c3e cdcc 4c3e cdcc 4c3e cdcc 4c3e
00000030: cdcc 4c3e cdcc 4c3e cdcc 4c3e cdcc 4c3e
00000040: cdcc 4c3e cdcc 4c3e cdcc 4c3e cdcc 4c3e
00000050: cdcc 4c3e cdcc 4c3e cdcc 4c3e cdcc 4c3e
00000060: cdcc 4c3e cdcc 4c3e cdcc 4c3e cdcc 4c3e
00000070: cdcc 4c3e cdcc 4c3e cdcc 4c3e cdcc 4c3e
00000080: cdcc 4c3e cdcc 4c3e cdcc 4c3e cdcc 4c3e
00000090: cdcc 4c3e cdcc 4c3e cdcc 4c3e cdcc 4c3e
000000a0: cdcc 4c3e cdcc 4c3e cdcc 4c3e cdcc 4c3e
000000b0: cdcc 4c3e cdcc 4c3e cdcc 4c3e cdcc 4c3e
000000c0: cdcc 4c3e cdcc 4c3e cdcc 4c3e cdcc 4c3e
000000d0: cdcc 4c3e cdcc 4c3e cdcc 4c3e cdcc 4c3e
000000e0: cdcc 4c3e cdcc 4c3e cdcc 4c3e cdcc 4c3e
000000f0: cdcc 4c3e cdcc 4c3e cdcc 4c3e cdcc 4c3e
00000100: cdcc 4c3e cdcc 4c3e cdcc 4c3e cdcc 4c3e
00000110: cdcc 4c3e cdcc 4c3e cdcc 4c3e cdcc 4c3e
00000120: cdcc 4c3e cdcc 4c3e cdcc 4c3e cdcc 4c3e
00000130: cdcc 4c3e cdcc 4c3e cdcc 4c3e cdcc 4c3e
00000140: cdcc 4c3e cdcc 4c3e cdcc 4c3e cdcc 4c3e
00000150: cdcc 4c3e cdcc 4c3e cdcc 4c3e cdcc 4c3e
00000160: cdcc 4c3e cdcc 4c3e cdcc 4c3e cdcc 4c3e
00000170: cdcc 4c3e cdcc 4c3e cdcc 4c3e cdcc 4c3e
00000180: cdcc 4c3e cdcc 4c3e cdcc 4c3e cdcc 4c3e
00000190: cdcc 4c3e cdcc 4c3e cdcc 4c3e cdcc 4c3e
000001a0: cdcc 4c3e cdcc 4c3e cdcc 4c3e cdcc 4c3e
000001b0: cdcc 4c3e cdcc 4c3e cdcc 4c3e cdcc 4c3e
000001c0: cdcc 4c3e cdcc 4c3e cdcc 4c3e cdcc 4c3e
000001d0: cdcc 4c3e cdcc 4c3e cdcc 4c3e cdcc 4c3e
000001e0: cdcc 4c3e cdcc 4c3e cdcc 4c3e cdcc 4c3e
000001f0: cdcc 4c3e cdcc 4c3e cdcc 4c3e cdcc 4c3e
00000200: cdcc 4c3e cdcc 4c3e cdcc 4c3e cdcc 4c3e
00000210: cdcc 4c3e cdcc 4c3e cdcc 4c3e cdcc 4c3e
00000220: cdcc 4c3e cdcc 4c3e cdcc 4c3e cdcc 4c3e
00000230: cdcc 4c3e cdcc 4c3e cdcc 4c3e cdcc 4c3e
00000240: cdcc 4c3e cdcc 4c3e cdcc 4c3e cdcc 4c3e
00000250: cdcc 4c3e cdcc 4c3e cdcc 4c3e cdcc 4c3e
00000260: cdcc 4c3e cdcc 4c3e cdcc 4c3e cdcc 4c3e
00000270: cdcc 4c3e cdcc 4c3e cdcc 4c3e cdcc 4c3e
00000280: cdcc 4c3e cdcc 4c3e cdcc 4c3e cdcc 4c3e
00000290: cdcc 4c3e cdcc 4c3e cdcc 4c3e cdcc 4c3e
000002a0: cdcc 4c3e cdcc 4c3e cdcc 4c3e cdcc 4c3e
000002b0: cdcc 4c3e cdcc 4c3e cdcc 4c3e cdcc 4c3e
000002c0: cdcc 4c3e cdcc 4c3e cdcc 4c3e cdcc 4c3e
000002d0: cdcc 4c3e cdcc 4c3e cdcc 4c3e cdcc 4c3e
000002e0: cdcc 4c3e cdcc 4c3e cdcc 4c3e cdcc 4c3e
000002f0: cdcc 4c3e cdcc 4c3e cdcc 4c3e cdcc 4c3e
00000300: cdcc 4c3e cdcc 4c3e cdcc 4c3e cdcc 4c3e
00000310: cdcc 4c3e cdcc 4c3e cdcc 4c3e cdcc 4c3e
00000320: cdcc 4c3e cdcc 4c3e cdcc 4c3e cdcc 4c3e
00000330: cdcc 4c3e cdcc 4c3e cdcc 4c3e cdcc 4c3e
00000340: cdcc 4c3e cdcc 4c3e cdcc 4c3e cdcc 4c3e
00000350: cdcc 4c3e cdcc 4c3e cdcc 4c3e cdcc 4c3e
00000360: cdcc 4c3e cdcc 4c3e cdcc 4c3e cdcc 4c3e
00000370: cdcc 4c3e cdcc 4c3e cdcc 4c3e cdcc 4c3e
00000380: cdcc 4c3e cdcc 4c3e cdcc 4c3e cdcc 4c3e
00000390: cdcc 4c3e cdcc 4c3e cdcc 4c3e cdcc 4c3e
000003a0: cdcc 4c3e cdcc 4c3e cdcc 4c3e cdcc 4c3e
000003b0: cdcc 4c3e cdcc 4c3e cdcc 4c3e cdcc 4c3e
000003c0: cdcc 4c3e cdcc 4c3e cdcc 4c3e cdcc 4c3e
000003d0: cdcc 4c3e cdcc 4c3e cdcc 4c3e cdcc 4c3e
000003e0: cdcc 4c3e cdcc 4c3e cdcc 4c3e cdcc 4c3e
000003f0: cdcc 4c3e cdcc 4c3e cdcc 4c3e cdcc 4c3e
0.2 0.2 0.2 0.2 0.2 0.2 0.2 0.2
0.2 0.2 0.2 0.2 0.2 0.2 0.2 0.2
0.2 0.2 0.2 0.2 0.2 0.2 0.2 0.2
0.2 0.2 0.2 0.2 0.2 0.2 0.2 0.2
0.2 0.2 0.2 0.2 0.2 0.2 0.2 0.2
0.2 0.2 0.2 0.2 0.2 0.2 0.2 0.2
0.2 0.2 0.2 0.2 0.2 0.2 0.2 0.2
0.2 0.2 0.2 0.2 0.2 0.2 0.2 0.2
0.2 0.2 0.2 0.2 0.2 0.2 0.2 0.2
0.2 0.2 0.2 0.2 0.2 0.2 0.2 0.2
0.2 0.2 0.2 0.2 0.2 0.2 0.2 0.2
0.2 0.2 0.2 0.2 0.2 0.2 0.2 0.2
0.2 0.2 0.2 0.2 0.2 0.2 0.2 0.2
0.2 0.2 0.2 0.2 0.2 0.2 0.2 0.2
0.2 0.2 0.2 0.2 0.2 0.2 0.2 0.2
0.2 0.2 0.2 0.2 0.2 0.2 0.2 0.2
0.2 0.2 0.2 0.2 0.2 0.2 0.2 0.2
0.2 0.2 0.2 0.2 0.2 0.2 0.2 0.2
0.2 0.2 0.2 0.2 0.2 0.2 0.2 0.2
0.2 0.2 0.2 0.2 0.2 0.2 0.2 0.2
0.2 0.2 0.2 0.2 0.2 0.2 0.2 0.2
0.2 0.2 0.2 0.2 0.2 0.2 0.2 0.2
0.2 0.2 0.2 0.2 0.2 0.2 0.2 0.2
0.2 0.2 0.2 0.2 0.2 0.2 0.2 0.2
0.2 0.2 0.2 0.2 0.2 0.2 0.2 0.2
0.2 0.2 0.2 0.2 0.2 0.2 0.2 0.2
0.2 0.2 0.2 0.2 0.2 0.2 0.2 0.2
0.2 0.2 0.2 0.2 0.2 0.2 0.2 0.2
0.2 0.2 0.2 0.2 0.2 0.2 0.2 0.2
0.2 0.2 0.2 0.2 0.2 0.2 0.2 0.2
0.2 0.2 0.2 0.2 0.2 0.2 0.2 0.2
0.2 0.2 0.2 0.2 0.2 0.2 0.2 0.2
