main/bridge_estimation/ellipse_models/ms_theta_iter_8000.npz (npz, 69100 bytes, 3 tensors)

Wt f4 [101, 30]
0.0 0.0 0.0 0.0 0.0 0.0 0.0 0.0
0.0 0.0 0.0 0.0 0.0 0.0 0.0 0.0
0.0 0.0 0.0 0.0 0.0 0.0 0.0 0.0
0.0 0.0 0.0 0.0 0.0 0.0 0.03938454 0.056635026
0.223794 -0.023718324 -0.11716181 -0.02695562 0.15690319 -0.06814986 0.16227064 -0.0835597
-0.13028203 -0.118594706 0.09884391 -0.14972699 0.039531544 -0.16350818 0.10026769 0.19811243
-0.06931576 -0.11778849 -0.40599486 -0.15920325 0.16773677 0.137426 0.013203189 -0.023558758
0.09852041 0.0108441785 -0.043558486 0.05512103 0.10559216 -0.019141257 -0.035714 -0.15362975
0.10133099 -0.25960422 0.18896595 -0.100546464 0.18789035 -0.12742601 -0.40023258 -0.3861579
-0.0043142345 -0.09688385 -0.11294525 -0.3250251 -0.10246689 0.2013011 -0.23714058 -0.18116792
-0.63333505 -0.20162617 0.26399046 0.07963812 0.023894183 -0.23180889 0.07014023 -0.25247124
-0.03877048 -0.057630423 0.20845225 0.042640377 -0.11162834 0.07051382 -0.009279218 0.028044261
0.031616457 -0.11894201 0.15105978 -0.08270435 -0.32074818 -0.07277193 -0.34414715 -0.16355392
-0.21496086 -0.26954144 -0.23256929 0.265519 -0.1514509 -0.07942104 -0.8084159 -0.11933771
-0.20483485 0.14702985 0.19933537 -0.1294155 0.19527133 -0.6529043 0.07968547 -0.04190103
0.35682166 0.12532514 -0.35035217 -0.0018453281 0.08738075 0.21566229 0.020010905 -0.16998293
0.22530495 0.1496165 -0.34328073 -0.14896388 -0.45334518 -0.2608456 -0.6376283 -0.14904018
-0.41146755 0.19646579 0.041507874 0.0030960105 -1.4238201 -0.26139367 -0.25698912 0.102183744
0.20763454 0.20339358 0.32728028 -0.7209777 -0.109114125 0.07435778 0.66878927 0.27015507
-0.35426652 -0.016365197 0.21429922 0.21574762 0.2541453 -0.05715944 0.03866431 0.036947317
-0.59018886 -0.27307996 -0.46397245 -0.30494994 -0.7054103 -0.16323197 -0.037215076 -0.08938621
0.09970491 0.06087304 -1.7082237 -0.17623007 -0.5158438 0.059614375 0.40489957 0.3946757
0.5493653 -0.6580844 -0.30828643 -0.29158336 0.66792434 0.17983587 -0.21401796 0.074554645
0.50668585 -0.005460359 0.5536582 -0.36236784 -0.0388337 0.05310682 -0.7530445 -0.16311118
-0.5233482 -0.30798584 -0.60528696 -0.032998655 -0.16577578 -0.12282432 0.37114424 -0.15258427
-2.0444572 0.037519842 -0.46883476 0.21160671 0.4403296 0.36245227 0.59906757 -0.61742675
-0.33472118 -0.45928815 0.7769676 0.22552612 -0.3218161 0.031881303 0.89958024 -0.012727559
0.89250684 -0.5061023 -0.04319343 0.18434793 -1.1185066 -0.045522235 -0.6523024 -0.09357935
-0.70299673 -0.20716624 -0.36995295 0.074964896 0.35038403 -0.36166048 -2.3024087 0.16684915
-0.6906046 -0.029480197 0.55752814 0.4515634 0.56386966 -0.53471714 -0.2988157 -0.570858
0.99015033 0.12741792 -0.24571185 -0.069223344 1.1512924 -0.11436059 1.2311672 -0.46861273
-0.14112514 0.027105764 -1.3020611 0.049483273 -0.58356786 -0.06924471 -0.47365808 -0.27500334
00000000: 0000 0000 0000 0000 0000 0000 0000 0000
00000010: 0000 0000 0000 0000 0000 0000 0000 0000
00000020: 0000 0000 0000 0000 0000 0000 0000 0000
00000030: 0000 0000 0000 0000 0000 0000 0000 0000
00000040: 0000 0000 0000 0000 0000 0000 0000 0000
00000050: 0000 0000 0000 0000 0000 0000 0000 0000
00000060: 0000 0000 0000 0000 0000 0000 0000 0000
00000070: 0000 0000 0000 0000 af51 213d 21fa 673d
00000080: 412a 653e ee4c c2bc 88f2 efbd 08d2 dcbc
00000090: 3bab 203e 2792 8bbd 462a 263e 5921 abbd
000000a0: a768 05be c8e1 f2bd ad6e ca3d 0852 19be
000000b0: d4eb 213d b06e 27be 2659 cd3d fcdd 4a3e
000000c0: 6cf5 8dbd 183b f1bd 8fde cfbe 2d06 23be
000000d0: 30c3 2b3e 67b9 0c3e 3052 583c 4cfe c0bc
000000e0: 12c5 c93d c8ab 313c 626a 32bd 97c6 613d
000000f0: b440 d83d 20ce 9cbc d848 12bd 1e51 1dbe
00000100: 9f86 cf3d d8ea 84be 4a80 413e 4eeb cdbd
00000110: 5466 403e f77b 02be 49eb ccbe 7db6 c5be
00000120: 6c5e 8dbb 0a6b c6bd d74f e7bd b169 a6be
00000130: 29da d1bd e021 4e3e fbd4 72be 1584 39be
00000140: 3f22 22bf 1777 4ebe c229 873e 5019 a33d
00000150: bcbd c33c 4f5f 6dbe aea5 8f3d e943 81be
00000160: cbcd 1ebd e10d 6cbd 8274 553e ada7 2e3d
00000170: 669d e4bd 8d69 903d dc07 18bc 14bd e53c
00000180: 4280 013d de97 f3bd 6aaf 1a3e e660 a9bd
00000190: 1b39 a4be 7309 95bd 0e34 b0be ae7a 27be
000001a0: b31e 5cbe 5601 8abe a526 6ebe 1bf2 873e
000001b0: f215 1bbe 80a7 a2bd 58f4 4ebf 5467 f4bd
000001c0: 3ac0 51be fe8e 163e 921e 4c3e 7f85 04be
000001d0: 35f5 473e bc24 27bf 2332 a33d 6aa0 2bbd
000001e0: 54b1 b63e 3c55 003e 5c61 b3be f0de f1ba
000001f0: aef4 b23d 93d6 5c3e e9ed a33c 0110 2ebe
00000200: 57b6 663e 1135 193e 7ec2 afbe fd89 18be
00000210: dc1c e8be 8e8d 85be 9c3b 23bf fd9d 18be
00000220: e0ab d2be 542e 493e 2904 2a3d 70e6 4a3b
00000230: bd3f b6bf 64d5 85be 1494 83be b645 d13d
00000240: 269e 543e 6846 503e 4891 a73e ff91 38bf
00000250: 3a77 dfbd e448 983d c635 2b3f c451 8a3e
00000260: 6c62 b5be 4e10 86bc 4171 5b3e f2ec 5c3e
00000270: 551f 823e 0420 6abd 785e 1e3d 1256 173d
00000280: 9e16 17bf 23d1 8bbe cc8d edbe 6622 9cbe
00000290: c595 34bf 4826 27be d66e 18bd 1e10 b7bd
000002a0: 1632 cc3d 0256 793d 13a7 dabf a875 34be
000002b0: 570e 04bf 342e 743d ff4e cf3e ef12 ca3e
000002c0: 34a3 0c3f 3878 28bf b8d7 9dbe 6a4a 95be
000002d0: 17fd 2a3f e526 383e 8627 5bbe 1bb0 983d
000002e0: 2ab6 013f d0ec b2bb 8bbc 0d3f 4788 b9be
000002f0: 1610 1fbd 8986 593d 86c7 40bf 9e06 27be
00000300: 26fa 05bf 52b0 9dbe 16f4 1abf 9929 07bd
00000310: 20c1 29be 518b fbbd 9e06 be3e 0d3f 1cbe
00000320: 63d8 02c0 68ae 193d 1c0b f0be 6eaf 583e
00000330: e272 e13e 5893 b93e 7e5c 193f ae0f 1ebf
00000340: 9360 abbe d127 ebbe 59e7 463f 52f0 663e
00000350: 14c5 a4be f895 023d e44a 663f 4087 50bc
00000360: 547b 643f ec8f 01bf 98eb 30bd b4c5 3c3e
00000370: 392b 8fbf 8675 3abd 4afd 26bf 88a6 bfbd
00000380: 98f7 33bf 6323 54be 796a bdbe 3287 993d
00000390: 8965 b33e 902b b9be aa5a 13c0 81da 2a3e
000003a0: 77cb 30bf 7480 f1bc 2aba 0e3f 5133 e73e
000003b0: c359 103f 39e3 08bf 5ffe 98be c023 12bf
000003c0: 7e7a 7d3f d879 023e e39b 7bbe f8c4 8dbd
000003d0: 8d5d 933f e335 eabd e396 9d3f 02ee efbe
000003e0: 1c83 10be e80c de3c f0a9 a6bf f9ae 4a3d
000003f0: b464 15bf 2cd0 8dbd 5083 f2be 3dcd 8cbe

Xt f4 [101, 60]
0.5 0.0 0.4567727 0.81347334 0.33456528 1.4862897 0.15450843 1.9021131
-0.052264314 1.9890437 -0.25000003 1.7320508 -0.4045086 1.17557 -0.48907384 0.41582274
-0.48907375 -0.41582403 -0.40450838 -1.1755711 -0.24999996 -1.7320509 -0.05226417 -1.9890438
0.15450878 -1.9021126 0.33456555 -1.4862888 0.45677286 -0.8134721 0.0 0.0
0.0 0.0 0.0 0.0 0.0 0.0 0.0 0.0
0.0 0.0 0.0 0.0 0.0 0.0 0.0 0.0
0.0 0.0 0.0 0.0 0.0 0.0 0.0 0.0
0.0 0.0 0.0 0.0 0.5 0.0 0.4567727 0.81347334
0.33456528 1.4862897 0.15450843 1.9021131 -0.052264314 1.9890437 -0.25000003 1.7320508
-0.4045086 1.17557 -0.48907384 0.41582274 -0.48907375 -0.41582403 -0.40450838 -1.1755711
-0.24999996 -1.7320509 -0.05226417 -1.9890438 0.15450878 -1.9021126 0.33456555 -1.4862888
0.45677286 -0.8134721 0.03811459 0.014623051 0.06898529 -0.0061240955 -0.015456082 -0.0069598504
0.06747617 -0.017596217 0.032695353 -0.02157494 -0.063879065 -0.030621001 0.021060502 -0.0386595
-0.012801777 -0.04221765 0.0028802156 0.051152468 -0.022363588 -0.030412778 -0.13506672 -0.041106272
0.0341121 0.03548308 0.030377192 -0.006082926 0.040231075 0.0027999547 -5.413685e-05 0.014232143
0.5015601 -0.00025546493 0.45886686 0.8120975 0.33647567 1.4842334 0.15608622 1.8999943
-0.05086613 1.9868953 -0.2486226 1.729716 -0.4031557 1.1733458 -0.48808175 0.4145918
-0.48906 -0.41604647 -0.40541372 -1.175703 -0.2510345 -1.7322628 -0.053066358 -1.989216
0.15392275 -1.9022224 0.33429092 -1.486275 0.45724806 -0.81330085 0.080546714 -0.005276475
0.0086982325 -0.03813173 0.055277396 -0.06494038 0.09881474 -0.023423519 0.027262107 -0.029861227
-0.16280131 -0.09677761 -0.012119436 -0.021006472 -0.076228194 -0.08092713 -0.07384331 0.049208056
-0.067880474 -0.04488283 -0.21817239 -0.05001097 0.050251804 0.01944765 0.05786281 -0.06030237
0.046997376 -0.06464461 0.012669302 -0.015960958 0.50132024 -0.0034783182 0.45910487 0.8075998
0.33682847 1.4790303 0.15631303 1.895043 -0.050954346 1.9820423 -0.24927332 1.7244976
-0.40464312 1.1681705 -0.490479 0.41070426 -0.49238572 -0.41894677 -0.40908682 -1.1789558
-0.25404665 -1.7356948 -0.055325102 -1.9925263 0.15200622 -1.9056636 0.33255756 -1.489886
0.45610896 -0.81651485 0.13293353 0.013277354 0.0006556455 0.025811672 0.04016432 0.016842071
0.07945574 -0.023350414 0.008463729 -0.011988194 -0.16617437 -0.007652238 -0.10254668 -0.03175928
-0.12170996 -0.05983264 -0.12608369 0.0659692 -0.04326169 -0.013675425 -0.28307614 -0.023718702
-0.07862934 0.038988635 0.1271694 -0.028947907 0.09570338 -0.16104022 0.05542905 -0.008716809
0.50089914 -0.0043167407 0.45763367 0.8071254 0.3347517 1.4783016 0.15415168 1.89417
-0.053458124 1.9810814 -0.25271612 1.7233921 -0.40921867 1.1670111 -0.49530032 0.4097917
00000000: 0000 003f 0000 0000 1dde e93e ca3f 503f
00000010: 244c ab3e be3e be3f 7537 1e3e 7178 f33f
00000020: 1b13 56bd fc98 fe3f 0100 80be d7b3 dd3f
00000030: c01b cfbe 1479 963f e367 fabe b8e6 d43e
00000040: e067 fabe e3e6 d4be b91b cfbe 1d79 96bf
00000050: fdff 7fbe d8b3 ddbf f412 56bd fd98 febf
00000060: 8d37 1e3e 6d78 f3bf 2d4c ab3e b63e bebf
00000070: 22de e93e b53f 50bf 0000 0000 0000 0000
00000080: 0000 0000 0000 0000 0000 0000 0000 0000
00000090: 0000 0000 0000 0000 0000 0000 0000 0000
000000a0: 0000 0000 0000 0000 0000 0000 0000 0000
000000b0: 0000 0000 0000 0000 0000 0000 0000 0000
000000c0: 0000 0000 0000 0000 0000 0000 0000 0000
000000d0: 0000 0000 0000 0000 0000 0000 0000 0000
000000e0: 0000 0000 0000 0000 0000 0000 0000 0000
000000f0: 0000 003f 0000 0000 1dde e93e ca3f 503f
00000100: 244c ab3e be3e be3f 7537 1e3e 7178 f33f
00000110: 1b13 56bd fc98 fe3f 0100 80be d7b3 dd3f
00000120: c01b cfbe 1479 963f e367 fabe b8e6 d43e
00000130: e067 fabe e3e6 d4be b91b cfbe 1d79 96bf
00000140: fdff 7fbe d8b3 ddbf f412 56bd fd98 febf
00000150: 8d37 1e3e 6d78 f3bf 2d4c ab3e b63e bebf
00000160: 22de e93e b53f 50bf 0b1e 1c3d 8595 6f3c
00000170: 2948 8d3d a3ac c8bb 823b 7dbc 750f e4bb
00000180: f230 8a3d f125 90bc 90eb 053d eebd b0bc
00000190: 07d3 82bd e5d8 fabc 1387 ac3c 6d59 1ebd
000001a0: 8bbe 51bc 6aec 2cbd 00c2 3c3b 4085 513d
000001b0: d833 b7bc 3824 f9bc ee4e 0abe 0d5f 28bd
000001c0: 21b9 0b3d b556 113d 97d9 f83c 4853 c7bb
000001d0: 57c9 243d 727f 373b 0011 63b8 ef2d 693c
000001e0: 3e66 003f ecef 85b9 99f0 ea3e 9fe5 4f3f
000001f0: 8a46 ac3e 5cfb bd3f 11d5 1f3e 0333 f33f
00000200: 0159 50bd 9652 fe3f ec96 7ebe 5567 dd3f
00000210: 6d6a cebe 3230 963f dae5 f9be 6045 d43e
00000220: 1366 fabe 0b04 d5be 6392 cfbe 707d 96bf
00000230: 9887 80be caba ddbf 1c5c 59bd a19e febf
00000240: ed9d 1d3e 067c f3bf 2e28 ab3e 423e bebf
00000250: 6b1c ea3e 7c34 50bf adf5 a43d 48e6 acbb
00000260: 0883 0e3c 0430 1cbd 8d6a 623d 76ff 84bd
00000270: 625f ca3d aee2 bfbc c854 df3c 889f f4bc
00000280: 63b5 26be 5733 c6bd 9990 46bc c415 acbc
00000290: 871d 9cbd 20bd a5bd 293b 97bd 638e 493d
000002a0: eb04 8bbd 0fd7 37bd 9568 5fbe 4ed8 4cbd
000002b0: d6d4 4d3d ae50 9f3c 8e01 6d3d 9eff 76bd
000002c0: 5280 403d 6564 84bd e792 4f3c 8ec0 82bc
000002d0: 8656 003f 7ff4 63bb cb0f eb3e dcbe 4e3f
000002e0: c874 ac3e dd50 bd3f 8610 203e c590 f23f
000002f0: 81b5 50bd 90b3 fd3f 8141 7fbe 56bc dc3f
00000300: 622d cfbe 9c86 953f 1020 fbbe d447 d23e
00000310: fb19 fcbe 3180 d6be d473 d1be 06e8 96bf
00000320: 6712 82be 3f2b debf 939c 62bd 1a0b ffbf
00000330: 85a7 1b3e c9ec f3bf fc44 aa3e 96b4 bebf
00000340: 1d87 e93e 1e07 51bf ba1f 083e 4289 593c
00000350: a0df 2b3a 0073 d33c 5883 243d 62f8 893c
00000360: b1b9 a23d 5e49 bfbc 74ab 0a3c 216a 44bc
00000370: 9d29 2abe a0bf fabb fe03 d2bd 0516 02bd
00000380: 1243 f9bd 1213 75bd 151c 01be dc1a 873d
00000390: 2b33 31bd e40e 60bc 5bef 90be b94d c2bc
000003a0: 6b08 a1bd 8cb2 1f3d b238 023e 2924 edbc
000003b0: 2200 c43d bae7 24be 9209 633d f2d0 0ebc
000003c0: ed3a 003f 7273 8dbb f64e ea3e c59f 4e3f
000003d0: 9364 ab3e fd38 bd3f f0d9 1d3e 2a74 f23f
000003e0: e8f6 5abd 1394 fd3f 0264 81be 1d98 dc3f
000003f0: 1c85 d1be 9f60 953f 0198 fdbe 38d0 d13e

theta f4 [8001]
0.2 0.2 0.2 0.2 0.2 0.2 0.2 0.2
0.2 0.2 0.2 0.2 0.2 0.2 0.2 0.2
0.2 0.2 0.2 0.2 0.2 0.2 0.2 0.2
0.2 0.2 0.2 0.2 0.2 0.2 0.2 0.2
0.2 0.2 0.2 0.2 0.2 0.2 0.2 0.2
0.2 0.2 0.2 0.2 0.2 0.2 0.2 0.2
0.2 0.2 0.2 0.2 0.2 0.2 0.2 0.2
0.2 0.2 0.2 0.2 0.2 0.2 0.2 0.2
0.2 0.2 0.2 0.2 0.2 0.2 0.2 0.2
0.2 0.2 0.2 0.2 0.2 0.2 0.2 0.2
0.2 0.2 0.2 0.2 0.2 0.2 0.2 0.2
0.2 0.2 0.2 0.2 0.2 0.2 0.2 0.2
0.2 0.2 0.2 0.2 0.2 0.2 0.2 0.2
0.2 0.2 0.2 0.2 0.2 0.2 0.2 0.2
0.2 0.2 0.2 0.2 0.2 0.2 0.2 0.2
0.2 0.2 0.2 0.2 0.2 0.2 0.2 0.2
0.2 0.2 0.2 0.2 0.2 0.2 0.2 0.2
0.2 0.2 0.2 0.2 0.2 0.2 0.2 0.2
0.2 0.2 0.2 0.2 0.2 0.2 0.2 0.2
0.2 0.2 0.2 0.2 0.2 0.2 0.2 0.2
0.2 0.2 0.2 0.2 0.2 0.2 0.2 0.2
0.2 0.2 0.2 0.2 0.2 0.2 0.2 0.2
0.2 0.2 0.2 0.2 0.2 0.2 0.2 0.2
0.2 0.2 0.2 0.2 0.2 0.2 0.2 0.2
0.2 0.2 0.2 0.2 0.2 0.2 0.2 0.2
0.2 0.2 0.2 0.2 0.2 0.2 0.2 0.2
0.2 0.2 0.2 0.2 0.2 0.2 0.2 0.2
0.2 0.2 0.2 0.2 0.2 0.2 0.2 0.2
0.2 0.2 0.2 0.2 0.2 0.2 0.2 0.2
0.2 0.2 0.2 0.2 0.2 0.2 0.2 0.2
0.2 0.2 0.2 0.2 0.2 0.2 0.2 0.2
0.2 0.2 0.2 0.2 0.2 0.2 0.2 0.2
00000000: cdcc 4c3e cdcc 4c3e cdcc 4c3e cdcc 4c3e
00000010: cdcc 4c3e cdcc 4c3e cdcc 4c3e cdcc 4c3e
00000020: cdcc 4c3e cdcc 4c3e cdcc 4c3e cdcc 4c3e
00000030: cdcc 4c3e cdcc 4c3e cdcc 4c3e cdcc 4c3e
00000040: cdcc 4c3e cdcc 4c3e cdcc 4c3e cdcc 4c3e
00000050: cdcc 4c3e cdcc 4c3e cdcc 4c3e cdcc 4c3e
00000060: cdcc 4c3e cdcc 4c3e cdcc 4c3e cdcc 4c3e
00000070: cdcc 4c3e cdcc 4c3e cdcc 4c3e cdcc 4c3e
00000080: cdcc 4c3e cdcc 4c3e cdcc 4c3e cdcc 4c3e
00000090: cdcc 4c3e cdcc 4c3e cdcc 4c3e cdcc 4c3e
000000a0: cdcc 4c3e cdcc 4c3e cdcc 4c3e cdcc 4c3e
000000b0: cdcc 4c3e cdcc 4c3e cdcc 4c3e cdcc 4c3e
000000c0: cdcc 4c3e cdcc 4c3e cdcc 4c3e cdcc 4c3e
000000d0: cdcc 4c3e cdcc 4c3e cdcc 4c3e cdcc 4c3e
000000e0: cdcc 4c3e cdcc 4c3e cdcc 4c3e cdcc 4c3e
000000f0: cdcc 4c3e cdcc 4c3e cdcc 4c3e cdcc 4c3e
00000100: cdcc 4c3e cdcc 4c3e cdcc 4c3e cdcc 4c3e
00000110: cdcc 4c3e cdcc 4c3e cdcc 4c3e cdcc 4c3e
00000120: cdcc 4c3e cdcc 4c3e cdcc 4c3e cdcc 4c3e
00000130: cdcc 4c3e cdcc 4c3e cdcc 4c3e cdcc 4c3e
00000140: cdcc 4c3e cdcc 4c3e cdcc 4c3e cdcc 4c3e
00000150: cdcc 4c3e cdcc 4c3e cdcc 4c3e cdcc 4c3e
00000160: cdcc 4c3e cdcc 4c3e cdcc 4c3e cdcc 4c3e
00000170: cdcc 4c3e cdcc 4c3e cdcc 4c3e cdcc 4c3e
00000180: cdcc 4c3e cdcc 4c3e cdcc 4c3e cdcc 4c3e
00000190: cdcc 4c3e cdcc 4c3e cdcc 4c3e cdcc 4c3e
000001a0: cdcc 4c3e cdcc 4c3e cdcc 4c3e cdcc 4c3e
000001b0: cdcc 4c3e cdcc 4c3e cdcc 4c3e cdcc 4c3e
000001c0: cdcc 4c3e cdcc 4c3e cdcc 4c3e cdcc 4c3e
000001d0: cdcc 4c3e cdcc 4c3e cdcc 4c3e cdcc 4c3e
000001e0: cdcc 4c3e cdcc 4c3e cdcc 4c3e cdcc 4c3e
000001f0: cdcc 4c3e cdcc 4c3e cdcc 4c3e cdcc 4c3e
00000200: cdcc 4c3e cdcc 4c3e cdcc 4c3e cdcc 4c3e
00000210: cdcc 4c3e cdcc 4c3e cdcc 4c3e cdcc 4c3e
00000220: cdcc 4c3e cdcc 4c3e cdcc 4c3e cdcc 4c3e
00000230: cdcc 4c3e cdcc 4c3e cdcc 4c3e cdcc 4c3e
00000240: cdcc 4c3e cdcc 4c3e cdcc 4c3e cdcc 4c3e
00000250: cdcc 4c3e cdcc 4c3e cdcc 4c3e cdcc 4c3e
00000260: cdcc 4c3e cdcc 4c3e cdcc 4c3e cdcc 4c3e
00000270: cdcc 4c3e cdcc 4c3e cdcc 4c3e cdcc 4c3e
00000280: cdcc 4c3e cdcc 4c3e cdcc 4c3e cdcc 4c3e
00000290: cdcc 4c3e cdcc 4c3e cdcc 4c3e cdcc 4c3e
000002a0: cdcc 4c3e cdcc 4c3e cdcc 4c3e cdcc 4c3e
000002b0: cdcc 4c3e cdcc 4c3e cdcc 4c3e cdcc 4c3e
000002c0: cdcc 4c3e cdcc 4c3e cdcc 4c3e cdcc 4c3e
000002d0: cdcc 4c3e cdcc 4c3e cdcc 4c3e cdcc 4c3e
000002e0: cdcc 4c3e cdcc 4c3e cdcc 4c3e cdcc 4c3e
000002f0: cdcc 4c3e cdcc 4c3e cdcc 4c3e cdcc 4c3e
00000300: cdcc 4c3e cdcc 4c3e cdcc 4c3e cdcc 4c3e
00000310: cdcc 4c3e cdcc 4c3e cdcc 4c3e cdcc 4c3e
00000320: cdcc 4c3e cdcc 4c3e cdcc 4c3e cdcc 4c3e
00000330: cdcc 4c3e cdcc 4c3e cdcc 4c3e cdcc 4c3e
00000340: cdcc 4c3e cdcc 4c3e cdcc 4c3e cdcc 4c3e
00000350: cdcc 4c3e cdcc 4c3e cdcc 4c3e cdcc 4c3e
00000360: cdcc 4c3e cdcc 4c3e cdcc 4c3e cdcc 4c3e
00000370: cdcc 4c3e cdcc 4c3e cdcc 4c3e cdcc 4c3e
00000380: cdcc 4c3e cdcc 4c3e cdcc 4c3e cdcc 4c3e
00000390: cdcc 4c3e cdcc 4c3e cdcc 4c3e cdcc 4c3e
000003a0: cdcc 4c3e cdcc 4c3e cdcc 4c3e cdcc 4c3e
000003b0: cdcc 4c3e cdcc 4c3e cdcc 4c3e cdcc 4c3e
000003c0: cdcc 4c3e cdcc 4c3e cdcc 4c3e cdcc 4c3e
000003d0: cdcc 4c3e cdcc 4c3e cdcc 4c3e cdcc 4c3e
000003e0: cdcc 4c3e cdcc 4c3e cdcc 4c3e cdcc 4c3e
000003f0: cdcc 4c3e cdcc 4c3e cdcc 4c3e cdcc 4c3e
