main/bridge_estimation/ellipse_models/tv_theta_iter_3000.npz (npz, 49100 bytes, 3 tensors)

Wt f4 [101, 30]
0.0 0.0 0.0 0.0 0.0 0.0 0.0 0.0
0.0 0.0 0.0 0.0 0.0 0.0 0.0 0.0
0.0 0.0 0.0 0.0 0.0 0.0 0.0 0.0
0.0 0.0 0.0 0.0 0.0 0.0 0.36702555 0.15326804
0.18825506 -0.03932871 0.41807714 -0.08953445 0.34151497 -0.128018 -0.21845728 -0.28335896
-0.033997353 -0.10694988 -0.28007048 0.12923455 0.142001 0.07757855 0.08906862 0.086819276
-0.2352704 -0.040074393 -0.5016148 0.087619066 -0.21001594 -0.035797246 0.049565934 -0.14132538
0.24222551 -0.024533415 0.107125476 0.052668687 0.35742015 0.23368289 0.19999428 0.13914037
0.4279486 -0.17563817 0.5627448 0.06393976 -0.024258278 -0.015376682 -0.2314127 -0.2742434
-0.43258178 0.15552014 0.04745865 -0.052623495 0.14774273 0.21032605 -0.43433157 0.04081438
-1.0733991 0.23039582 -0.16609079 0.11562948 0.39021432 -0.048630994 0.058447797 0.035117343
0.08942783 -0.37134728 0.5275112 0.1818044 0.38634998 0.4566512 0.6903921 0.022178262
0.95503485 -0.1837407 -0.09621805 -0.0905516 -0.49381578 -0.41865936 -0.54603535 0.16787289
-0.32975435 -0.43117115 0.013827778 0.12077701 -0.6847609 0.29130507 -1.1893965 0.13707344
-0.2636956 0.3027238 0.41735044 0.038711693 0.026384864 -0.1134216 0.18119799 -0.3985843
0.54177725 0.10750444 0.34455115 0.54037404 0.8479277 0.04653982 0.8544307 -0.019646695
-0.13444857 -0.33503163 -0.7246947 -0.39666748 -0.57670003 0.19381306 -0.6612914 -0.5688654
-0.1726357 0.15793768 -0.61269206 0.4022102 -1.2723165 0.20136091 -0.33134222 0.3097599
0.8536454 -0.013607892 0.24038452 -0.2940161 0.41416562 -0.33805275 0.6060613 0.053194586
0.4303536 0.49413723 1.1766334 -0.19894049 0.9707928 0.08940594 -0.47778141 -0.48636505
-0.7980504 -0.39998245 -0.43666956 0.2185092 -0.7422425 -0.54985386 -0.33405408 -0.030341407
-0.692186 0.4952067 -1.3795549 0.2788415 -0.46453565 0.2939255 0.9416193 -0.077943146
0.38301736 -0.2440579 0.4825096 -0.36825415 0.8175527 0.0965802 0.31702322 0.5726393
1.1312919 -0.15577574 1.1302422 0.056346975 -0.3803017 -0.5430345 -1.1586919 -0.29534867
-0.56249446 0.22583541 -0.7203185 -0.6362673 -0.54946166 -0.09535101 -0.696152 0.7724602
-1.6641426 0.12489514 -0.45627487 0.2713975 0.9920591 -0.11805458 0.5279207 -0.30105853
0.69049543 -0.67127466 0.693515 0.21860932 0.2611563 0.44298556 1.2396263 0.009709559
1.1212592 0.07687363 -0.70271754 -0.5264486 -1.30876 -0.1279561 -0.54031616 0.07012136
-0.82358307 -0.6495404 -0.76242834 -0.17405486 -0.6436477 0.91762227 -1.7854207 0.30059895
-0.5529927 0.33390886 1.1462122 -0.27739704 0.9309384 -0.10668979 0.8462994 -0.67918694
0.7793992 0.325371 0.5483197 0.39815965 1.5256405 0.15429556 0.94500697 0.032359242
-0.64162946 -0.59187984 -1.3466097 0.3424999 -0.80199337 -0.013154551 -0.7107769 -0.7123643
00000000: 0000 0000 0000 0000 0000 0000 0000 0000
00000010: 0000 0000 0000 0000 0000 0000 0000 0000
00000020: 0000 0000 0000 0000 0000 0000 0000 0000
00000030: 0000 0000 0000 0000 0000 0000 0000 0000
00000040: 0000 0000 0000 0000 0000 0000 0000 0000
00000050: 0000 0000 0000 0000 0000 0000 0000 0000
00000060: 0000 0000 0000 0000 0000 0000 0000 0000
00000070: 0000 0000 0000 0000 c6ea bb3e 4cf2 1c3e
00000080: efc5 403e 2417 21bd 350e d63e d65d b7bd
00000090: 0ddb ae3e 2717 03be 44b3 5fbe 6d14 91be
000000a0: cf40 0bbd 8a08 dbbd 6665 8fbe 1056 043e
000000b0: b668 113e 81e1 9e3d 9c69 b63d 4ece b13d
000000c0: b9ea 70be 0c25 24bd d469 00bf a071 b33d
000000d0: 6b0e 57be 22a0 12bd a605 4b3d 9ab7 10be
000000e0: f709 783e 4dfa c8bc 9a64 db3d 1fbb 573d
000000f0: c6ff b63e 914a 6f3e 4dcb 4c3e d07a 0e3e
00000100: 141c db3e 7eda 33be 0b10 103f d9f2 823d
00000110: 4cb9 c6bc 7bee 7bbc 73f7 6cbe a269 8cbe
00000120: 5c7b ddbe ac40 1f3e 0064 423d bc8b 57bd
00000130: df49 173e b65f 573e b560 debe fb2c 273d
00000140: 2465 89bf e2ec 6b3e b413 2abe 26cf ec3d
00000150: 2cca c73e 4b31 47bd f566 6f3d 34d7 0f3d
00000160: f025 b73d 3b21 bebe f90a 073f ef2a 3a3e
00000170: aacf c53e 30ce e93e 89bd 303f 30af b53c
00000180: 2a7d 743f 8626 3cbe f80d c5bd 1e73 b9bd
00000190: 6cd5 fcbe 855a d6be f9c8 0bbf dfe6 2b3e
000001a0: 90d5 a8be 77c2 dcbe e88d 623c f059 f73d
000001b0: 7e4c 2fbf f025 953e 253e 98bf fb5c 0c3e
000001c0: 1c03 87be 9dfe 9a3e f5ae d53e 2790 1e3d
000001d0: 1225 d83c 9549 e8bd f78b 393e 3e13 ccbe
000001e0: eab1 0a3f 4a2b dc3d 0269 b03e f455 0a3f
000001f0: ca11 593f 8aa0 3e3d f8bb 5a3f 1bf2 a0bc
00000200: e3ac 09be 4489 abbe 9885 39bf 0018 cbbe
00000210: 9da2 13bf ee76 463e 654a 29bf 2aa1 11bf
00000220: 6ac7 30be 6aba 213e 63d9 1cbf 7fee cd3e
00000230: 44db a2bf 8e31 4e3e b0a5 a9be da98 9e3e
00000240: 8188 5a3f a3f3 5ebc 5c27 763e 4789 96be
00000250: 840d d43e 4015 adbe d526 1b3f 91e2 593d
00000260: 4f57 dc3e 8eff fc3e ec9b 963f 0eb7 4bbe
00000270: e085 783f 761a b73d c49f f4be d704 f9be
00000280: 084d 4cbf 80ca ccbe 2793 dfbe e0c0 5f3e
00000290: 9b03 3ebf 39c3 0cbf 2309 abbe 8b8e f8bc
000002a0: 1a33 31bf bc8b fd3e 4195 b0bf 50c4 8e3e
000002b0: 9ed7 edbe 677d 963e f60d 713f a8a0 9fbd
000002c0: da1a c43e 50ea 79be 800b f73e cf8b bcbe
000002d0: 224b 513f d7cb c53d de50 a23e 7d98 123f
000002e0: 2cce 903f ad83 1fbe c7ab 903f 16cc 663d
000002f0: e8b6 c2be 4f04 0bbf 0450 94bf f137 97be
00000300: a3ff 0fbf 6641 673e cb66 38bf 6ae2 22bf
00000310: 85a9 0cbf 6447 c3bd 0437 32bf f4bf 453f
00000320: a002 d5bf 06c9 ff3d dc9c e9be 9df4 8a3e
00000330: 96f7 7d3f 9ac6 f1bd d025 073f 5824 9abe
00000340: 4fc4 303f a8d8 2bbf 338a 313f 1fdb 5f3e
00000350: 47b6 853e 01cf e23e 13ac 9e3f d814 1f3c
00000360: 6c85 8f3f ec6f 9d3d 4ce5 33bf 56c5 06bf
00000370: 7385 a7bf ed06 03be 2952 0abf ca9b 8f3d
00000380: 57d6 52bf 4848 26bf 812e 43bf 703b 32be
00000390: 18c6 24bf 4be9 6a3f aa88 e4bf 1be8 993e
000003a0: ee90 0dbf 1af6 aa3e 15b7 923f fc06 8ebe
000003b0: fb51 6e3f 2d80 dabd 14a7 583f 32df 2dbf
000003c0: b586 473f 0797 a63e ae5e 0c3f 95db cb3e
000003d0: 3048 c33f a8ff 1d3e faeb 713f 208b 043d
000003e0: d441 24bf 7085 17bf b55d acbf 265c af3e
000003f0: 704f 4dbf 3086 57bc 7af5 35bf 825d 36bf

Xt f4 [101, 60]
0.5 0.0 0.4567727 0.81347334 0.33456528 1.4862897 0.15450843 1.9021131
-0.052264314 1.9890437 -0.25000003 1.7320508 -0.4045086 1.17557 -0.48907384 0.41582274
-0.48907375 -0.41582403 -0.40450838 -1.1755711 -0.24999996 -1.7320509 -0.05226417 -1.9890438
0.15450878 -1.9021126 0.33456555 -1.4862888 0.45677286 -0.8134721 0.0 0.0
0.0 0.0 0.0 0.0 0.0 0.0 0.0 0.0
0.0 0.0 0.0 0.0 0.0 0.0 0.0 0.0
0.0 0.0 0.0 0.0 0.0 0.0 0.0 0.0
0.0 0.0 0.0 0.0 0.5 0.0 0.4567727 0.81347334
0.33456528 1.4862897 0.15450843 1.9021131 -0.052264314 1.9890437 -0.25000003 1.7320508
-0.4045086 1.17557 -0.48907384 0.41582274 -0.48907375 -0.41582403 -0.40450838 -1.1755711
-0.24999996 -1.7320509 -0.05226417 -1.9890438 0.15450878 -1.9021126 0.33456555 -1.4862888
0.45677286 -0.8134721 0.11501554 0.039573606 0.05278063 -0.01015469 0.11759264 -0.023117837
0.11280528 -0.033054125 -0.06480845 -0.07316291 -0.03521005 -0.02761432 -0.07056897 0.033368442
0.02118896 0.020030675 0.0075152116 0.0224166 -0.05900536 -0.010347284 -0.1559455 0.022623125
-0.06263511 -0.009242971 0.037439603 -0.03649014 0.072200835 -0.0063345004 0.031834215 0.013598946
0.50367683 0.0008390772 0.46098095 0.8130429 0.3380372 1.4844186 0.15705937 1.8997331
-0.050228253 1.9866565 -0.24806976 1.7299696 -0.40245724 1.1745946 -0.48708308 0.41638294
-0.48848078 -0.4148583 -0.40613952 -1.1752197 -0.25256807 -1.732221 -0.054695625 -1.9893986
0.15253869 -1.9024513 0.3337057 -1.4863172 0.4582077 -0.8128078 0.12682621 0.05795044
0.05663705 0.03648763 0.12262638 -0.043981574 0.18964548 0.019062966 -0.021589655 -5.4471195e-05
-0.10911017 -0.069129884 -0.105069585 0.03831689 -0.019603932 -0.015056379 0.00553035 0.05329562
-0.10427397 0.010869305 -0.3219057 0.058740914 -0.055299584 0.030298768 0.1476529 -0.010644859
0.03085005 0.00967601 0.02903783 -0.09711091 0.5062495 0.0016978274 0.46478486 0.81358343
0.34172332 1.4841522 0.16009071 1.8990854 -0.04781255 1.9859362 -0.24620643 1.7293743
-0.40128475 1.174586 -0.48673543 0.4172817 -0.49025968 -0.41349655 -0.41070655 -1.1737131
-0.2577599 -1.7307234 -0.059241787 -1.9880507 0.14857906 -1.9012758 0.33073702 -1.4854385
0.45779583 -0.8121788 0.1838433 0.04101284 0.10599573 0.11613074 0.19214405 0.009709906
0.3062719 -0.045863982 -0.04925459 -0.018685777 -0.19652942 -0.103601664 -0.12679546 0.04072635
-0.1312947 -0.11319679 -0.04696838 0.0280714 -0.159127 0.07404712 -0.36101556 0.031867452
-0.08504791 0.07693399 0.17141123 0.011455318 0.03041775 -0.02808417 0.055568203 -0.09912894
0.5090136 0.0022149212 0.46963486 0.81391287 0.34677696 1.4833007 0.1642683 1.8974332
-0.0446188 1.9840068 -0.24408963 1.7274446 -0.4008395 1.173129 -0.48832002 0.41665867
00000000: 0000 003f 0000 0000 1dde e93e ca3f 503f
00000010: 244c ab3e be3e be3f 7537 1e3e 7178 f33f
00000020: 1b13 56bd fc98 fe3f 0100 80be d7b3 dd3f
00000030: c01b cfbe 1479 963f e367 fabe b8e6 d43e
00000040: e067 fabe e3e6 d4be b91b cfbe 1d79 96bf
00000050: fdff 7fbe d8b3 ddbf f412 56bd fd98 febf
00000060: 8d37 1e3e 6d78 f3bf 2d4c ab3e b63e bebf
00000070: 22de e93e b53f 50bf 0000 0000 0000 0000
00000080: 0000 0000 0000 0000 0000 0000 0000 0000
00000090: 0000 0000 0000 0000 0000 0000 0000 0000
000000a0: 0000 0000 0000 0000 0000 0000 0000 0000
000000b0: 0000 0000 0000 0000 0000 0000 0000 0000
000000c0: 0000 0000 0000 0000 0000 0000 0000 0000
000000d0: 0000 0000 0000 0000 0000 0000 0000 0000
000000e0: 0000 0000 0000 0000 0000 0000 0000 0000
000000f0: 0000 003f 0000 0000 1dde e93e ca3f 503f
00000100: 244c ab3e be3e be3f 7537 1e3e 7178 f33f
00000110: 1b13 56bd fc98 fe3f 0100 80be d7b3 dd3f
00000120: c01b cfbe 1479 963f e367 fabe b8e6 d43e
00000130: e067 fabe e3e6 d4be b91b cfbe 1d79 96bf
00000140: fdff 7fbe d8b3 ddbf f412 56bd fd98 febf
00000150: 8d37 1e3e 6d78 f3bf 2d4c ab3e b63e bebf
00000160: 22de e93e b53f 50bf 448d eb3d ef17 223d
00000170: 8030 583d db5f 26bc 69d4 f03d 9e61 bdbc
00000180: 7406 e73d c363 07bd 4bba 84bd 70d6 95bd
00000190: 6a38 10bd 6d37 e2bc 7786 90bd 59ad 083d
000001a0: 7894 ad3c 5f17 a43c 2a42 f63b 04a3 b73c
000001b0: 9baf 71bd a887 29bc 2db0 1fbe 2254 b93c
000001c0: d646 80bd d56f 17bc 455a 193d af76 15bd
000001d0: 08de 933d a491 cfbb 9864 023d 1dce 5e3c
000001e0: f7f0 003f 85f5 5b3a b205 ec3e 9423 503f
000001f0: 3613 ad3e 6e01 be3f 2cd4 203e 742a f33f
00000200: 24bc 4dbd c34a fe3f 0006 7ebe a56f dd3f
00000210: e00e cebe 1e59 963f f462 f9be 2530 d53e
00000220: 271a fabe 4f68 d4be 85f1 cfbe 996d 96bf
00000230: 9a50 81be 6bb9 ddbf 8508 60bd 9da4 febf
00000240: 1a33 1c3e 8683 f3bf 79db aa3e a43f bebf
00000250: 339a ea3e 2c14 50bf bbde 013e 715d 6d3d
00000260: 40fc 673d 0e74 153d 8a23 fb3d 0626 34bd
00000270: 6d32 423e f029 9c3c cadc b0bc 0078 64b8
00000280: 2775 dfbd f893 8dbd b92e d7bd 2cf2 1c3d
00000290: 6d98 a0bc 08af 76bc f037 b53b 824c 5a3d
000002a0: 978d d5bd 2b15 323c d3d0 a4be 509a 703d
000002b0: d181 62bd 1f35 f83c 5232 173e c667 2ebc
000002c0: 3eb9 fc3c 2188 1e3c bee0 ed3c 16e2 c6bd
000002d0: 9199 013f a289 de3a 48f8 ed3e 0147 503f
000002e0: 5cf6 ae3e b3f8 bd3f d2ee 233e 3b15 f33f
000002f0: 18d7 43bd 2833 fe3f 8a1d 7cbe 235c dd3f
00000300: 3275 cdbe d658 963f 6335 f9be f2a5 d53e
00000310: 5103 fbbe d2b5 d3be 2148 d2be 3b3c 96bf
00000320: 1bf9 83be 5888 ddbf 84a7 72bd 7278 febf
00000330: 1c25 183e 015d f3bf 5d56 a93e d922 bebf
00000340: 3764 ea3e f3ea 4fbf 6b41 3c3e 14fd 273d
00000350: 4a14 d93d f4d5 ed3d 69c1 443e 4c16 1f3c
00000360: accf 9c3e dfdb 3bbd 2ebf 49bd ea12 99bc
00000370: 023f 49be 1c2d d4bd abd6 01be acd0 263d
00000380: 1e72 06be b8d3 e7bd eb61 40bd fef5 e53c
00000390: 30f2 22be 04a6 973d 08d7 b8be 7287 023d
000003a0: 992d aebd 918f 9d3d 6d86 2f3e 16af 3b3c
000003b0: a52e f93c c610 e6bc 7c9b 633d 1d04 cbbd
000003c0: b74e 023f 3628 113b fb73 f03e 985c 503f
000003d0: c08c b13e ccdc bd3f f335 283e 17df f23f
000003e0: 34c2 36bd eff3 fd3f a2f2 79be e81c dd3f
000003f0: d63a cdbe 1729 963f 1505 fabe 4954 d53e

theta f4 [3001]
0.2 0.2 0.2 0.2 0.2 0.2 0.2 0.2
0.2 0.2 0.2 0.2 0.2 0.2 0.2 0.2
0.2 0.2 0.2 0.2 0.2 0.2 0.2 0.2
0.2 0.2 0.2 0.2 0.2 0.2 0.2 0.2
0.2 0.2 0.2 0.2 0.2 0.2 0.2 0.2
0.2 0.2 0.2 0.2 0.2 0.2 0.2 0.2
0.2 0.2 0.2 0.2 0.2 0.2 0.2 0.2
0.2 0.2 0.2 0.2 0.2 0.2 0.2 0.2
0.2 0.2 0.2 0.2 0.2 0.2 0.2 0.2
0.2 0.2 0.2 0.2 0.2 0.2 0.2 0.2
0.2 0.2 0.2 0.2 0.2 0.2 0.2 0.2
0.2 0.2 0.2 0.2 0.2 0.2 0.2 0.2
0.2 0.2 0.2 0.2 0.2 0.2 0.2 0.2
0.2 0.2 0.2 0.2 0.2 0.2 0.2 0.2
0.2 0.2 0.2 0.2 0.2 0.2 0.2 0.2
0.2 0.2 0.2 0.2 0.2 0.2 0.2 0.2
0.2 0.2 0.2 0.2 0.2 0.2 0.2 0.2
0.2 0.2 0.2 0.2 0.2 0.2 0.2 0.2
0.2 0.2 0.2 0.2 0.2 0.2 0.2 0.2
0.2 0.2 0.2 0.2 0.2 0.2 0.2 0.2
0.2 0.2 0.2 0.2 0.2 0.2 0.2 0.2
0.2 0.2 0.2 0.2 0.2 0.2 0.2 0.2
0.2 0.2 0.2 0.2 0.2 0.2 0.2 0.2
0.2 0.2 0.2 0.2 0.2 0.2 0.2 0.2
0.2 0.2 0.2 0.2 0.2 0.2 0.2 0.2
0.2 0.2 0.2 0.2 0.2 0.2 0.2 0.2
0.2 0.2 0.2 0.2 0.2 0.2 0.2 0.2
0.2 0.2 0.2 0.2 0.2 0.2 0.2 0.2
0.2 0.2 0.2 0.2 0.2 0.2 0.2 0.2
0.2 0.2 0.2 0.2 0.2 0.2 0.2 0.2
0.2 0.2 0.2 0.2 0.2 0.2 0.2 0.2
0.2 0.2 0.2 0.2 0.2 0.2 0.2 0.2
00000000: cdcc 4c3e cdcc 4c3e cdcc 4c3e cdcc 4c3e
00000010: cdcc 4c3e cdcc 4c3e cdcc 4c3e cdcc 4c3e
00000020: cdcc 4c3e cdcc 4c3e cdcc 4c3e cdcc 4c3e
00000030: cdcc 4c3e cdcc 4c3e cdcc 4c3e cdcc 4c3e
00000040: cdcc 4c3e cdcc 4c3e cdcc 4c3e cdcc 4c3e
00000050: cdcc 4c3e cdcc 4c3e cdcc 4c3e cdcc 4c3e
00000060: cdcc 4c3e cdcc 4c3e cdcc 4c3e cdcc 4c3e
00000070: cdcc 4c3e cdcc 4c3e cdcc 4c3e cdcc 4c3e
00000080: cdcc 4c3e cdcc 4c3e cdcc 4c3e cdcc 4c3e
00000090: cdcc 4c3e cdcc 4c3e cdcc 4c3e cdcc 4c3e
000000a0: cdcc 4c3e cdcc 4c3e cdcc 4c3e cdcc 4c3e
000000b0: cdcc 4c3e cdcc 4c3e cdcc 4c3e cdcc 4c3e
000000c0: cdcc 4c3e cdcc 4c3e cdcc 4c3e cdcc 4c3e
000000d0: cdcc 4c3e cdcc 4c3e cdcc 4c3e cdcc 4c3e
000000e0: cdcc 4c3e cdcc 4c3e cdcc 4c3e cdcc 4c3e
000000f0: cdcc 4c3e cdcc 4c3e cdcc 4c3e cdcc 4c3e
00000100: cdcc 4c3e cdcc 4c3e cdcc 4c3e cdcc 4c3e
00000110: cdcc 4c3e cdcc 4c3e cdcc 4c3e cdcc 4c3e
00000120: cdcc 4c3e cdcc 4c3e cdcc 4c3e cdcc 4c3e
00000130: cdcc 4c3e cdcc 4c3e cdcc 4c3e cdcc 4c3e
00000140: cdcc 4c3e cdcc 4c3e cdcc 4c3e cdcc 4c3e
00000150: cdcc 4c3e cdcc 4c3e cdcc 4c3e cdcc 4c3e
00000160: cdcc 4c3e cdcc 4c3e cdcc 4c3e cdcc 4c3e
00000170: cdcc 4c3e cdcc 4c3e cdcc 4c3e cdcc 4c3e
00000180: cdcc 4c3e cdcc 4c3e cdcc 4c3e cdcc 4c3e
00000190: cdcc 4c3e cdcc 4c3e cdcc 4c3e cdcc 4c3e
000001a0: cdcc 4c3e cdcc 4c3e cdcc 4c3e cdcc 4c3e
000001b0: cdcc 4c3e cdcc 4c3e cdcc 4c3e cdcc 4c3e
000001c0: cdcc 4c3e cdcc 4c3e cdcc 4c3e cdcc 4c3e
000001d0: cdcc 4c3e cdcc 4c3e cdcc 4c3e cdcc 4c3e
000001e0: cdcc 4c3e cdcc 4c3e cdcc 4c3e cdcc 4c3e
000001f0: cdcc 4c3e cdcc 4c3e cdcc 4c3e cdcc 4c3e
00000200: cdcc 4c3e cdcc 4c3e cdcc 4c3e cdcc 4c3e
00000210: cdcc 4c3e cdcc 4c3e cdcc 4c3e cdcc 4c3e
00000220: cdcc 4c3e cdcc 4c3e cdcc 4c3e cdcc 4c3e
00000230: cdcc 4c3e cdcc 4c3e cdcc 4c3e cdcc 4c3e
00000240: cdcc 4c3e cdcc 4c3e cdcc 4c3e cdcc 4c3e
00000250: cdcc 4c3e cdcc 4c3e cdcc 4c3e cdcc 4c3e
00000260: cdcc 4c3e cdcc 4c3e cdcc 4c3e cdcc 4c3e
00000270: cdcc 4c3e cdcc 4c3e cdcc 4c3e cdcc 4c3e
00000280: cdcc 4c3e cdcc 4c3e cdcc 4c3e cdcc 4c3e
00000290: cdcc 4c3e cdcc 4c3e cdcc 4c3e cdcc 4c3e
000002a0: cdcc 4c3e cdcc 4c3e cdcc 4c3e cdcc 4c3e
000002b0: cdcc 4c3e cdcc 4c3e cdcc 4c3e cdcc 4c3e
000002c0: cdcc 4c3e cdcc 4c3e cdcc 4c3e cdcc 4c3e
000002d0: cdcc 4c3e cdcc 4c3e cdcc 4c3e cdcc 4c3e
000002e0: cdcc 4c3e cdcc 4c3e cdcc 4c3e cdcc 4c3e
000002f0: cdcc 4c3e cdcc 4c3e cdcc 4c3e cdcc 4c3e
00000300: cdcc 4c3e cdcc 4c3e cdcc 4c3e cdcc 4c3e
00000310: cdcc 4c3e cdcc 4c3e cdcc 4c3e cdcc 4c3e
00000320: cdcc 4c3e cdcc 4c3e cdcc 4c3e cdcc 4c3e
00000330: cdcc 4c3e cdcc 4c3e cdcc 4c3e cdcc 4c3e
00000340: cdcc 4c3e cdcc 4c3e cdcc 4c3e cdcc 4c3e
00000350: cdcc 4c3e cdcc 4c3e cdcc 4c3e cdcc 4c3e
00000360: cdcc 4c3e cdcc 4c3e cdcc 4c3e cdcc 4c3e
00000370: cdcc 4c3e cdcc 4c3e cdcc 4c3e cdcc 4c3e
00000380: cdcc 4c3e cdcc 4c3e cdcc 4c3e cdcc 4c3e
00000390: cdcc 4c3e cdcc 4c3e cdcc 4c3e cdcc 4c3e
000003a0: cdcc 4c3e cdcc 4c3e cdcc 4c3e cdcc 4c3e
000003b0: cdcc 4c3e cdcc 4c3e cdcc 4c3e cdcc 4c3e
000003c0: cdcc 4c3e cdcc 4c3e cdcc 4c3e cdcc 4c3e
000003d0: cdcc 4c3e cdcc 4c3e cdcc 4c3e cdcc 4c3e
000003e0: cdcc 4c3e cdcc 4c3e cdcc 4c3e cdcc 4c3e
000003f0: cdcc 4c3e cdcc 4c3e cdcc 4c3e cdcc 4c3e
