main/bridge_estimation/simple_models/ms_theta_iter_4500.npz (npz, 22376 bytes, 3 tensors)

Wt f4 [101, 3]
00000000: 0000 0000 0000 0000 0000 0000 2317 7c3e
00000010: e2e6 bebd 7e97 e9bd 562e c0bd abe7 17be
00000020: 32c3 7a3b ebcf 85bc 0502 a1be 2e67 86bd
00000030: daf4 6bbd 88be 63be 57d0 8ebe c165 383d
00000040: 2b47 4ebe 755f 5dbe 7e7e 0abe 9bdf 87be
00000050: c751 78be d72b 36be 6c5c 55be 0059 7ebe
00000060: 9da4 31bd 4161 44be 1007 16be 6a2b 19be
00000070: 6d1e 70be 849b 96bc d781 ca3d 270d dabd
00000080: aad9 47be 8cf6 00be f015 08bc 87cd 88be
00000090: b623 14be 6ea6 b4bd df0f 7bbd 00ac 00be
000000a0: 841b c7bd 6feb 9bbd 3c4a c3bd aeba e03d
000000b0: 6207 4c3d b67c cabc 345e ba3e 4a33 2fbe
000000c0: c047 363b 4bdc 7f3e 7ec3 0cbe 7f2a e73d
000000d0: d4ae 7b3c 2fee 34be a24a b33e 2dcc bfbd
000000e0: eaa2 79be e0a0 c63e aabb 01be d7b0 28be
000000f0: 383b ae3e 9007 96be 809f 48be 7262 be3e
00000100: e413 a2be 36ce 9ebe 50e9 043f 9e91 a5be
00000110: 7520 ddbd faec 003f 3d1f 16be 4cf0 9cbd
00000120: b90e 383f 8a56 10bd eaad ebbc a4eb 653f
00000130: 284e 64bd 229a acbd f0ef 613f 77f7 d1bd
00000140: c69f 8abd 543b 4e3f 5293 90be 4ed7 0dbd
00000150: 719d 1c3f d5bc 15be 02ba 9ebd 9658 fd3e
00000160: 05fd f2bd 26b9 16bd 3405 f43e 4efb 6a3d
00000170: 5416 333d dc13 ca3e 7415 bebd 9f72 843d
00000180: 369d e73e cfbb 99bd 8f65 fc3d 66e2 af3e
00000190: 04d0 76be 6cb1 8d3e ae82 973e ba91 ffbd
000001a0: 12bb a43e 64f6 023f 6615 2dbe dbbe 063f
000001b0: f156 0e3f d9a1 62bd 18a6 d83e de1a d93e
000001c0: 44f6 4dbd 9ea0 fd3e bead fa3e 1a2b f93d
000001d0: 0d24 103f e866 cd3e c886 b93d b6a4 fe3e
000001e0: 7912 ec3e e6ba 8e3d 8ea7 a63e dcde d63e
000001f0: c068 00bd 8b21 9a3e 1f75 983e 5837 3fbe
00000200: cddd cc3e a096 843e 22f2 fbbd 45d5 0b3f
00000210: 5dd4 a13e 28fe 62bd 1790 163f bc26 d63d
00000220: da70 84bd efea ec3e 0815 4e3d 8a6e f63d
00000230: c144 f43e 831f fcbd 427a 8a3d 243f fc3e
00000240: 50b1 aebe 01ab 923d 8c1c 003f 4f35 c7be
00000250: 0030 c6b9 1220 153f 55c1 afbe 51e1 923d
00000260: 85ef 293f 8f18 84be 3873 413e 3bf5 113f
00000270: 0d83 b4be d812 f83d a0b7 413f 2a54 c9be
00000280: ce12 533e b050 623f ea81 dbbe 1791 573e
00000290: b933 683f 60fc c3be 40e7 8b3e bce1 4e3f
000002a0: d6c0 fcbe cbbf 913e 7501 7b3f cb59 89be
000002b0: 05e4 563e 00f4 903f 8d33 0ebe dbb7 853e
000002c0: c81a 8d3f bb4e f9bd 60f3 913e daae 5c3f
000002d0: e8f3 08bb e786 d93e c975 473f d41c e23d
000002e0: 3109 e13e 2af4 5a3f 1cdb 263e ce16 d83e
000002f0: b236 523f c2f5 3b3e a280 e73e d47b 593f
00000300: ef36 3b3e 6759 be3e f45d 633f dbbe febc
00000310: c742 b43e 70c5 7b3f f8bf aabd 3617 a03e
00000320: 4c18 5e3f 99fb 71bd 0a77 823e 25a0 6f3f
00000330: c166 ad3d 2de7 8b3e 1a03 763f a5c1 18bd
00000340: d5cf 873e 7c60 6a3f 5f13 7f3d 8a5f 923e
00000350: d688 843f b63c a8bd 40fe 3b3e f365 863f
00000360: 1af1 c9bd 0944 813e 21a2 893f f408 1dbd
00000370: 9bb1 9f3e 0790 713f 0c12 7bbd e1ac b93e
00000380: 5448 703f 9616 f0bd 5804 4e3e c788 713f
00000390: 8cc4 9ebd 7f59 a83d 5ce0 663f 4a9f 0d3d
000003a0: 0309 cf3d 4dfb 7a3f d9a4 9b3d 963c 333e
000003b0: b8af 7a3f 4035 003e 77c6 443e e5e4 713f
000003c0: 9527 633e 3605 593e ff98 5f3f c5d8 8e3e
000003d0: 8e07 953e 4831 713f c860 cb3e 2300 843e
000003e0: b5ca 683f b6d5 cf3e d738 983e edf4 6f3f
000003f0: 5911 e13e 7e8c 733e fc89 513f 5252 e43e
0.0 0.0 0.0 0.24618201 -0.09321381 -0.11405848 -0.09383838 -0.14834468
0.0038263318 -0.016334495 -0.31446853 -0.06562649 -0.057606556 -0.2224065 -0.27893326 0.045018915
-0.20144336 -0.21618445 -0.13524815 -0.26537785 -0.24249946 -0.17790161 -0.20836037 -0.24838638
-0.043369878 -0.19177724 -0.14651132 -0.14957967 -0.23449107 -0.018384703 0.09888046 -0.1064704
-0.19516626 -0.1259405 -0.008306012 -0.26719305 -0.14466748 -0.088208064 -0.061294433 -0.12565613
-0.09722045 -0.07613265 -0.095356435 0.10973106 0.04981173 -0.02471767 0.36399996 -0.17109409
0.0027813762 0.24986379 -0.1374645 0.11287402 0.0153615065 -0.17668985 0.35017878 -0.09365115
-0.24378553 0.38794613 -0.12669244 -0.16473709 0.34029555 -0.29302645 -0.19592094 0.37184483
-0.316558 -0.310167 0.51918507 -0.3233766 -0.10797206 0.503616 -0.14660354 -0.076630205
0.71897465 -0.03523878 -0.028769452 0.89812684 -0.055738598 -0.08427836 0.8825674 -0.10252278
-0.067687556 0.8055928 -0.28237396 -0.03462916 0.61177737 -0.14622815 -0.07750322 0.49481648
-0.11864666 -0.036797665 0.4766022 0.05736857 0.043722466 0.39468277 -0.092814356 0.06467175
0.4523713 -0.07506525 0.12324058 0.34352416 -0.24102789 0.27674425 0.29591888 -0.12478967
0.32173973 0.5115721 -0.16902694 0.5263497 0.5560141 -0.05533013 0.4231422 0.4240331
-0.050283685 0.49536604 0.4896068 0.12166424 0.5630501 0.40117574 0.090589106 0.4973504
0.46107844 0.06969242 0.3254971 0.41966903 -0.031349897 0.30103716 0.29776856 -0.18673456
0.4001297 0.25896168 -0.123020425 0.546223 0.31607333 -0.055418164 0.58813614 0.10456607
-0.06466837 0.4627299 0.050313026 0.120328024 0.47708705 -0.12310698 0.067616 0.49266922
-0.34119654 0.07161523 0.5004356 -0.3890786 -0.00037801266 0.5825206 -0.34327188 0.07171882
0.663811 -0.25799987 0.18891609 0.57014817 -0.35256234 0.12112969 0.75670815 -0.39322025
0.20612642 0.8840437 -0.42872554 0.21051441 0.9070392 -0.38278484 0.27324867 0.80813193
-0.49365872 0.2846664 0.980491 -0.2682632 0.2098542 1.1324463 -0.13886853 0.26116833
1.1023798 -0.1217322 0.28505993 0.862043 -0.0020897333 0.42485735 0.779141 0.11040655
0.43952325 0.85528815 0.16294521 0.422049 0.8211471 0.18355468 0.45215327 0.8495457
0.18282674 0.37177584 0.88815236 -0.031096866 0.35207197 0.9834814 -0.083373964 0.3126771
0.86755824 -0.059077833 0.25481445 0.93603736 0.084668644 0.2732481 0.9609848 -0.03729405
0.2652575 0.91553473 0.062274333 0.28588516 1.0354259 -0.08214705 0.18358707 1.0499862
-0.098604396 0.2524722 1.0752603 -0.038338616 0.3119019 0.94360393 -0.061296508 0.3626471
0.93860364 -0.11723058 0.20118845 0.9434933 -0.07752332 0.08220195 0.90186095 0.034575738
0.10109141 0.98039705 0.075998016 0.1750358 0.97924376 0.12520313 0.19216333 0.9448989
0.22183068 0.21193394 0.8734283 0.27899757 0.29107326 0.9421582 0.39722276 0.25781354
0.90934306 0.40592736 0.29730865 0.937331 0.43958548 0.23784062 0.8185117 0.44594055

Xt f4 [101, 6]
00000000: 0000 00bf 0000 0000 cdcc cc3d c323 dbbe
00000010: 91ae 0c3f 1818 853f 4420 02bf ced3 e73c
00000020: b008 053e 74ee 82be 1887 d83e 1a7c 7e3f
00000030: bc64 03bf 324f 593d fe40 203e d215 debe
00000040: 1c96 ab3e 8f07 8a3f 5f8c 05bf b1ef 9d3d
00000050: 4f5f 3b3e b556 b7be c243 423e 9fe8 853f
00000060: 6650 07bf 1fa7 c73d da26 533e a600 b6be
00000070: b2cd 583e 8af0 6c3f dc0c 09bf fd98 ed3d
00000080: e9a5 683e 01d4 89be e191 443e 6fbe 783f
00000090: 095a 0abf 8bc9 093e 9978 7e3e 3cf2 b3be
000000a0: 8654 fc3d 1469 763f a608 0cbf 1cf6 1a3e
000000b0: 4a66 893e c314 b2be 6014 073e b768 763f
000000c0: 49ae 0dbf 97f1 2b3e 5e82 933e 4308 77be
000000d0: a69f eb3d fa29 833f 94cf 0ebf 8529 3d3e
000000e0: c0f4 9d3e d18a 8fbe a643 823d c667 8c3f
000000f0: 201c 10bf 510e 4e3e b893 a83e 24ae e3bd
00000100: c67e eb3d 6b38 7c3f 889e 10bf cedf 5d3e
00000110: 1868 b23e 8621 68be 8a9b 123e 387b 713f
00000120: 7ba5 11bf 0c3d 6d3e 93ec bb3e 6f70 5bbe
00000130: e00a 843d db59 883f 409b 12bf 6f6c 7c3e
00000140: ade4 c53e 7c96 38be b112 093d 6a10 863f
00000150: a067 13bf 842e 853e 3c62 cf3e 5edf 10be
00000160: ba78 053e 2a0e 8e3f 2c06 14bf 4b26 8d3e
00000170: eee6 d93e 6c20 a7bd 4092 743e c6ca 783f
00000180: 8e60 14bf f6fa 943e 54ba e33e aa04 4fbd
00000190: 3568 f83d af81 7e3f df97 14bf b9ba 9b3e
000001a0: ddec ec3e 2cc1 d73c 8265 56bd 9c7a 773f
000001b0: 647b 14bf 8da3 a03e 62cd f43e d943 2f3e
000001c0: 0aad 06be 85a1 6a3f 8ec4 13bf fb65 a43e
000001d0: 17c1 fb3e 1240 423e 7911 21be e371 733f
000001e0: 66fc 12bf 64e8 a73e 2c66 013f ba12 213e
000001f0: 58eb 83be 7ed8 6a3f 7e58 12bf 2a35 aa3e
00000200: 0084 043f 1b24 313e 8cd7 86be 4c92 553f
00000210: 80a6 11bf d7db ab3e 2146 073f c81d 823e
00000220: a80f 85be be03 713f 5aa4 10bf 3fcc ad3e
00000230: 1675 0a3f e70a 703e 8492 1abe b9ab 703f
00000240: 4db9 0fbf 0c57 b03e 32d7 0d3f 52c9 b23e
00000250: 9e86 c2bd 97f1 733f be5f 0ebf 0f20 b33e
00000260: 4859 113f babc dd3e 7237 fdbd 8229 683f
00000270: d8b8 0cbf f04b b53e 7d98 143f 3a16 cb3e
00000280: adef 28be c8b1 673f b73a 0bbf 2bef b63e
00000290: 38bd 173f 1047 a73e 6de6 8ebe 2e41 693f
000002a0: 3f04 0abf e286 b73e 95b6 1a3f 00eb 463e
000002b0: 9932 4abe c65f 5e3f 324e 09bf 1c62 b83e
000002c0: aba1 1d3f 0a48 ef3d cd9c 42be 75a3 613f
000002d0: 3be2 08bf 1422 b93e 9195 203f 9493 d23d
000002e0: f3d9 cabd 318c 6a3f 9184 08bf 436b ba3e
000002f0: a3bc 233f 6c81 593d 06e2 55be 1180 6a3f
00000300: e454 08bf 8fbf ba3e b3be 263f fef5 b43d
00000310: f9c6 56be 681c 6f3f b706 08bf 02ec ba3e
00000320: 68ca 293f 0409 c73c 4ac5 a2be 40a2 803f
00000330: 8af1 07bf 054b ba3e 28f8 2c3f e074 c03a
00000340: 9c8a 80be 9f64 803f 47f0 07bf 0eec b93e
00000350: 402b 303f da2a 083e 29a4 92be 072c 8c3f
00000360: dc7f 07bf 7341 b93e 0aa0 333f 8c0e 1d3e
00000370: 9ae3 68be c0b1 7f3f 3400 07bf 93b5 b83e
00000380: 2dc4 363f 6fac 8e3d c6de 75be b4cf 813f
00000390: 22c7 06bf 6cf8 b73e caea 393f ecde dc3d
000003a0: 8c32 20be 651f 833f 3370 06bf 16a8 b73e
000003b0: 6c17 3d3f 8b51 5a3d 2306 4ebe 7ffc 743f
000003c0: ef45 06bf 26ef b63e 3000 403f 41bb b73d
000003d0: f879 72be 025d 553f f8ff 05bf 26df b53e
000003e0: 5a7c 423f a0fe 823d 0909 a2be 6a84 4e3f
000003f0: edce 05bf ee48 b43e 65d7 443f 309b babb
-0.5 0.0 0.1 -0.42800722 0.5495387 1.0397978 -0.50830483 0.028299239
0.12991595 -0.2557255 0.42290568 0.99408114 -0.51325583 0.053054042 0.15649793 -0.43376023
0.33512962 1.0783557 -0.52167314 0.07711733 0.18298076 -0.3580834 0.1897116 1.0461615
-0.52857053 0.09748673 0.2062029 -0.3554737 0.21172217 0.92554533 -0.53535247 0.11601446
0.2271954 -0.2691956 0.19196273 0.9716558 -0.5404363 0.13455789 0.24850692 -0.35145748
0.12320809 0.96254086 -0.54700696 0.15132946 0.26835853 -0.34781465 0.13191366 0.9625353
-0.55344063 0.16791378 0.288104 -0.24124245 0.1150506 1.0247185 -0.5578549 0.1847287
0.30850792 -0.28035596 0.06360559 1.0969169 -0.56292915 0.20122649 0.329252 -0.11117199
0.114987895 0.98523587 -0.564919 0.21667406 0.34845042 -0.22669038 0.14317146 0.9432864
-0.5689313 0.23167819 0.3670393 -0.21429609 0.06447387 1.0652422 -0.5726814 0.24650739
0.38651028 -0.18026155 0.03346509 1.0473759 -0.57579994 0.2601205 0.40504634 -0.14147708
0.13034335 1.1098073 -0.5782192 0.27568278 0.42558998 -0.08160481 0.23883915 0.9718441
-0.5795983 0.29097718 0.44478095 -0.050541557 0.12129251 0.9941663 -0.58044237 0.30415896
0.46274462 0.026337229 -0.0523429 0.9667146 -0.5800078 0.3137478 0.47812945 0.17115726
-0.13151947 0.9165271 -0.57721794 0.32109055 0.49170753 0.18969753 -0.15729322 0.9509565
-0.5741638 0.32794487 0.50546527 0.157298 -0.2576549 0.9173659 -0.5716628 0.33243686
0.51763916 0.1729893 -0.26336324 0.83426356 -0.56894684 0.33566162 0.52841383 0.25413346
-0.25988507 0.94146335 -0.5650078 0.3394489 0.5408491 0.23441659 -0.15094954 0.9401203
-0.5614212 0.34441411 0.55406487 0.3491922 -0.094983324 0.9529051 -0.5561484 0.34985396
0.5677686 0.4330805 -0.12364091 0.90688336 -0.5496955 0.35409498 0.5804518 0.39665395
-0.16497679 0.9050565 -0.54386467 0.35729346 0.592731 0.32671404 -0.27910176 0.9111508
-0.5391273 0.35845095 0.6043485 0.19425583 -0.19745864 0.8686489 -0.5363494 0.36012352
0.6157481 0.11683662 -0.19005127 0.8814004 -0.534702 0.36158812 0.6272822 0.102820545
-0.09904852 0.91620165 -0.5332728 0.3640996 0.6395971 0.053101942 -0.20887002 0.91601664
-0.5325453 0.36474273 0.65134734 0.08835982 -0.2097434 0.9340272 -0.53135246 0.36508185
0.6632447 0.024296291 -0.31791145 1.0049515 -0.53102934 0.3638536 0.67566156 0.0014683269
-0.2510575 1.0030707 -0.5310101 0.36312908 0.68815994 0.13297597 -0.2864087 1.0950936
-0.5292947 0.36182746 0.70166075 0.1533758 -0.22743073 0.998806 -0.52734685 0.3607603
0.7139309 0.06966483 -0.24010763 1.0141511 -0.526476 0.35931718 0.72623885 0.107847065
-0.15644282 1.0243956 -0.5251495 0.35870427 0.73863864 0.05330042 -0.20119528 0.9569778
-0.5245046 0.3572933 0.75000286 0.08971263 -0.2367934 0.83345044 -0.523437 0.3552181
0.75970995 0.06396222 -0.31647518 0.806708 -0.5226887 0.3521189 0.76891166 -0.0056947693

theta f4 [4501]
00000000: cdcc 4c3e cdcc 4c3e cdcc 4c3e cdcc 4c3e
00000010: cdcc 4c3e cdcc 4c3e cdcc 4c3e cdcc 4c3e
00000020: cdcc 4c3e cdcc 4c3e cdcc 4c3e cdcc 4c3e
00000030: cdcc 4c3e cdcc 4c3e cdcc 4c3e cdcc 4c3e
00000040: 242d 043e 242d 043e 242d 043e 242d 043e
00000050: 242d 043e 242d 043e 242d 043e 242d 043e
00000060: 242d 043e 242d 043e 242d 043e 242d 043e
00000070: 242d 043e 242d 043e 242d 043e 242d 043e
00000080: 242d 043e 242d 043e 242d 043e 242d 043e
00000090: 242d 043e 242d 043e 242d 043e 242d 043e
000000a0: 242d 043e 242d 043e 242d 043e 242d 043e
000000b0: 242d 043e 242d 043e 242d 043e 242d 043e
000000c0: 242d 043e 242d 043e 242d 043e 242d 043e
000000d0: 242d 043e 242d 043e 242d 043e 242d 043e
000000e0: 242d 043e 242d 043e 242d 043e 242d 043e
000000f0: 242d 043e 242d 043e 242d 043e 242d 043e
00000100: d5ab 943d d5ab 943d d5ab 943d d5ab 943d
00000110: d5ab 943d d5ab 943d d5ab 943d d5ab 943d
00000120: d5ab 943d d5ab 943d d5ab 943d d5ab 943d
00000130: d5ab 943d d5ab 943d d5ab 943d d5ab 943d
00000140: d5ab 943d d5ab 943d d5ab 943d d5ab 943d
00000150: d5ab 943d d5ab 943d d5ab 943d d5ab 943d
00000160: d5ab 943d d5ab 943d d5ab 943d d5ab 943d
00000170: d5ab 943d d5ab 943d d5ab 943d d5ab 943d
00000180: d5ab 943d d5ab 943d d5ab 943d d5ab 943d
00000190: d5ab 943d d5ab 943d d5ab 943d d5ab 943d
000001a0: d5ab 943d d5ab 943d d5ab 943d d5ab 943d
000001b0: d5ab 943d d5ab 943d d5ab 943d d5ab 943d
000001c0: d5ab 943d d5ab 943d d5ab 943d d5ab 943d
000001d0: d5ab 943d d5ab 943d d5ab 943d d5ab 943d
000001e0: d5ab 943d d5ab 943d d5ab 943d d5ab 943d
000001f0: d5ab 943d d5ab 943d d5ab 943d d5ab 943d
00000200: d5ab 943d d5ab 943d d5ab 943d d5ab 943d
00000210: d5ab 943d d5ab 943d d5ab 943d d5ab 943d
00000220: d5ab 943d d5ab 943d d5ab 943d d5ab 943d
00000230: d5ab 943d d5ab 943d d5ab 943d d5ab 943d
00000240: d5ab 943d d5ab 943d d5ab 943d d5ab 943d
00000250: d5ab 943d d5ab 943d d5ab 943d d5ab 943d
00000260: d5ab 943d d5ab 943d d5ab 943d bee6 9e3d
00000270: bee6 9e3d bee6 9e3d bee6 9e3d bee6 9e3d
00000280: bee6 9e3d bee6 9e3d bee6 9e3d bee6 9e3d
00000290: bee6 9e3d bee6 9e3d bee6 9e3d bee6 9e3d
000002a0: bee6 9e3d bee6 9e3d bee6 9e3d bee6 9e3d
000002b0: bee6 9e3d bee6 9e3d bee6 9e3d bee6 9e3d
000002c0: bee6 9e3d bee6 9e3d 94fd fc3d 94fd fc3d
000002d0: 94fd fc3d 94fd fc3d 94fd fc3d 94fd fc3d
000002e0: 94fd fc3d 6b08 6f3d 6b08 6f3d 6b2c db3d
000002f0: 6b2c db3d 6b2c db3d 6b2c db3d 6b2c db3d
00000300: 6b2c db3d 6b2c db3d 6b2c db3d 6b2c db3d
00000310: 6b2c db3d 6b2c db3d 6b2c db3d 6b2c db3d
00000320: 6b2c db3d 6b2c db3d 6b2c db3d 6b2c db3d
00000330: 6b2c db3d 6b2c db3d 6b2c db3d 6b2c db3d
00000340: 6b2c db3d 6b2c db3d 6b2c db3d 6b2c db3d
00000350: 6e98 0b3e 6e98 0b3e 6e98 0b3e 6e98 0b3e
00000360: 6e98 0b3e 6e98 0b3e 6e98 0b3e 6e98 0b3e
00000370: 6e98 0b3e 6e98 0b3e 6e98 0b3e 6e98 0b3e
00000380: 6e98 0b3e 6e98 0b3e 6e98 0b3e 6e98 0b3e
00000390: 6e98 0b3e 6e98 0b3e 6e98 0b3e 6e98 0b3e
000003a0: 6e98 0b3e 6e98 0b3e 6e98 0b3e 6e98 0b3e
000003b0: 6e98 0b3e 6e98 0b3e 6e98 0b3e 6e98 0b3e
000003c0: 6e98 0b3e 6e98 0b3e 6e98 0b3e 6e98 0b3e
000003d0: 6e98 0b3e 6e98 0b3e 6e98 0b3e 6e98 0b3e
000003e0: 6e98 0b3e 6e98 0b3e 6e98 0b3e 6e98 0b3e
000003f0: 6e98 0b3e 6e98 0b3e 6e98 0b3e 6e98 0b3e
0.2 0.2 0.2 0.2 0.2 0.2 0.2 0.2
0.2 0.2 0.2 0.2 0.2 0.2 0.2 0.2
0.12907845 0.12907845 0.12907845 0.12907845 0.12907845 0.12907845 0.12907845 0.12907845
0.12907845 0.12907845 0.12907845 0.12907845 0.12907845 0.12907845 0.12907845 0.12907845
0.12907845 0.12907845 0.12907845 0.12907845 0.12907845 0.12907845 0.12907845 0.12907845
0.12907845 0.12907845 0.12907845 0.12907845 0.12907845 0.12907845 0.12907845 0.12907845
0.12907845 0.12907845 0.12907845 0.12907845 0.12907845 0.12907845 0.12907845 0.12907845
0.12907845 0.12907845 0.12907845 0.12907845 0.12907845 0.12907845 0.12907845 0.12907845
0.07259337 0.07259337 0.07259337 0.07259337 0.07259337 0.07259337 0.07259337 0.07259337
0.07259337 0.07259337 0.07259337 0.07259337 0.07259337 0.07259337 0.07259337 0.07259337
0.07259337 0.07259337 0.07259337 0.07259337 0.07259337 0.07259337 0.07259337 0.07259337
0.07259337 0.07259337 0.07259337 0.07259337 0.07259337 0.07259337 0.07259337 0.07259337
0.07259337 0.07259337 0.07259337 0.07259337 0.07259337 0.07259337 0.07259337 0.07259337
0.07259337 0.07259337 0.07259337 0.07259337 0.07259337 0.07259337 0.07259337 0.07259337
0.07259337 0.07259337 0.07259337 0.07259337 0.07259337 0.07259337 0.07259337 0.07259337
0.07259337 0.07259337 0.07259337 0.07259337 0.07259337 0.07259337 0.07259337 0.07259337
0.07259337 0.07259337 0.07259337 0.07259337 0.07259337 0.07259337 0.07259337 0.07259337
0.07259337 0.07259337 0.07259337 0.07259337 0.07259337 0.07259337 0.07259337 0.07259337
0.07259337 0.07259337 0.07259337 0.07259337 0.07259337 0.07259337 0.07259337 0.07259337
0.07259337 0.07259337 0.07259337 0.07758854 0.07758854 0.07758854 0.07758854 0.07758854
0.07758854 0.07758854 0.07758854 0.07758854 0.07758854 0.07758854 0.07758854 0.07758854
0.07758854 0.07758854 0.07758854 0.07758854 0.07758854 0.07758854 0.07758854 0.07758854
0.07758854 0.07758854 0.12353054 0.12353054 0.12353054 0.12353054 0.12353054 0.12353054
0.12353054 0.058357637 0.058357637 0.107018314 0.107018314 0.107018314 0.107018314 0.107018314
0.107018314 0.107018314 0.107018314 0.107018314 0.107018314 0.107018314 0.107018314 0.107018314
0.107018314 0.107018314 0.107018314 0.107018314 0.107018314 0.107018314 0.107018314 0.107018314
0.107018314 0.107018314 0.107018314 0.107018314 0.13632366 0.13632366 0.13632366 0.13632366
0.13632366 0.13632366 0.13632366 0.13632366 0.13632366 0.13632366 0.13632366 0.13632366
0.13632366 0.13632366 0.13632366 0.13632366 0.13632366 0.13632366 0.13632366 0.13632366
0.13632366 0.13632366 0.13632366 0.13632366 0.13632366 0.13632366 0.13632366 0.13632366
0.13632366 0.13632366 0.13632366 0.13632366 0.13632366 0.13632366 0.13632366 0.13632366
0.13632366 0.13632366 0.13632366 0.13632366 0.13632366 0.13632366 0.13632366 0.13632366
